Output_Opt/adam_dynlr_model_pretrain.pt (torch, 4707 bytes, 5 tensors)

weight_ih_l0 f4 [28, 9]
4.3509007 0.87103665 0.55255044 1.2240423 1.3302708 1.327398 0.29005304 0.5272672
-1.1436219 0.8193696 -3.353543 1.1988895 0.5901084 1.098242 0.24898885 0.46537593
-0.76596427 -0.3433098 1.2771858 -2.33535 -1.214702 -1.4442344 -1.290729 0.5810013
0.86225575 0.0806003 0.044023737 0.24556763 0.77535826 3.251902 -0.22308475 2.5333273
-0.5237567 0.008015329 -0.13893712 -1.091721 2.922306 -1.0074521 1.8060093 1.2753108
1.7124103 -0.5453029 -0.38709357 0.49918208 -0.35540923 2.9685774 1.0894796 -0.8593644
1.0060191 1.1580158 -0.050360523 -0.32926446 -0.22151683 -1.4441082 2.859418 1.0281638
3.1720831 0.5495532 0.23071678 0.70837396 -0.87525463 0.09431395 0.11855045 0.10431343
1.2910892 1.5622065 1.9851977 2.31625 0.5468267 -0.49275088 0.50642526 -0.6920587
0.8604708 -0.955013 1.4765265 2.0706213 2.1878474 0.4637684 -0.36317402 0.8183611
0.041223727 0.39047435 0.2731262 0.34843576 1.2629422 0.54797316 -0.022300143 -0.45604727
1.436522 0.20821133 -0.68975765 0.5066653 1.0361596 1.2642267 1.7523736 -0.015741117
-0.5166079 -0.10880013 0.119608425 -0.11348688 -0.9004814 1.6253303 1.653211 1.5560136
0.20312919 0.11507983 0.615834 -0.002795309 0.33380327 -0.86295676 1.5415258 0.65487087
1.5823768 -0.040416744 0.14318162 0.9077934 1.0501137 -0.7254827 -0.37529626 2.4357262
1.5726928 2.5946436 0.22086735 -0.28682575 0.6771431 0.2649982 -0.31509212 -1.3959061
-0.15487166 -1.7865046 -1.7387882 0.23735811 -0.4276237 -1.0004964 1.8105369 0.108442135
0.93406194 2.0651774 3.7769372 3.708986 -0.59606 -0.24603218 -0.14475912 -1.0204484
-2.0121298 2.8435183 -0.66939205 -1.1626374 -1.3836159 0.097142056 0.28478384 -0.49262294
0.1789763 -0.7838378 -0.76406085 1.0329638 0.35639364 0.56653285 0.12017788 -0.89451694
0.4871204 -0.8264224 -0.6998559 2.1426718 0.06672508 -1.063344 -0.504183 -0.58849865
-0.44820964 -0.25009337 0.9126356 -0.3145045 -0.65146816 0.2986928 -0.37408948 -0.281935
-0.0034768088 -0.99463046 0.5266697 0.4917749 0.8335395 -0.31880984 1.4690795 2.748293
3.2858765 -2.2720497 -0.02879651 0.97722447 -1.0452495 -0.55480266 0.6335047 1.0327902
0.61353624 0.5238102 -0.9563329 -0.23974083 0.1252694 0.54755914 2.7579982 -0.10028959
-1.0556347 -0.64366955 -1.0052791 -0.13873112 0.058203995 -0.17753433 -0.08382752 1.1191454
-0.102908015 -0.33747488 -0.37279877 0.3291978 -0.036983162 0.008387281 0.06653917 -0.0033365942
0.6293033 -0.6709684 0.6172339 0.7946236 1.101822 -0.571939 -0.14082946 0.5823104
0.37779438 1.8055255 -2.3863804 -0.24701923 0.6781708 1.003476 -0.3906046 0.98609203
-0.07612407 0.17756748 3.978645 -1.1236293 -0.0650572 0.76996446 -0.13899869 0.044835813
0.15678178 -0.30984333 0.022725925 0.83583874 -1.9531034 0.9018173 1.7394258 0.7776161
-0.509576 1.2505152 0.6805991 -1.1081772
00000000: 943a 8b40 42fc 5e3f f273 0d3f 6bad 9c3f
00000010: 5046 aa3f 2de8 a93f d581 943e fcfa 063f
00000020: 3462 92bf 35c2 513f 73a0 56c0 3675 993f
00000030: 5811 173f 3293 8c3f eff6 7e3e c145 ee3e
00000040: 3c16 44bf 4dc6 afbe d37a a33f 6076 15c0
00000050: 5b7b 9bbf acdc b8bf 9c36 a5bf 80bc 143f
00000060: cbbc 5c3f c511 a53d 3c52 343d 1576 7b3e
00000070: e17d 463f 2a1f 5040 5470 64be 0922 2240
00000080: eb14 06bf ba52 033c 8845 0ebe 84bd 8bbf
00000090: 1007 3b40 31f4 80bf 502b e73f 623d a33f
000000a0: 4330 db3f f998 0bbf 2131 c6be cb94 ff3e
000000b0: 33f8 b5be 2cfd 3d40 1174 8b3f 4eff 5bbf
000000c0: 3cc5 803f dd39 943f d646 4ebd 5a95 a8be
000000d0: 4fd5 62be 8ad8 b8bf b400 3740 df9a 833f
000000e0: 6903 4b40 85af 0c3f 0541 6c3e ff57 353f
000000f0: b010 60bf ac27 c13d 94ca f23d 48a2 d53d
00000100: 6942 a53f 62f6 c73f f51a fe3f 713d 1440
00000110: d6fc 0b3f d849 fcbe 16a5 013f c22a 31bf
00000120: d047 5c3f bb7b 74bf d2fe bc3f 0f85 0440
00000130: b105 0c40 0d73 ed3e f2f1 b9be 1d80 513f
00000140: 36da 283d 41ec c73e 33d7 8b3e 2c66 b23e
00000150: 17a8 a13f f847 0c3f caae b6bc 077f e9be
00000160: f4df b73f 5a35 553e f593 30bf d1b4 013f
00000170: e1a0 843f 2ed2 a13f c74d e03f 84f3 80bc
00000180: 6a40 04bf 9ad2 debd 43f5 f43d cf6b e8bd
00000190: f385 66bf d30a d03f 6b9c d33f 742b c73f
000001a0: 1901 503e f9ae eb3d 4ca7 1d3f 8131 37bb
000001b0: 43e8 aa3e bcea 5cbf b850 c53f 9ea5 273f
000001c0: 538b ca3f 078c 25bd 349e 123e 2665 683f
000001d0: 206a 863f 3cb9 39bf d526 c0be f0e2 1b40
000001e0: ff4d c93f a40e 2640 0d2b 623e d3da 92be
000001f0: 4059 2d3f d8ad 873e c153 a1be 0dad b2bf
00000200: ad96 1ebe 2fac e4bf 9d90 debf 010e 733e
00000210: 7ef1 dabe 4410 80bf acbf e73f e916 de3d
00000220: af1e 6f3f de2b 0440 57b9 7140 0760 6d40
00000230: 6397 18bf dcef 7bbe bc3b 14be 0e9e 82bf
00000240: bcc6 00c0 34fc 3540 475d 2bbf 4dd1 94bf
00000250: 531a b1bf 6af2 c63d 30cf 913e 1339 fcbe
00000260: 9045 373e 98a9 48bf 7e99 43bf 2838 843f
00000270: 3a79 b63e 4c08 113f d21f f63d 10ff 64bf
00000280: d867 f93e 6b90 53bf c229 33bf 8921 0940
00000290: 29a7 883d a81b 88bf 2312 01bf d9a7 16bf
000002a0: bc7b e5be 3d0c 80be 7da2 693f bc06 a1be
000002b0: 9ec6 26bf 43ee 983e a888 bfbe c959 90be
000002c0: 2cdb 63bb 1aa0 7ebf d3d3 063f ebc9 fb3e
000002d0: d862 553f 0b3b a3be cc0a bc3f 08e4 2f40
000002e0: cd4b 5240 4369 11c0 a9e6 ebbc 622b 7a3f
000002f0: bcca 85bf 8c07 0ebf 5d2d 223f 7832 843f
00000300: b610 1d3f 6d18 063f 3cd2 74bf 9f7e 75be
00000310: 9f46 003e d62c 0c3f 0b83 3040 a164 cdbd
00000320: 0a1f 87bf 87c7 24bf fcac 80bf 880f 0ebe
00000330: 5067 6e3d 8fcb 35be c3ad abbd 2840 8f3f
00000340: 70c1 d2bd 82c9 acbe 7bdf bebe 9d8c a83e
00000350: a87b 17bd ce6a 093c b045 883d c3aa 5abb
00000360: 051a 213f 96c4 2bbf 0a03 1e3f 746c 4b3f
00000370: 8108 8d3f 986a 12bf 9935 10be 4b12 153f
00000380: 446e c13e 761b e73f 75ba 18c0 9cf2 7cbe
00000390: 9a9c 2d3f e771 803f 53fd c7be 8770 7c3f
000003a0: f0e6 9bbd 40d4 353e 1fa2 7e40 16d3 8fbf
000003b0: b63c 85bd 641c 453f ac55 0ebe c2a5 373d
000003c0: 678b 203e c9a3 9ebe b82b ba3c 87f9 553f
000003d0: 4bff f9bf 80dd 663f 81a5 de3f d911 473f
000003e0: 9373 02bf e210 a03f be3b 2e3f c0d8 8dbf

weight_hh_l0 f4 [28, 7]
-1.4901315 -1.8179913 -1.2840877 -0.88210136 -0.43174812 1.9718393 1.8439887 0.963369
0.18465328 0.5795183 -1.7489396 1.9218658 0.32915598 0.39730018 -2.414322 1.930944
1.7118707 3.3341744 -3.394221 -3.1241753 1.6416643 -1.8647814 -0.1811687 -0.7945156
1.8632119 -0.47634792 0.6915906 2.6769185 -0.5899154 -0.019347642 -2.8111868 -0.8345321
-0.35819232 1.6601722 -0.553145 -2.2462738 1.6404583 -2.2952893 1.3263248 -1.5236369
-0.5691211 1.914853 0.41331577 -0.43700215 -1.9377915 -0.42261547 0.97650874 0.2053779
1.2320428 -0.7532027 0.39904404 -0.023025077 1.7412956 -1.018283 -0.4789587 2.986652
-0.73990947 -1.5026103 2.9957137 -0.543985 0.16461158 -0.2813633 0.32504028 0.8262591
0.3244128 -0.3357074 -0.0047280686 -0.5062876 0.31724805 -0.78738457 -4.572953 -1.1362984
0.48371145 1.9998069 -0.21857238 0.03899319 2.7057455 0.20002876 0.41582435 0.013396295
0.90248096 -1.0185844 -0.47457656 3.9499922 -1.9044855 0.73031664 0.2458856 3.4900227
-3.5928621 -0.7998139 2.2827878 -0.33823135 1.7416161 -0.028386105 1.338743 -0.55292505
-0.81589895 -0.1390055 0.71078515 -1.7296118 1.7460406 0.46347907 0.23596746 0.6514571
-1.3007559 0.89619243 -0.72400576 -1.277226 0.41779596 -0.42006144 -0.84475356 -0.5922069
-0.21161975 -2.2858796 1.1560961 1.538782 -1.3300341 -1.0620793 0.614975 -1.0157629
0.76268417 0.40858042 -0.35990962 -1.6757469 -0.25089547 1.3458188 1.3291899 -0.16552308
1.0218816 -0.3502067 0.73968786 -0.4295037 -0.58294 0.5349492 -2.11488 0.22249155
-2.5997305 1.4319834 0.86475104 -1.7048273 -0.81682944 1.968139 -0.4271218 0.039498083
-0.3846055 -0.62927556 0.060464077 -5.054981 1.1955535 -1.4737816 1.049306 -0.82291996
1.1117254 5.097639 -1.2703751 1.9576323 -2.336368 0.0072728503 -1.0339701 -1.9423131
2.9348733 -1.9649371 1.65904 -2.0757213 4.523601 -1.971335 -1.0129348 1.319705
-1.9666635 0.94081056 -0.101990364 2.4002798 -2.0752118 -0.2208494 2.3990173 -1.0483541
1.2027091 -0.58377796 1.907993 -1.8706914 -0.3692014 0.8569998 -1.6257868 2.8193867
-0.964038 2.6918986 -1.1477005 -1.8684248 0.92712355 -1.301729 1.6371989 -1.2367681
1.4585127 -1.5740591 -1.198434 2.4267166
00000000: a1bc bebf f0b3 e8bf fc5c a4bf 65d1 61bf
00000010: 170e ddbe 3b65 fc3f d207 ec3f 5a9f 763f
00000020: c015 3d3e 505b 143f 41dd dfbf b3ff f53f
00000030: 2287 a83e ee6a cb3e 4084 1ac0 2c29 f73f
00000040: 941e db3f 1d63 5540 eb3a 59c0 7df2 47c0
00000050: 0e22 d23f 28b1 eebf 4a84 39be 6065 4bbf
00000060: ba7d ee3f e0e3 f3be 150c 313f a252 2b40
00000070: b204 17bf f27e 9ebc 7cea 33c0 e5a3 55bf
00000080: fc64 b7be 8680 d43f e99a 0dbf f3c2 0fc0
00000090: 8afa d13f 05e6 12c0 03c5 a93f 8906 c3bf
000000a0: ecb1 11bf e719 f53f 209e d33e bfbe dfbe
000000b0: 8d09 f8bf 0e61 d8be 7afc 793f 964e 523e
000000c0: 94b3 9d3f e4d1 40bf 804f cc3e 169f bcbc
000000d0: c6e2 de3f 1957 82bf 133a f5be 4e25 3f40
000000e0: b56a 3dbf 8955 c0bf c6b9 3f40 9a42 0bbf
000000f0: f08f 283e da0e 90be ae6b a63e b785 533f
00000100: 6f19 a63e d7e1 abbe eaed 9abb 109c 01bf
00000110: 566e a23e 0992 49bf a255 92c0 3a72 91bf
00000120: 07a9 f73e acf9 ff3f 70d1 5fbe 53b7 1f3d
00000130: ef2a 2d40 57d4 4c3e eee6 d43e 227c 5b3c
00000140: fe08 673f f960 82bf b3fb f2be accc 7c40
00000150: 2ec6 f3bf 08f6 3a3f 6fc9 7b3e 885c 5f40
00000160: 74f1 65c0 9bc0 4cbf 3219 1240 a92c adbe
00000170: 47ed de3f fa89 e8bc ee5b ab3f 7f8c 0dbf
00000180: c1de 50bf 7557 0ebe 04f6 353f eb63 ddbf
00000190: 427e df3f 214d ed3e 74a1 713e e4c5 263f
000001a0: 2b7f a6bf de6c 653f 7158 39bf 247c a3bf
000001b0: 5ae9 d53e 4b12 d7be c541 58bf df9a 17bf
000001c0: d9b2 58be da4b 12c0 f5fa 933f cff6 c43f
000001d0: 8f3e aabf 37f2 87bf 006f 1d3f 8504 82bf
000001e0: 453f 433f 7431 d13e 1346 b8be e07e d6bf
000001f0: 5f75 80be ca43 ac3f e522 aa3f e27e 29be
00000200: 04cd 823f 4b4e b3be 2f5c 3d3f e9e7 dbbe
00000210: 8e3b 15bf 6ef2 083f 325a 07c0 d3d4 633e
00000220: fc61 26c0 3b4b b73f 5360 5d3f c837 dabf
00000230: bc1b 51bf fbeb fb3f b5af dabe bec8 213d
00000240: 03eb c4be 3418 21bf 2ea9 773d 68c2 a1c0
00000250: e607 993f e0a4 bcbf a94f 863f e2aa 52bf
00000260: 054d 8e3f dc1f a340 a79b a2bf b293 fa3f
00000270: 0e87 15c0 1751 ee3b 2259 84bf b79d f8bf
00000280: f7d4 3b40 0f83 fbbf 6c5b d43f 9ed8 04c0
00000290: 57c1 9040 b554 fcbf d9a7 81bf 18ec a83f
000002a0: a1bb fbbf f6d8 703f 53e0 d0bd 2f9e 1940
000002b0: 45d0 04c0 5826 62be 8089 1940 7830 86bf
000002c0: 5ff2 993f 7972 15bf 1d39 f43f d172 efbf
000002d0: f707 bdbe 5764 5b3f c819 d0bf d570 3440
000002e0: 32cb 76bf 1148 2c40 dae7 92bf 8b28 efbf
000002f0: f857 6d3f 0e9f a6bf bc8f d13f 6b4e 9ebf
00000300: 8bb0 ba3f c57a c9bf 4966 99bf 534f 1b40

bias_ih_l0 f4 [28]
-0.3780883 -3.0622842 0.59228 1.7934284 0.41806433 -0.024640659 -0.38182852 0.8444606
0.13575076 1.2402891 1.8266833 1.9224794 0.77882093 1.2264738 -0.940405 0.32859707
1.4625673 2.3322911 -2.5756164 -1.6764975 1.0793004 0.86004126 0.38568833 1.4901122
2.2976902 1.7804582 1.4899021 0.84901434
00000000: ca94 c1be 77fc 43c0 a99f 173f 108f e53f
00000010: 870c d63e 35db c9bc 077f c3be 922e 583f
00000020: 3f02 0b3e cbc1 9e3f c2d0 e93f ce13 f63f
00000030: cf60 473f 18fd 9c3f 62be 70bf e03d a83e
00000040: 6835 bb3f 4244 1540 e6d6 24c0 7897 d6bf
00000050: 8426 8a3f aa2b 5c3f f178 c53e ffbb be3f
00000060: 5b0d 1340 0ee6 e33f 1db5 be3f 0159 593f

bias_hh_l0 f4 [28]
-0.40381297 -2.8802488 0.5138101 1.6562003 0.6271207 -0.50291616 -0.51412547 1.003793
0.056527298 1.4816349 1.1462369 1.9085369 1.3152508 1.5395045 -1.317641 0.66784
1.6904151 2.5078943 -2.4994614 -1.8343321 0.47942314 0.6133719 1.0169911 1.4820025
1.7717558 1.9109377 1.4656696 0.9223811
00000000: 93c0 cebe ff55 38c0 0f89 033f 5ffe d33f
00000010: fb8a 203f 1dbf 00bf ba9d 03bf 4a7c 803f
00000020: 2b89 673d 36a6 bd3f e4b7 923f f04a f43f
00000030: 235a a83f 7c0e c53f 76a8 a8bf 90f7 2a3f
00000040: 865f d83f 5781 2040 2df7 1fc0 65cb eabf
00000050: f376 f53e f105 1d3f c42c 823f 42b2 bd3f
00000060: e5c8 e23f 9b99 f43f 109b bb3f 2b21 6c3f

weight f4 [1, 7]
-1.9585798 7.138964 -3.2013686 2.0511212 -2.489005 -2.3248944 2.5937922
00000000: beb2 fabf 6572 e440 39e3 4cc0 9245 0340
00000010: dc4b 1fc0 12cb 14c0 b100 2640
