Output_Opt/adamw_dynlr_model_pretrain.pt (torch, 4707 bytes, 5 tensors)

weight_ih_l0 f4 [28, 9]
00000000: 1eaa 2d3e 8a06 1e3f 7334 ab3f 6d41 9d3f
00000010: 88fe 2a3f 8843 973e f1f0 6ebe d7e6 bdbd
00000020: 9107 8bbe ec33 1940 1836 17c0 4a22 b9be
00000030: 7916 603b dab1 b0bd ce2a 87bc 2ef2 90bd
00000040: ec09 22bd 9ed7 a1be bd5f c63f b6cf 22c0
00000050: e86c 0c3f 8bf7 603e 408c dcbe 5107 b13c
00000060: 95e7 e53e 0d4e 94bf e98a 303f 68bb 0fbf
00000070: 70b9 a1bf 925f 1540 02d2 ef3f ccdd 123f
00000080: c322 52bf f146 46bd e6ed ab3e fae8 e4bf
00000090: 6f9f 5440 ac37 cabe 4c73 2440 3772 0c40
000000a0: 4fe2 b33e 569b 4cbf 0bf9 88bf e88d a83f
000000b0: bf24 b0bf e1f5 75bf cfb0 83bc 7bde cd3f
000000c0: 3ba3 6ebe 57ce 1c40 37c5 11bf cd64 4dbd
000000d0: f604 613f 0a4f 5cbe 0224 0b40 a440 7e3f
000000e0: 571e d33f 196a eb3f d272 fc3f 75a4 973d
000000f0: 90cd d7be 1a48 24be 1757 20bf ba0f afbf
00000100: df84 153f 44dd c73e b909 813f 1779 8a3e
00000110: 9cb1 c83d 9ab1 0bbf 2449 c93f 19c8 cebf
00000120: 4275 2540 4eaf c5bf c957 533f b2d6 383f
00000130: 8b13 983f 8a89 0fbf 85ae 153f d729 973e
00000140: 585e c83c 2a9d 18bd 97a3 2b3e a20d 723f
00000150: 50b2 d63f c464 b73f c8b9 aa3d 2b5f b5be
00000160: f6f5 80bd 1ea0 98bf bd71 84be 32c0 6bbf
00000170: 5728 563f e57f f03f ad20 3940 5f75 d33e
00000180: 4777 a7be ba04 29bf 65b6 5bbf f483 0c3f
00000190: 0fce 8f3e 024c e03f a6e7 983f 9fd2 f83f
000001a0: ec88 bc3e 3de7 c3be b55c 8f3e 7e7c d33e
000001b0: 554a 04bf 37b6 c9bd aa1b 083f 3032 fa3e
000001c0: 12bf a53f c2be 113e 568b 6d3d 1f68 f8bb
000001d0: 197e 323e 49df 713e 40ce ac3d 6e9c 913f
000001e0: 8429 633f 89cd 843f 1554 79bd 6d07 5b3e
000001f0: e831 0f3e 7de8 b8bd a8d1 bfbf 6d89 5b40
00000200: 2aa1 ecbe a4c7 b5be ce55 f7be 1779 663e
00000210: d321 5dbe f07e adbc cea7 9bbf c9c7 f4bf
00000220: c028 8abf 0be9 8c3e 5694 babe c5b4 03bf
00000230: 3590 ad3e 6dc5 25bf 0c69 2cbe 56da 293f
00000240: f577 9bbe 108c 84be 7124 fdbf a50c 08c0
00000250: 67a5 f3bf 80a1 90be 9183 163f f32d 47bf
00000260: 4483 de3e 6016 1dbf f80a 08bf a952 023f
00000270: fc04 163f 5f82 ee3e b44c b4be 7396 763e
00000280: 4c5b 2a3f d7c0 93bf 502f c23f ac45 273f
00000290: 10f6 acbf db21 43bf 076b cabf 53fa 6b3f
000002a0: 2e56 6b3e a671 3dbe 793e 943f d08e cdbe
000002b0: b689 b73e 4d04 6bbd 0f87 5dbe b5ad f1bd
000002c0: 8a72 3b3f 8f8e d2bd 7009 7abd a0c6 963d
000002d0: 0d7e 873f 2498 32be 0b6f 1a3e bd2d db3f
000002e0: eb68 cf3f 57a4 79bf bcbd 77bf 7008 f33e
000002f0: e640 e1be 7385 b8bf aa0e 6bbf 62c1 593f
00000300: 85d6 323f f925 b73f 623f 033e e679 d0be
00000310: c45e 843e 3b84 42bf 5554 05c0 0405 17c0
00000320: 03ba 903f 3573 f23e beae 153f 0393 29be
00000330: 28c0 1bbe 37fe ba3e 73c2 bdbe a7ef 833f
00000340: 157c 43c0 4ba9 943f 5a0b e73e 944b c63f
00000350: b30e 53be bdf0 47bd ccd3 e93e 4c59 9abc
00000360: 0bb3 cb3f 5e08 b6be 225b 933f 1c97 c43f
00000370: 0cff f53f 9546 853d 56fe 54be b9a1 4d3e
00000380: 58b8 1dbf 9bdc ad3e c8e1 cd3e 1276 f33e
00000390: 653c b93e 7ead 4d3f e236 0ebf 21a6 64bd
000003a0: 26b1 e33d efdb 2f3e 1113 ba40 819e 8dbe
000003b0: 21c4 8ebe 6760 32be 1bd5 dabe c91b 363d
000003c0: e37c 383c 553b 263e 41d8 8dbd 5366 5f40
000003d0: b4ac e4ba 2575 753e e7db 283f 501f 103f
000003e0: 6724 89be eeaf 5a3e a1d6 f33e 9c00 0dbe
0.16959426 0.6172873 1.3375381 1.2285591 0.66794634 0.2954371 -0.233341 -0.09272545
-0.2715421 2.393794 -2.3626766 -0.36158973 0.0034193082 -0.086276725 -0.016499903 -0.07077442
-0.039560243 -0.31609815 1.5497967 -2.5439277 0.5485368 0.2196943 -0.43075752 0.021609934
0.44903246 -1.1586319 0.6896196 -0.56145334 -1.2634716 2.3339581 1.8735964 0.57369685
-0.8208429 -0.0484075 0.3357994 -1.7883599 3.322231 -0.394956 2.5695372 2.1944711
0.35133597 -0.79924524 -1.0701002 1.3168306 -1.3761214 -0.96078306 -0.01607552 1.6083521
-0.23304455 2.450094 -0.5694155 -0.05014496 0.87898195 -0.21514526 2.1740727 0.99317384
1.6493634 1.8391753 1.972254 0.074044146 -0.4214902 -0.1604313 -0.6263289 -1.3676674
0.5840587 0.39036 1.0081092 0.2704551 0.09799501 -0.54567873 1.5725446 -1.6154815
2.5852818 -1.5444124 0.82555825 0.722026 1.1880964 -0.5606924 0.5846942 0.2952411
0.02445905 -0.03725926 0.16761623 0.9455205 1.6773167 1.4327626 0.08336216 -0.3542417
-0.06296913 -1.1923864 -0.25868025 -0.9209014 0.83655304 1.878903 2.8926194 0.41300485
-0.3270819 -0.6602284 -0.85825187 0.54888844 0.28086898 1.7523196 1.1945693 1.9439276
0.36823213 -0.38262358 0.28000417 0.41305918 -0.5167592 -0.09849208 0.5316721 0.48866415
1.2948935 0.14232925 0.05799421 -0.0075807716 0.17430915 0.23620333 0.084377766 1.1375864
0.8873522 1.0375224 -0.060871202 0.21389551 0.13983881 -0.090287186 -1.4985857 3.4302628
-0.46216708 -0.35503876 -0.4830765 0.2250713 -0.21594934 -0.021178693 -1.2160585 -1.912347
-1.0793686 0.27521548 -0.36441296 -0.5144771 0.33899084 -0.6475437 -0.16836947 0.6634878
-0.30364957 -0.2588811 -1.9776746 -2.1257718 -1.9034852 -0.28248215 0.58794504 -0.7780449
0.43459523 -0.61362267 -0.53141737 0.5090738 0.58601356 0.4658384 -0.3521477 0.2408083
0.6654556 -1.1543225 1.5170689 0.65340686 -1.3512592 -0.76223534 -1.5813912 0.9217884
0.22982094 -0.18500385 1.1581565 -0.4014802 0.35847253 -0.05737715 -0.21633552 -0.1180071
0.7322165 -0.10281097 -0.061044157 0.073621035 1.0585343 -0.1744085 0.15081422 1.7123333
1.6203893 -0.9751639 -0.96773887 0.47467375 -0.43994826 -1.4415725 -0.9181925 0.85060704
0.6985858 1.4308463 0.12817147 -0.40718 0.2585355 -0.7598302 -2.0832722 -2.3596811
1.1306766 0.4735352 0.5846976 -0.16559987 -0.1521002 0.36522076 -0.37062415 1.0307511
-3.0544484 1.1614164 0.45125848 1.5491815 -0.20611076 -0.04881357 0.456694 -0.018841408
1.5914015 -0.3555326 1.1512187 1.5358615 1.9218459 0.06507603 -0.20800146 0.20081224
-0.6160941 0.3395737 0.4021132 0.47551018 0.3617889 0.80342853 -0.55552495 -0.055822495
0.11117773 0.17173742 5.8148274 -0.2765999 -0.2788401 -0.17419587 -0.42740712 0.04446009
0.011260244 0.16233571 -0.06926013 3.4906204 -0.0017446489 0.23970468 0.65960544 0.5629778
-0.26785585 0.21356174 0.47624686 -0.13769764

weight_hh_l0 f4 [28, 7]
00000000: 9325 a0bf 06f8 e83e ca05 b93f 1e50 fcbe
00000010: c875 0940 bdf0 433f cc32 8d3e 1d67 57c0
00000020: a7e5 723f 9a23 e5bd 781a d2bf 1154 903f
00000030: 4b06 b03f 80d2 96be 0cba 2ebf 36b6 a83f
00000040: 1698 423f 204e ccbf f39a 893f d4b9 f93e
00000050: 59b0 ef3a 114c b33f e357 d93d 7aab febf
00000060: dd12 cb3f 3e02 ac3f 30f6 0540 0d92 febf
00000070: 6377 b53c c412 bcbe 374f b53f 653b a73e
00000080: 3994 0f3f 7be1 903f bbb8 83bf 0a60 d8bf
00000090: 6499 b8bf b0b0 32bf 42e4 25be 59f6 a5bf
000000a0: 1605 96bf 08d5 143e 7412 a5bc 08b0 873f
000000b0: c8b2 ea3f 0c7c 96bf 9042 73bf e0cd de3f
000000c0: 7b5a 9e3e 0063 443e 6d9e c8bc 43c5 663f
000000d0: b9bb 9e3f ca8c 84be ca0c 00bf 3ca0 19bf
000000e0: 0384 b8bf 69dd 98bf ffdf db3e 070c c23e
000000f0: 8175 13bd 70c7 aabe 5d96 123f 8c6f d23f
00000100: 1110 3d3e c8ab 763f aab3 0dbf 5f8b f8be
00000110: b025 4ebf 4d5a 243f ab5b dcbe 3fac c43d
00000120: 2719 1dbd abac 58be 7005 d2be d797 403c
00000130: 3c94 8f3c 9875 0640 2566 8abf 1a48 0140
00000140: 2ef8 ee3f 6842 24be ad35 93bf 3d3b b03e
00000150: b468 073f 1077 bdbd 9881 2b3f 146f 0140
00000160: 5338 3dc0 b5e2 5bbf 6c9a e23f c947 bf3f
00000170: 324e 823f 1ed4 3abf 5ab7 953f f46a aabf
00000180: 19c8 9dbf 3d38 debd 4cab 88bf 8802 4fbe
00000190: e5af 893f 3ac2 803f 80fa 30bf a813 9fbf
000001a0: 17ae 17bf a0f3 d43e 0096 3d3e da0b 573f
000001b0: ce2e 6b3e d1d0 2d3f 3f36 edbd 1389 51bf
000001c0: 5220 ebbf 32e1 97bf 2792 9dbf fe51 273f
000001d0: c1c7 d73e 5423 84bf 8359 85be 1e06 d23f
000001e0: 6b92 46bf 4b84 84bf 4ae8 c73f f6b6 4a3e
000001f0: dcd9 143f 8166 7a3e 0fec 2ebf e72b 093e
00000200: c5eb c13d 9049 95bf c7f5 803f 6c6f b43e
00000210: 669d a73d a5c5 f9bd bed3 b83e 8abe ab3e
00000220: 471d 92bf 57fc 4ebd c016 433f 910c c7bf
00000230: 7b63 f7be d485 30bf c30a 44bf 77d7 2b3f
00000240: 3cee c5bf b1f9 73be 434e b23e eb4c b4be
00000250: ce30 18bf 4a35 86bf b5c7 3340 709b 9bbf
00000260: e8ce a33e 1522 493f fc42 a93e f229 05c0
00000270: f106 db3d 94fe f83f dabc cbbf e5b6 de3e
00000280: 7092 39bf 0fcc e93f 530c 8abf 7880 d3bd
00000290: 3e08 0340 bf92 16bf 5fc2 dc3e 989f 793f
000002a0: 4309 a73f 312e 93bf 8599 b03e 1655 af3f
000002b0: 2f70 e9be 9b80 ddbb 705d 583f 0ce8 2e3f
000002c0: 190a 8fbf 055b ddbe 829f a83f d940 48c0
000002d0: 8fdd 57be b49e f03f 65eb 17bf c1ff 753c
000002e0: aaa0 a73f bde5 453f 84a6 13be 501a c2bf
000002f0: 853b 573f 7a0a 9cbe 5a3e 91be f168 1bbf
00000300: f3ab 533f 5498 85bf 5237 d5bf 98d6 b73f
-1.2511467 0.45501727 1.4454892 -0.49279875 2.1478138 0.7653921 0.27577817 -3.3656685
0.9488167 -0.11188431 -1.6414328 1.1275655 1.375192 -0.29457474 -0.68252635 1.3180606
0.76013315 -1.5961342 1.0750412 0.48774588 0.0018286809 1.4007589 0.10612466 -1.989608
1.5865132 1.3438184 2.093151 -1.9888321 0.022151655 -0.36733067 1.41648 0.32662502
0.56085545 1.1318811 -1.029075 -1.6904309 -1.4421811 -0.69800854 -0.16200355 -1.2965804
-1.1720302 0.1453439 -0.0201504 1.0600595 1.833581 -1.1756606 -0.9502344 1.7406578
0.30928406 0.1917839 -0.024489606 0.9014475 1.2401038 -0.25888664 -0.50019515 -0.60010123
-1.4415287 -1.1942569 0.42944333 0.378998 -0.036000732 -0.33355284 0.57260686 1.6440291
0.1846316 0.9635587 -0.5535227 -0.48543832 -0.80526257 0.6420029 -0.43038687 0.09603166
-0.038354065 -0.21159618 -0.41019773 0.011754951 0.017526738 2.1009274 -1.0812422 2.0200257
1.8669488 -0.16040957 -1.1500756 0.34420195 0.5289414 -0.09251225 0.6699462 2.0224047
-2.9565628 -0.858928 1.7703376 1.4943782 1.0180113 -0.72979915 1.169658 -1.331389
-1.232669 -0.1085057 -1.0677276 -0.2021581 1.0756804 1.0059273 -0.6913223 -1.2427874
-0.59250015 0.4159212 0.18514252 0.8400246 0.22967073 0.67896754 -0.11582612 -0.81849784
-1.8369238 -1.1865599 -1.2310227 0.65359485 0.42144588 -1.0323281 -0.26044855 1.6408117
-0.77567166 -1.0352873 1.5617764 0.19796357 0.5814493 0.24453165 -0.68328947 0.13395654
0.094687976 -1.1663074 1.0075005 0.35241258 0.08184318 -0.12195901 0.36099046 0.33543807
-1.1415185 -0.05053362 0.7620659 -1.555071 -0.48318085 -0.68954206 -0.7657892 0.6712565
-1.5463328 -0.23825718 0.34825334 -0.35214934 -0.5944947 -1.0485013 2.8090641 -1.2156811
0.31993794 0.7856763 0.33058918 -2.0806851 0.10694683 1.9452691 -1.5917008 0.43498912
-0.7248907 1.8265399 -1.0785011 -0.10327238 2.047378 -0.58817667 0.43117043 0.97509146
1.3049701 -1.1498471 0.34492126 1.3697841 -0.45593402 -0.0067597157 0.84517574 0.68322825
-1.1174957 -0.43233505 1.3173678 -3.128958 -0.21080612 1.8798432 -0.5934356 0.01501459
1.3095906 0.7730368 -0.1441899 -1.516428 0.84075195 -0.30476743 -0.28367883 -0.60707
0.8268425 -1.0437112 -1.6657507 1.4362364

bias_ih_l0 f4 [28]
00000000: 1016 cebd a332 c3bf 3b01 a6bf b5d5 6b3f
00000010: 0a81 44bf 74b2 b03f 2362 8cbf 05a3 853f
00000020: c36b 9ebe 766a fe3e 8c5b 693f 44ec 6e3f
00000030: 282a 973f 0852 923f b86f d83f 0e73 2cbf
00000040: 04ed 653e 43f1 923f bd42 dabf cefa a0bf
00000050: 357b 803f 67e0 7ebf 2534 013f 0aee babf
00000060: 0c17 993f d7f7 923e 3fa1 a73f 3f1f d13f
-0.10062802 -1.5249828 -1.2969126 0.92122966 -0.767594 1.380446 -1.0967449 1.0440375
-0.3094159 0.49690598 0.91155314 0.9332926 1.180974 1.1431284 1.6909094 -0.6736306
0.22453696 1.1479877 -1.7051617 -1.257654 1.00376 -0.9956116 0.5047019 -1.4603894
1.1960158 0.28704712 1.3096083 1.633766

bias_hh_l0 f4 [28]
00000000: ca34 0e3d 85de 7dbf 863d 72bf 3e36 1a3f
00000010: b4dd 2cbf 20ae ae3f 4a3e 8dbf d73c 833f
00000020: 47e3 82be aff3 173f b16d 4b3f 7333 6d3f
00000030: 1463 a53f 7778 8a3f b7cf a93f b168 7ebf
00000040: b118 c13c eb06 b63f 2d23 c7bf 8db9 b2bf
00000050: c2b6 8e3f c333 17bf bcc7 023e 3c37 b9bf
00000060: bde6 2f3f e10d b33e 5f16 cb3f 61b5 e13f
0.034718312 -0.9916766 -0.9462513 0.60239017 -0.6752579 1.3646889 -1.1034634 1.0252942
-0.25564024 0.59356207 0.7946425 0.9265663 1.2920861 1.0818013 1.3266515 -0.99378496
0.023571344 1.4220861 -1.555761 -1.3962876 1.1149523 -0.5906336 0.12771505 -1.4469981
0.68711454 0.34971526 1.5866202 1.7633477

weight f4 [1, 7]
00000000: 17a2 5fc0 60ed 58c0 4b5a 7fc0 a808 5a40
00000010: 6c4c 25c0 c7aa 5bc0 367c 4a40
-3.4942682 -3.3894882 -3.989886 3.4067783 -2.5827894 -3.4322984 3.1638312
