Output_Opt/adam_dynlr_model_finetune.pt (torch, 4707 bytes, 5 tensors)

weight_ih_l0 f4 [28, 9]
0	0x4084c093	4.1485076
1	0xbf1022bf	-0.5630302
2	0x3f0735bc	0.5281637
3	0x3f2e463e	0.6807593
4	0x3f35dba1	0.7103825
5	0x3ee292f8	0.44252753
6	0x3f95838e	1.1680772
7	0x3d8b9ac1	0.06816626
8	0xbf9ca1e6	-1.2236907
9	0x3ec900e6	0.39258498
10	0xc062b70a	-3.5424218
11	0x3f9cc870	1.2248669
12	0x3ef73b6b	0.4828752
13	0x3f82710e	1.0190752
14	0x3ec03899	0.3754318
15	0xbd1559f8	-0.036462754
16	0x3d822af8	0.06355852
17	0xbe964073	-0.29346046
18	0x3fe66a78	1.8001242
19	0xbfd0184e	-1.6257417
20	0xbcdf55bd	-0.027262563
21	0xc00d78c5	-2.2104962
22	0xbfaf8f2a	-1.3715565
23	0xbfb34eec	-1.400846
24	0x3f066a13	0.52505606
25	0xbf6a8bfb	-0.91619843
26	0xbedda9d6	-0.43293637
27	0x3f8a0e36	1.0785587
28	0x3fb7ec3d	1.4368969
29	0x403180ad	2.7734787
30	0x3eee3a6a	0.4652894
31	0x40662f2e	3.5966296
32	0xbdf0edd9	-0.11764116
33	0xbeebef3b	-0.46080956
34	0x3e9c7d6b	0.30564436
35	0xbf60ea21	-0.8785725
36	0x3fe6c75c	1.802959
37	0xbf93c203	-1.1543583
38	0x3fbac439	1.4591132
39	0x3f1312e1	0.5745068
40	0x3f93ddd4	1.1552072
41	0x3c667e32	0.014068173
42	0x3da192a6	0.07889299
43	0xbdaf1adc	-0.08550045
44	0xbee4577b	-0.44597992
45	0x403027c6	2.7524276
46	0x3fae2eb3	1.3608001
47	0xbf4d7c0f	-0.80267423
48	0x3f221678	0.63315535
49	0x3fda6a7a	1.7063744
50	0xbec180ac	-0.3779348
51	0xbe28085a	-0.16409436
52	0x3ecf330c	0.40468633
53	0xbf90d540	-1.1315079
54	0x40409b31	3.0094721
55	0x3fb335cd	1.4000794
56	0x403c289c	2.9399786
57	0x3f8086a6	1.0041091
58	0x3f5c7a40	0.8612404
59	0xbe8214ea	-0.2540658
60	0xbf672dc4	-0.9030421
61	0x3e52ac3e	0.20573518
62	0x3e43fe39	0.19139947
63	0xbde53183	-0.11191084
64	0x3f8054b2	1.0025847
65	0x4012ee23	2.2957847
66	0x3fdc2d79	1.7201377
67	0x402cf982	2.7027287
68	0x3ef7fabc	0.48433483
69	0xbee5ca1a	-0.44880754
70	0x3ee24a34	0.44197237
71	0xbb5e72b3	-0.0033942878
72	0xbeff68bb	-0.4988459
73	0x3f2f43cb	0.6846282
74	0x3fa3161e	1.2741125
75	0x3f900bb4	1.1253572
76	0x3fe259aa	1.7683613
77	0x3e8de89e	0.27716535
78	0xbe706117	-0.23474537
79	0x3ec899a2	0.39179713
80	0x3e7e927f	0.24860571
81	0x3effdf91	0.49975255
82	0xbe16da86	-0.14731798
83	0x3f14df1f	0.58152956
84	0x3fa8b775	1.3180987
85	0x3f22345b	0.6336114
86	0xbd14faa6	-0.03637185
87	0xbf18ca0c	-0.596833
88	0x3f96088f	1.1721362
89	0x3e9d3727	0.3070614
90	0xbed42f32	-0.41442257
91	0x3f48f582	0.78499615
92	0x3fad36e1	1.3532373
93	0x3fa108be	1.2580793
94	0x402dfa7a	2.7184129
95	0xbbeeb92e	-0.0072852587
96	0xbf15e908	-0.585587
97	0x3e3353d5	0.17512448
98	0x3e811cde	0.25217336
99	0xbdb4f130	-0.08835065
100	0xbeff7ea6	-0.49901313
101	0x3fed0267	1.8516358
102	0x3f85b9c2	1.0447314
103	0x3fd441f4	1.6582627
104	0xbeb7dda2	-0.3591128
105	0xbef4bbb8	-0.47799468
106	0x3ed1db3f	0.40987584
107	0x3e967b32	0.29390866
108	0x3e9a660d	0.30155984
109	0xbf777ef9	-0.9667812
110	0x3fb230c0	1.3921127
111	0x3df7219f	0.120669596
112	0x3fcb53a5	1.5884901
113	0xbe41ed1b	-0.18938105
114	0xbf0b5e57	-0.54440826
115	0x3f811c22	1.008671
116	0x3fbcd875	1.4753557
117	0xbf8dbc20	-1.1073036
118	0x3e0b4e81	0.13604166
119	0x3fd920cb	1.6963133
120	0x3fac9e16	1.3485744
121	0x401d0b0f	2.4538
122	0x3e92eb1c	0.28695
123	0xbec6825a	-0.38771325
124	0xbdb356c2	-0.08756782
125	0x3ebfd201	0.37464908
126	0x3f16845a	0.587957
127	0xbf89a074	-1.0752091
128	0xbf881e9b	-1.063434
129	0xbfff6267	-1.9951905
130	0xc02ef2b7	-2.7335641
131	0x3fe830a7	1.8139848
132	0xbf4e235a	-0.8052269
133	0xbe57aedb	-0.21062796
134	0x402c4bea	2.6921334
135	0x3ebea41b	0.37234578
136	0x3f698346	0.9121593
137	0x3faab232	1.3335631
138	0x401b0e8c	2.4227629
139	0x404ca8b5	3.197797
140	0xbf2f06fd	-0.6837004
141	0xbfb6e1d1	-1.4287664
142	0xbf16ad90	-0.58858585
143	0xbf9f2037	-1.2431706
144	0xbfbfb875	-1.4978167
145	0x40196d35	2.3972905
146	0xbe8a14a8	-0.26968884
147	0xbf3cf021	-0.7380391
148	0xbf7ac175	-0.9795144
149	0x3f013935	0.50477916
150	0xbd311db6	-0.043241225
151	0xbe88584e	-0.2662987
152	0xbe3f94cf	-0.1870911
153	0xbe87086e	-0.2637362
154	0xbf20c860	-0.6280575
155	0x3f11b0ce	0.5691041
156	0xbe1336fc	-0.14376444
157	0x3ecd18ec	0.40058076
158	0x3b06418c	0.0020485846
159	0xbe2d9d67	-0.16954575
160	0xbea6a3ea	-0.32546932
161	0xbff1f017	-1.8901395
162	0xbeab4225	-0.33448902
163	0x400fd13e	2.2471461
164	0xbdd0bc37	-0.10192149
165	0xbf399a9d	-0.72501546
166	0xbf0da338	-0.5532718
167	0xbeefec2d	-0.46859875
168	0xbf05a1e7	-0.5220017
169	0xbe07bb5b	-0.13255064
170	0x3fa8ead1	1.319666
171	0xbf37e24c	-0.71829677
172	0xbefbd34a	-0.49184638
173	0x3dd8e287	0.10590082
174	0xbebeac7f	-0.3724098
175	0xbed42235	-0.41432348
176	0xbedaf632	-0.42765957
177	0xbf3e5b49	-0.7435804
178	0x3e9f995c	0.3117169
179	0x3f8b8f42	1.0903094
180	0x3f572687	0.84043163
181	0xbf302f5e	-0.68822277
182	0x3fa0f020	1.257328
183	0x404502f6	3.0783057
184	0x407d4f7f	3.957977
185	0xc022a01d	-2.5410225
186	0x3f3bf2cf	0.7341737
187	0x3f606c98	0.876657
188	0xbf9dea11	-1.2337056
189	0xbf72eccc	-0.94892573
190	0x3f5fa5bb	0.8736226
191	0x3f8f2616	1.1183498
192	0x3f30bd30	0.6903868
193	0x3eabd8cb	0.33563837
194	0x3dc0f3ba	0.09421487
195	0xbe28a223	-0.164681
196	0xbd1fde72	-0.0390305
197	0x3f311406	0.6917118
198	0x404f47d8	3.23876
199	0xbcfaa85d	-0.03059786
200	0xbe662a34	-0.22477037
201	0x3e4db0ab	0.20086925
202	0xbf17bb17	-0.5926985
203	0xbd8f4f14	-0.06997505
204	0xbe10944c	-0.14119071
205	0xbd2925f5	-0.041295964
206	0xbebbe2a3	-0.36696348
207	0x3f7e9c39	0.99457127
208	0xc00129d0	-2.018177
209	0xbe67d6e6	-0.22640571
210	0xbf86b2f0	-1.0523357
211	0xbf0a0595	-0.5391477
212	0xbec0fc2f	-0.376924
213	0x3dfbd9b0	0.1229738
214	0x3f04969e	0.51792324
215	0x3e128465	0.14308317
216	0x3f4f01f8	0.8086238
217	0xbfc56cf8	-1.542388
218	0xbe2564c6	-0.16151723
219	0x3faf7b50	1.3709507
220	0x3faf9794	1.3718133
221	0xbf98d74d	-1.1940705
222	0xbf938965	-1.1526304
223	0x3f1d998c	0.6156242
224	0x3e988312	0.297875
225	0x3fb83c02	1.4393313
226	0xc07f758b	-3.9915493
227	0xbf4072b0	-0.75175
228	0xbf13eea0	-0.5778599
229	0xbfd6a7f5	-1.6770006
230	0xbc99e07e	-0.018783804
231	0x3e827dda	0.25486642
232	0x3c47df70	0.012199268
233	0x3fb12323	1.3838848
234	0x405003d5	3.250234
235	0xbf1ce918	-0.6129317
236	0xbed66cb3	-0.41879806
237	0x3f019023	0.5061056
238	0xbf3dc48e	-0.74128044
239	0xbe66a295	-0.22522958
240	0x3f2611c6	0.6487087
241	0xbbeea785	-0.0072831535
242	0x3e615e28	0.22008574
243	0x401b4a38	2.426405
244	0xbff3b788	-1.9040384
245	0x3ec3b135	0.38221136
246	0x3ecbe6c9	0.39824513
247	0xbf511175	-0.8166726
248	0x3e25e351	0.16199996
249	0x3e99ce49	0.30040196
250	0x3dc0febf	0.09423589
251	0xbf01a5d9	-0.5064369

weight_hh_l0 f4 [28, 7]
0	0x3eb0796d	0.3446764
1	0xbfb3b28b	-1.4038862
2	0xbfade9fc	-1.3587031
3	0xbf85b0ab	-1.044454
4	0xbe6bc8e7	-0.23025857
5	0x3ff5d728	1.9206285
6	0x3fd4af4d	1.6615998
7	0x3f6c374f	0.92271894
8	0xbf7a3f35	-0.97752696
9	0x3e7d442f	0.24733041
10	0xc00307db	-2.0473545
11	0x3fd921b1	1.6963407
12	0x3f173de7	0.5907883
13	0x3ec4e0d9	0.38452795
14	0xc067a7b2	-3.6196103
15	0x40085fe4	2.1308527
16	0x3f0f066b	0.5586917
17	0x40ac7b44	5.390047
18	0xc0b746eb	-5.727407
19	0xc0996a6a	-4.79424
20	0x40257a50	2.5855904
21	0xc0592e76	-3.3934608
22	0xbd80ed92	-0.06295313
23	0xbfa58d0f	-1.2933673
24	0x40121c3c	2.2829733
25	0x3ef81518	0.48453593
26	0x3eb3844c	0.35061872
27	0x3fe94f01	1.8227235
28	0x3f57409b	0.84082955
29	0xbf4e5de6	-0.8061203
30	0xc0429321	-3.04023
31	0xbf36c912	-0.7140056
32	0x3f8d50c5	1.1040274
33	0x4020a99e	2.5103526
34	0xbfc5d31f	-1.5455054
35	0xbfde41b1	-1.7363797
36	0xbfb89ddc	-1.4423175
37	0xc025c66f	-2.5902364
38	0x3f9964dc	1.1983905
39	0xbf87f041	-1.0620195
40	0xbe9aca53	-0.30232486
41	0x3f678b20	0.9044666
42	0x3f5749f1	0.840972
43	0xbfa8d6c8	-1.3190546
44	0xc0012c88	-2.018343
45	0xbf08465b	-0.53232354
46	0x3fb852e2	1.4400294
47	0x3e9541f9	0.29151896
48	0x3e6eb231	0.23310162
49	0xbf2e0aac	-0.67985034
50	0x3f925b20	1.1434059
51	0x3e82fc65	0.25583187
52	0x3ff5aa10	1.9192524
53	0xbf9f4c83	-1.2445225
54	0xbf1446ba	-0.5792042
55	0x4023b5f6	2.557981
56	0xbec3c617	-0.38237068
57	0xc074b880	-3.823761
58	0x4047b797	3.1205804
59	0xbec27b3c	-0.37984645
60	0x3f05ae68	0.5221925
61	0xbf06e892	-0.52698624
62	0x3e47c097	0.19507061
63	0x3f843ee9	1.0331699
64	0x3f044a33	0.5167572
65	0xbe940541	-0.28910258
66	0xbe52958e	-0.20564863
67	0xbf38bc2c	-0.7216213
68	0x3ec884cb	0.39163813
69	0xbf440528	-0.7657037
70	0xc0990bc9	-4.7826886
71	0xbff02b2e	-1.8763177
72	0x3f299f73	0.66258925
73	0x3ffc14fa	1.9693902
74	0x3e52dfd2	0.20593193
75	0xbe9534e6	-0.2914192
76	0x400bf6df	2.1869428
77	0x3f4aaed2	0.79173005
78	0x3fac9cd5	1.3485361
79	0x3f03b3a6	0.51445997
80	0x3f6de928	0.92933893
81	0xbeb989e9	-0.3623803
82	0xbf2ed2a4	-0.6829016
83	0x40c436b9	6.13168
84	0xc00ce023	-2.2011802
85	0x3fd48521	1.6603128
86	0x3efa4ef5	0.48888364
87	0x405b22fb	3.42401
88	0xc0c74c84	-6.2280903
89	0xbf794e04	-0.9738467
90	0x408f3849	4.4756207
91	0xbda603e7	-0.08106213
92	0xbdb9c17d	-0.09070108
93	0x3e0abb01	0.13547899
94	0x3fb8d153	1.4438881
95	0x3e7fe293	0.24988775
96	0xbf47c567	-0.7803559
97	0xbfa8bd79	-1.3182822
98	0x3fb93795	1.4470087
99	0xbfe23d94	-1.7675042
100	0x3fd3ebee	1.6556375
101	0x3ed30e50	0.41221857
102	0xbd2e11fc	-0.04249762
103	0x3f30757b	0.6892926
104	0xbfb9d879	-1.4519187
105	0x3ef0d046	0.470339
106	0xc0b186e7	-5.5477176
107	0xbf82afcd	-1.02099
108	0x3f2c5277	0.6731333
109	0xbe2564e2	-0.16151765
110	0xbf4a19e9	-0.78945786
111	0xbf075810	-0.5286875
112	0xbef35b72	-0.47530705
113	0xbff8372b	-1.9391836
114	0x3f9b25b4	1.2120881
115	0x3fff2072	1.9931777
116	0xbfe5cce1	-1.7953149
117	0xbfc4a69b	-1.5363344
118	0x3f88754b	1.0660795
119	0xc0003b60	-2.003624
120	0x3ec3aeca	0.3821929
121	0x3f593d51	0.84859186
122	0xbf3562c1	-0.7085381
123	0xc01e63b5	-2.4748356
124	0xbf24b888	-0.6434407
125	0x3f7a6b07	0.9781956
126	0x3f9ab821	1.2087442
127	0xbe80bf9c	-0.25146186
128	0x3f5cb549	0.8621412
129	0xbf079bea	-0.5297228
130	0x3eaf6dcc	0.34263456
131	0xbeae8e89	-0.3409312
132	0xbf29c642	-0.6631814
133	0x3e0d5768	0.13802874
134	0xc02607cb	-2.5942256
135	0x3de0d2d7	0.109777145
136	0xc02714fc	-2.6106558
137	0x3fe043e1	1.7520715
138	0x3f931e25	1.1493574
139	0xbfb80e86	-1.4379432
140	0xbfe475c1	-1.7848436
141	0x407ae571	3.920254
142	0xbec69385	-0.38784423
143	0x3e5a181a	0.21298257
144	0x3faac886	1.3342445
145	0x3f161248	0.58621645
146	0x3f935489	1.1510173
147	0xc0bdc0e0	-5.9297943
148	0x40359f24	2.8378382
149	0xbfef44b5	-1.8692843
150	0x3f681086	0.9065021
151	0xbec530bd	-0.38513747
152	0x3fc49972	1.5359328
153	0x41254b4a	10.330881
154	0xbe911df4	-0.28343165
155	0x3f5f8d9a	0.8732544
156	0xc014f7c6	-2.327623
157	0xbc5ad1fb	-0.013355727
158	0xbf4c1d3e	-0.7973212
159	0xc0012e38	-2.018446
160	0x4055f600	3.3431396
161	0xc021fb1c	-2.5309515
162	0x401b4f98	2.426733
163	0xbfcd1346	-1.6021507
164	0x40ab3bc2	5.3510447
165	0xbfe08271	-1.7539808
166	0xbe45f95a	-0.19333401
167	0x402334bd	2.550094
168	0xc0c6e693	-6.2156463
169	0x402ec198	2.730566
170	0xbe870c38	-0.2637651
171	0x404bdf58	3.1855068
172	0xc0d49f0a	-6.644414
173	0xbf4d1798	-0.80114126
174	0x40a27e7e	5.077941
175	0x3ebacd83	0.36484918
176	0x4019f8f5	2.4058201
177	0xbfb36485	-1.4015051
178	0x3f424ea7	0.75901264
179	0xbfabf377	-1.3433675
180	0x3efee370	0.49782896
181	0xbe9a6964	-0.30158532
182	0xc05c7f3b	-3.4452655
183	0x3fe61e5e	1.7978017
184	0xbeec8c4a	-0.46200782
185	0x40255c81	2.583771
186	0xbfdab294	-1.7085748
187	0xc0315943	-2.771073
188	0x3f9e72c2	1.2378771
189	0xbf75efa9	-0.9606882
190	0x4045580d	3.0834992
191	0xbfa5c6c1	-1.295128
192	0x3fb395b6	1.4030063
193	0xc0a591bc	-5.17404
194	0xbf922556	-1.1417644
195	0x3fa7bbf2	1.3104231

bias_ih_l0 f4 [28]
0	0xbeec1c1a	-0.4611519
1	0xc037864c	-2.8675718
2	0x3fa86326	1.3155258
3	0x3fd45992	1.6589835
4	0x3dc74ba3	0.097312234
5	0xbb5453a4	-0.0032398487
6	0xbefd8539	-0.49515703
7	0x3f862ed2	1.0483038
8	0x3eb09cf8	0.34494758
9	0x3fa032ce	1.2515504
10	0x3ff7ab13	1.9349083
11	0x40172131	2.3614008
12	0x3f5c1610	0.85971165
13	0x3fab0094	1.3359551
14	0xbf9d1e9b	-1.2274965
15	0x3f0dfd1b	0.55464333
16	0x3ff59941	1.9187394
17	0x403ac8e6	2.9185119
18	0xc02e3afe	-2.7223506
19	0xc0008393	-2.0080307
20	0x3f8c7b02	1.0975039
21	0x3fa559bf	1.2918013
22	0x3f2d1b18	0.67619467
23	0x400e9188	2.2276325
24	0x40049427	2.0715425
25	0x3f1d554a	0.61458266
26	0x40232e84	2.549714
27	0x3f4db40c	0.80352855

bias_hh_l0 f4 [28]
0	0xbef947e2	-0.48687655
1	0xc02bdfd4	-2.6855364
2	0x3f9e57d7	1.2370557
3	0x3fc2c8e1	1.5217553
4	0x3e9cdc5d	0.30636874
5	0xbef68932	-0.48151547
6	0xbf20a0d4	-0.62745404
7	0x3f9a93cc	1.2076354
8	0x3e880cfe	0.26572412
9	0x3fbf1739	1.4928962
10	0x3fa09238	1.2544622
11	0x40163cc2	2.3474584
12	0x3fb2b4c5	1.3961416
13	0x3fd311f8	1.6489859
14	0xbfcd67e2	-1.6047328
15	0x3f64d5b1	0.8938857
16	0x400961ae	2.146587
17	0x404605fb	3.094115
18	0xc0295b45	-2.6461957
19	0xc00a9d85	-2.1658642
20	0x3efec8e4	0.49762642
21	0x3f85c6e3	1.045132
22	0x3fa75c11	1.3074971
23	0x400e0caa	2.219523
24	0x3fc5d67a	1.5456078
25	0x3f3ebc5f	0.7450618
26	0x4021a17d	2.5254815
27	0x3f607c36	0.8768953

weight f4 [1, 7]
0	0xc025f7f5	-2.593259
1	0x4115f78f	9.372939
2	0xc034a61f	-2.8226392
3	0x4021c9f5	2.5279515
4	0xc05eb53d	-3.479812
5	0xc035ed88	-2.8426228
6	0x4048db9c	3.138404
