Output_Opt/adamw_fixlr_model_finetune.pt (torch, 4707 bytes, 5 tensors)

weight_ih_l0 f4 [28, 9]
000000 09 6d 55 3e 8e 44 96 bd 45 01 90 3e 85 f1 d6 3e
       0.20842375 -0.073372945 0.2812597 0.4198114
000010 d5 72 59 3f c4 35 88 be bc df a2 3c 59 0e 74 3e
       0.84940845 -0.2660352 0.019882075 0.23833598
000020 e5 71 b3 bd 0f 8e dc bd de c3 01 3e 39 7c e8 3e
       -0.08761958 -0.10769283 0.12672374 0.45407274
000030 05 6a c9 3e 16 ac 09 3f ba f0 f6 bd cc af 35 be
       0.393387 0.5377821 -0.12057634 -0.17742842
000040 04 a3 c4 3d ec 73 8c bd ac 36 99 3e 64 34 c3 be
       0.09601405 -0.06858048 0.29924524 -0.38125908
000050 d3 6f 79 bd 2c d3 d3 bd 8f 41 f9 bd 39 7e 05 3e
       -0.06089766 -0.10343012 -0.121707074 0.13036431
000060 ee 7a b0 3e e0 9e df bc f8 23 17 be a6 ef c9 3e
       0.34468788 -0.027297437 -0.14759815 0.3944065
000070 c5 f5 02 be db 88 99 3e 85 ef 71 3e 11 5f 91 3e
       -0.12789066 0.29987225 0.23626526 0.28392842
000080 0b c3 44 be 75 89 97 3c b7 4d 44 3d 37 c8 64 bd
       -0.19215028 0.018498162 0.047925677 -0.055855002
000090 5c 61 92 3e 25 be a1 bf 8e 1f d6 3d 14 23 2c 3e
       0.28589904 -1.2636153 0.10455237 0.16810256
0000a0 67 db e0 be b1 b2 87 bb 96 5c bf 3d 4d 8d c4 bd
       -0.4391739 -0.0041411747 0.09343831 -0.095972635
0000b0 a0 40 b5 bc c7 ee a1 3f f3 8c 5f 3e af 4f 60 be
       -0.022125542 1.2650994 0.21831112 -0.21905397
0000c0 dc e0 4e 3f a5 88 6f 3f e3 27 8f bf 3d e6 c1 3e
       0.8081186 0.9356788 -1.1184047 0.3787097
0000d0 75 3a 8d 3f ea bc a4 3d 0a 9d 44 3f 67 08 5d 3e
       1.1033465 0.08043845 0.7680212 0.21585236
0000e0 96 17 b3 3e a4 1e d8 3e 6d 1f 09 3f 2f b5 b1 be
       0.34978932 0.42210877 0.53563577 -0.34708545
0000f0 97 47 d7 bd d8 21 20 3e b6 04 9c be d6 19 e8 3e
       -0.105117016 0.1563791 -0.30472344 0.4533221
000100 bd d5 81 3b d6 a9 65 3a 3a 64 99 3d c4 75 07 3f
       0.003962247 0.0008760964 0.0748982 0.5291407
000110 6c 75 5a 3e db ac c5 bc 78 2e f7 bd 0d d1 8f bd
       0.21333855 -0.024130275 -0.1206941 -0.07022295
000120 ed 8a 45 be 94 b3 1d 3e d5 5b 3b 3e 29 45 4f 3e
       -0.19291277 0.15400535 0.1829675 0.20241226
000130 fc b5 de 3e 69 fc 0e 3e d1 4e 8d be 4b ce 55 be
       0.43498218 0.13963474 -0.27599195 -0.20879476
000140 3d 4d b7 bb e3 18 21 3e a5 2d 1e 3d 65 94 d6 3e
       -0.0055939243 0.1573215 0.03861775 0.4191009
000150 20 e8 50 3e e0 a8 7b 3e 35 4e ad 3e a8 af 17 3e
       0.20401049 0.2457614 0.3384873 0.14813101
000160 70 db 31 be 44 ab 80 3c 08 c4 98 be e0 91 15 3e
       -0.17368865 0.015706666 -0.2983706 0.14606428
000170 d6 7c 3d 3e 6b e1 5e bb 98 55 a0 3d 48 a0 52 3e
       0.18504652 -0.0034008871 0.07828826 0.20568955
000180 81 2a 14 be 04 f7 db bc 57 60 6f 3e 29 94 51 3f
       -0.14469339 -0.026851185 0.23376594 0.818667
000190 14 39 b1 be 35 4f 0a 3e 59 5b d3 3e c1 6b 70 bd
       -0.3461386 0.13506778 0.4128063 -0.058696512
0001a0 8b 68 04 3d de 73 1a 3d 9b 80 24 3d 96 c4 b6 bc
       0.032326262 0.037708156 0.04016171 -0.022310536
0001b0 67 3c 66 3e 7c a3 d9 bd 9c 1a 8d 3e 97 1d 3d bf
       0.22483979 -0.10626885 0.27559364 -0.73873276
0001c0 71 cc 75 bf 9f a6 05 3b d3 05 05 bf cf 76 bc be
       -0.9601508 0.0020393503 -0.5196201 -0.36809394
0001d0 7f a8 82 3d 41 2b 7b bb 49 6c 02 3d 97 32 07 3e
       0.06379794 -0.0038325342 0.03184155 0.13202892
0001e0 96 61 60 3d a8 6f 09 3e f1 57 ac 3e d0 b4 0a bd
       0.054780565 0.134215 0.33660844 -0.033863842
0001f0 1a 54 35 be 80 1c d9 bb 7a 12 17 3d e3 78 38 3e
       -0.17707863 -0.006625712 0.036882855 0.18014865
000200 89 f5 bc bd b1 bd 9b bd 81 3b 1d bc cb f6 2c 3a
       -0.092265196 -0.0760454 -0.009596706 0.00065980543
000210 88 c8 78 3e 95 6d 5f bd 6f db 1e be 89 da 91 bf
       0.24295247 -0.054547865 -0.15513395 -1.1394817
000220 3e 98 e4 bd e5 92 2d be e9 22 5a 3d 56 f1 b9 be
       -0.111618504 -0.16950567 0.05325595 -0.36316937
000230 27 bc b3 3d 83 b3 10 3e a4 15 9a bb 1b 40 0e 3e
       0.087761216 0.14130978 -0.004702287 0.13891642
000240 71 f3 b8 be 90 ef 72 3d ac ce 11 bf 88 47 43 bf
       -0.3612323 0.059310496 -0.5695598 -0.76281023
000250 3d bd 53 bf fa cd 87 3d f8 02 83 bc 33 ce 4e bb
       -0.8271063 0.06631084 -0.015992627 -0.003155601
000260 dd db 67 3e 9c 37 ce be 6d 10 aa 3f 2a 08 84 3d
       0.22642465 -0.40276802 1.3286263 0.0644687
000270 d5 45 a0 3d 67 f3 0a 3e db 22 a7 3b e2 56 87 bd
       0.078258194 0.13569413 0.0051005906 -0.066083685
000280 2f 34 72 bc e4 f6 d5 bd 62 83 b7 3e a2 af 05 be
       -0.014782949 -0.10447481 0.35842425 -0.1305528
000290 a7 09 bb 3e 00 2e c4 3e 52 a4 35 3f 93 d2 04 3c
       0.36530802 0.38316345 0.7095386 0.008106845
0002a0 b7 3d 23 be d7 7c f2 3d 42 4b 53 3d a6 85 23 3f
       -0.15941511 0.118402176 0.051585443 0.63875806
0002b0 1d 37 e3 bd 78 21 0e 3e 90 82 29 be 5b ef f8 3e
       -0.110944964 0.13879955 -0.16553712 0.48620114
0002c0 c9 85 38 be 23 ba cd bc 39 2c 42 bd 1b 98 cf bd
       -0.18019785 -0.025113171 -0.047405455 -0.10136434
0002d0 79 f0 08 3f 21 82 8a bc 3d 9a 95 be c6 fe 46 bc
       0.5349193 -0.016907753 -0.29219237 -0.012145704
0002e0 76 a8 e0 be 29 63 11 bd 9a 01 2b 3c bb 25 41 3d
       -0.43878525 -0.035494957 0.010437394 0.047155123
0002f0 52 43 b1 3d 7c e7 32 3f 4b 2e 45 bf 77 d2 12 be
       0.086554185 0.6988447 -0.7702376 -0.14338098
000300 b7 6f df bd 3d 6f 15 bf 58 d9 25 3d 04 cc 38 bc
       -0.1090998 -0.5837286 0.04049048 -0.01127911
000310 61 17 1b bd 73 f0 5e 3d 12 4b 8d 3f 96 e8 74 bf
       -0.037864093 0.05442853 1.1038535 -0.956674
000320 af ae 8f 3e b1 72 86 3e 8f c2 0c 3f 02 4e f9 3c
       0.2806296 0.26259378 0.5498437 0.030432705
000330 99 e4 cc 3c a3 95 89 3e 01 3e 0b be 62 ed b8 3e
       0.025011348 0.26871976 -0.13597871 0.3611861
000340 01 54 df be 10 35 7a be 6e b4 48 be ab dd a3 3e
       -0.43618777 -0.24434304 -0.19600078 0.32005057
000350 97 2e 9b 3d 65 8d 28 3c 1c 76 0c 3d 9a 4f e7 3b
       0.07577246 0.010287617 0.034292325 0.00705905
000360 bc 11 60 3f ab 53 c1 be 37 18 ab 3e 31 34 2c 3f
       0.8752706 -0.37759146 0.33416912 0.6726714
000370 e4 d7 ce 3e df 53 a0 be c3 bd c6 be fd 8b 96 3e
       0.40399086 -0.3131399 -0.38816652 0.29403678
000380 6c 6c 2f 3e 80 d9 2c 3f de 84 3c bf a0 6f 3b 3f
       0.17131203 0.6751938 -0.7364024 0.732172
000390 07 ec 1d 3f eb c0 59 3f 52 22 9d bd 95 c4 88 be
       0.61688274 0.85059994 -0.07672562 -0.2671248
0003a0 f3 bd 90 3e 56 9d 7e 3d f6 e4 21 3f 5d 8c d4 be
       0.2826992 0.062161766 0.6323999 -0.4151334
0003b0 41 17 ac 3e 2a bb b7 3e 59 b8 4a 3f 02 5c a0 bc
       0.3361149 0.35884982 0.7918754 -0.019575123
0003c0 46 d0 f4 bd dd f6 84 3e f1 0c 3a 3a 90 75 f0 3e
       -0.119537875 0.25969592 0.00070972653 0.46964693
0003d0 5e 33 06 bf 76 32 20 3e bd 99 51 3e ea e8 06 3f
       -0.5242213 0.1564425 0.20468803 0.5269915
0003e0 0e 53 02 be c6 11 29 bc 01 70 d4 3d 97 b6 0b 3d
       -0.12726995 -0.010319179 0.103729255 0.034109678

weight_hh_l0 f4 [28, 7]
000000 bc 60 69 be cb 81 a3 bd 10 ee 94 bf cc ad 80 be
       -0.22790807 -0.079837404 -1.1635151 -0.25132596
000010 a8 b9 85 3e e1 a8 24 b9 55 44 42 3e bc 22 64 3f
       0.26118207 -0.00015703171 0.18971379 0.891155
000020 d8 2c ed be d3 96 22 be d1 6b 46 3f 02 1c c5 3e
       -0.46323276 -0.15877847 0.77508265 0.3849793
000030 0a a0 7d bf 2e 5a bb 3f d8 e7 0f 3f c3 8c f1 3e
       -0.99072325 1.4636896 0.5621314 0.47177705
000040 fb 79 73 3e fc 24 fc be 95 0c ad 3f 8e 5e 74 bf
       0.23777 -0.49246967 1.3519465 -0.9545678
000050 be 59 12 3f f1 87 3c 3e ee 07 8f bf 60 81 b7 3d
       0.57168186 0.18411233 -1.1174295 0.08960223
000060 13 a4 91 be 42 b9 80 3f 39 d4 95 be ce cd 0b 3f
       -0.2844549 1.0056536 -0.29263476 0.5461091
000070 71 39 18 3f 4c f1 d5 bd 4b 11 03 3f 6a 0a d3 bc
       0.5946265 -0.10446414 0.5119826 -0.025761802
000080 5e 41 43 3f 98 b4 94 bf 49 56 55 3f 54 07 a0 3f
       0.7627162 -1.1617613 0.83334786 1.2502236
000090 9a 40 f1 bf f2 78 ad 3f 45 20 e7 3e 73 68 1d 3f
       -1.884784 1.3552535 0.45141807 0.614875
0000a0 3c 74 8b bf 94 50 ea 3f 7d 05 9e 3d 1b 17 d7 be
       -1.0894847 1.830584 0.077158906 -0.42009816
0000b0 dd fb 83 bf 80 91 57 bf 7c 4f 63 3f f6 3b 87 be
       -1.0311238 -0.8420639 0.8879316 -0.26412934
0000c0 60 99 65 3f 17 f8 5d be 87 60 f0 be ce 93 bd be
       0.89687157 -0.2167667 -0.46948645 -0.3702683
0000d0 5e 76 85 be 76 1e 86 be 63 41 22 3f 36 62 f0 be
       -0.2606687 -0.26195115 0.6338102 -0.4694993
0000e0 4e 2a 3c bf 08 01 6e be 82 4a fc bc 6d f7 0d 3f
       -0.7350205 -0.23242581 -0.030797247 0.55455667
0000f0 e0 71 35 bf e4 77 d8 3e bf fd e0 bd 5e 60 8e be
       -0.70876884 0.4227897 -0.10985898 -0.27807897
000100 31 7c d7 be 4c ad b8 3e 94 42 ec 3d ad 7b d5 3e
       -0.42086938 0.36069715 0.11536136 0.4169592
000110 66 ff 2a 3f cd 29 33 be b8 fa 90 be fe f5 55 bf
       0.6679596 -0.17496414 -0.28316283 -0.8357848
000120 b5 58 da be c8 da 9b bb 1b a6 f6 3e b8 3a f7 bd
       -0.42645803 -0.0047563054 0.48173603 -0.120717466
000130 0a 29 2f 3e bb d8 20 bf 50 14 c1 bc 55 81 18 3e
       0.17105499 -0.62830704 -0.023569256 0.14893086
000140 b8 08 2e be 85 cd 8c be f3 71 e4 3e 38 ec fd 3c
       -0.16995513 -0.2750055 0.44618186 0.030996427
000150 19 cc 6b bf e5 41 ae bf 25 fa 04 3e c2 6e 0a 3e
       -0.92108303 -1.361386 0.12986048 0.13518813
000160 1b 0f 0b 3f cc eb 89 3f 7c 46 91 bf 21 56 22 bf
       0.54319924 1.0775084 -1.1349635 -0.6341267
000170 09 18 20 bf 70 06 01 bd 0a c7 b4 be 9c ae 93 3d
       -0.62536675 -0.03150028 -0.35308105 0.072110385
000180 93 22 2f 3f 8a 36 ca 3e 62 e0 4a 3e 7e 17 0e be
       0.6841213 0.39494735 0.19812158 -0.13876149
000190 9d a5 38 3f 5c 47 df 3d 31 fd e6 be d0 4a 1c bf
       0.72127706 0.109022826 -0.45115045 -0.61051655
0001a0 29 74 95 3b 59 bb e5 bd f6 2f af bd 64 c0 85 3f
       0.0045609665 -0.11217374 -0.0855407 1.0449338
0001b0 ca 07 e0 3d a8 e5 9f 3e 48 81 75 be 18 5b 62 be
       0.10938986 0.312299 -0.23975098 -0.22105062
0001c0 8f 7d 82 be 4b 0f 72 be 73 3f be 3d d7 bc 8a 3d
       -0.2548642 -0.23638646 0.09289446 0.067742996
0001d0 4e 92 6f be 94 d2 b4 3d d7 ea f2 be 37 d3 60 be
       -0.23395655 0.08829227 -0.47444794 -0.21955572
0001e0 2e 9a c8 3e ad 60 ad 3e 34 10 a2 be a7 e5 1b be
       0.3918013 0.3386282 -0.31652987 -0.15224324
0001f0 db 57 ac 3e d8 ba 26 bf 52 72 da 3e 13 e8 e0 be
       0.33660778 -0.6512885 0.42665344 -0.4392706
000200 8b 65 8c 3e 24 2c 5c be 13 c9 16 bf 5d 9d 66 be
       0.2742122 -0.21501213 -0.58900565 -0.22520967
000210 2a cc 43 3f 8f 53 b1 be cd 2e 1c bf 56 ec 83 3f
       0.76483405 -0.34634063 -0.6100891 1.0306499
000220 8d 33 4b 3e 14 f2 ae 3e a8 0c b2 bc 99 c9 0f 3f
       0.19843884 0.34169066 -0.02173455 0.5616699
000230 b0 f3 9b 3e b5 5b 0b 3e db e5 52 3f 79 bf 07 3f
       0.30459356 0.13609202 0.8238198 0.5302654
000240 d5 66 16 bf 4d de 2a bf b4 39 ad 3e 24 d6 6e be
       -0.5875066 -0.66745454 0.33833086 -0.23323876
000250 17 99 0e 3e 44 04 44 bd 2c 89 95 bf eb ca cd 3f
       0.13925587 -0.04785563 -1.1682487 1.6077551
000260 41 11 12 3e ce 2c 0d 3e dc 5d 9d be a3 31 28 bf
       0.14264394 0.13786623 -0.30735672 -0.6570074
000270 c3 30 6a bf 0c 72 31 bf b6 cf 96 3f 8f 3d b8 3e
       -0.91480654 -0.69314647 1.1782138 0.35984465
000280 c6 cc 03 bf 08 8c 69 bf fc 91 4d bf aa 9d 55 bf
       -0.51484334 -0.91229296 -0.8030088 -0.834437
000290 0c 2c 4a bf 19 d8 79 3f 42 21 16 3f 1b c6 01 bf
       -0.7897346 0.97595364 0.586445 -0.5069291
0002a0 39 5d 2d bd b7 6c 3c bf 5d c8 17 bf 8c 34 60 bf
       -0.042325232 -0.73603386 -0.59290105 -0.8758018
0002b0 28 5b 23 3f ba fe 6b 3e a6 97 82 bf cd 16 b0 be
       0.6381097 0.23046389 -1.020253 -0.34392396
0002c0 57 02 e7 be 87 ac 4c be a0 f1 39 bf 34 98 6e 3e
       -0.45118973 -0.19987689 -0.72634315 0.23300248
0002d0 96 71 e7 3e 45 b1 34 bc 0b b3 6f bf ce 3d 1b bf
       0.45203847 -0.0110285925 -0.9363257 -0.6064118
0002e0 9a fb 8b bf 6a 38 6e bf 02 62 d3 3e c6 be d0 3e
       -1.0936158 -0.9305483 0.41285712 0.4077055
0002f0 d1 68 18 bf 2e b0 d0 be 90 53 2f bf 11 9a 2a bf
       -0.5953494 -0.40759414 -0.6848688 -0.66641337
000300 a5 b2 a6 bf f7 c9 8b 3f e0 af 42 3f 43 96 03 bf
       -1.3023268 1.092101 0.76049614 -0.51401156

bias_ih_l0 f4 [28]
000000 7f 5c 65 3f 9e 5b 07 be c4 d5 47 be 2c 6b 1a 3d
       0.8959426 -0.13218543 -0.19515139 0.037699863
000010 8f 07 0f bf 44 48 9f 3f 73 4a eb 3d 28 95 ad 3e
       -0.5587091 1.2443929 0.114888094 0.3390286
000020 9a 21 3d 3e 36 2c 5e 3f fb 4e 3d 3e 5e cd 2a 3f
       0.18469849 0.8678621 0.1848716 0.66719615
000030 fd a0 97 3f dc bd 93 3e 4c 53 5c bf c0 f5 d7 3d
       1.1846005 0.2885579 -0.860646 0.1054492
000040 fa a9 45 be e8 8f 71 be 3f 72 df bd 3e 4f b3 3f
       -0.19303122 -0.23590052 -0.109104626 1.4008558
000050 c9 ed 56 bf 2f 33 b8 3e f2 33 04 3f a5 a0 41 3f
       -0.8395658 0.3597655 0.5164176 0.7563575
000060 29 7c de 3e 2b a4 ea 3e 7a 3a 3f 3f fb d8 1b 3f
       0.43454102 0.45828375 0.74698603 0.6087796

bias_hh_l0 f4 [28]
000000 5d 78 0b 3f 3b 35 3f bd ca 59 e2 be 9c d2 72 bd
       0.54480535 -0.046681624 -0.4420913 -0.059282884
000010 61 0f 37 be de 79 a6 3f a7 34 09 3f fa 75 ef 3e
       -0.1787696 1.3005941 0.53595966 0.46769696
000020 da 8c 00 3f f9 e4 99 3f a0 ba 1f be eb 13 89 3e
       0.5021492 1.2023002 -0.15598536 0.2677301
000030 df b1 94 3f da 03 25 3f 5a 71 86 bf ae 47 d1 be
       1.1616782 0.64459 -1.0503342 -0.40875
000040 78 3a 07 bf 9d be 61 3d f2 db 22 3d 9a bf a2 3f
       -0.5282359 0.055113424 0.039760537 1.2714722
000050 cf 04 31 bf 26 e5 10 3f 7f 1c 33 3f fc 9f 11 3f
       -0.6914796 0.5659965 0.69965357 0.5688474
000060 86 66 dd 3e 09 12 26 3f f4 34 20 3f be 62 32 3f
       0.43242282 0.6487127 0.625808 0.6968192

weight f4 [1, 7]
000000 1b 24 59 c0 ff 6c 50 c0 bc 8e 66 c0 db ec 64 c0
       -3.3928287 -3.2566526 -3.6024618 -3.5769565
000010 32 fc 66 40 77 e2 48 40 ca 9c 64 c0
       3.6091428 3.1388223 -3.5720696
