Output_Opt/adamw_fixlr_model_pretrain.pt (torch, 4707 bytes, 5 tensors)

weight_ih_l0 f4 [28, 9]
0	0x3e11a4d3	0.14223032
1	0xbd469c0a	-0.048488654
2	0x3e935a29	0.28779724
3	0x3eb2897d	0.3487052
4	0x3f353661	0.707861
5	0xbe84f4e8	-0.259681
6	0x3db6781a	0.08909626
7	0x3e275046	0.16339216
8	0xbdba2c9d	-0.090905406
9	0xbe56c4de	-0.20973536
10	0x3e0497ea	0.12948576
11	0x3edecc74	0.4351536
12	0x3ee80df0	0.45323133
13	0x3f0facf0	0.56123257
14	0xbdb57c08	-0.08861548
15	0xbe0eb511	-0.13936259
16	0x3e5c6a08	0.21524823
17	0xbe15df6a	-0.14636007
18	0x3e449b81	0.19199945
19	0xbe8fcc33	-0.2808548
20	0xbd879d93	-0.06621852
21	0xbe21955b	-0.15779631
22	0xbe20df38	-0.15710151
23	0x3dce3c31	0.10070074
24	0x3e52ee2c	0.20598668
25	0xbe45bd76	-0.19310555
26	0xbe4758a2	-0.19467404
27	0x3ec5ea64	0.38655388
28	0xbe36e1e5	-0.1785961
29	0x3ea754cf	0.3268189
30	0x3e884e97	0.2662246
31	0x3e956e01	0.2918549
32	0xbded1aa4	-0.11577347
33	0x3c0d438a	0.00862206
34	0x3dbf7c39	0.093498655
35	0xbdf7991f	-0.120897524
36	0x3dd7d08e	0.105378255
37	0xbfa6104d	-1.2973725
38	0x3e158151	0.14600112
39	0x3e69bf8b	0.22826974
40	0xbec36392	-0.38161904
41	0xbd8f0032	-0.06982459
42	0x3de1d4f0	0.11026943
43	0xbd82949b	-0.063760005
44	0x3d426bc5	0.04746606
45	0x3f8cc247	1.0996789
46	0x3e82a534	0.25516665
47	0xbd7c1c65	-0.061550517
48	0x3f89faa9	1.077962
49	0x3f9eb68e	1.2399461
50	0xbfb31176	-1.3989704
51	0x3f377f12	0.7167827
52	0x3fb781e6	1.4336517
53	0x3c682393	0.014168638
54	0x3f5e6f97	0.8688902
55	0x3e4740c4	0.194583
56	0x3ed913f9	0.4239805
57	0x3ed8ed41	0.4236851
58	0x3f2717be	0.652706
59	0xbec4cb92	-0.38436562
60	0xbd11ced1	-0.035597626
61	0x3e76fb4c	0.241193
62	0xbe6f3fcf	-0.23364185
63	0x3f066044	0.5249064
64	0x3dc4c717	0.09608286
65	0x3a068be8	0.0005132542
66	0x3dcdd97a	0.10051246
67	0x3f03cfdd	0.5148905
68	0x3e618e61	0.2202697
69	0xbdb0a98d	-0.08626089
70	0xbe0d3e77	-0.1379336
71	0xbd4538f7	-0.04815003
72	0xbe91cb02	-0.28475195
73	0x3e589c68	0.21153414
74	0x3e11d129	0.14239945
75	0x3e7820d0	0.24231267
76	0x3ed9d04f	0.4254174
77	0x3e2b3685	0.16720016
78	0xbe5e727d	-0.21723361
79	0xbdcbb122	-0.09945895
80	0xbd2a6d36	-0.041608058
81	0x3db201df	0.08691763
82	0x3dbd3812	0.0923921
83	0x3ecac460	0.39602947
84	0x3e0945fe	0.13405606
85	0x3e41e79e	0.18936011
86	0x3e54b132	0.2077072
87	0x3e1d8067	0.15381013
88	0xbe9ee799	-0.3103607
89	0xbd176dc7	-0.036969926
90	0xbe525073	-0.20538501
91	0xbca984a6	-0.020693135
92	0x3e5746a0	0.21023035
93	0x3d2ea51e	0.042637937
94	0x3ddeebc2	0.10884811
95	0x3e8d46c4	0.27593052
96	0xbe4e8185	-0.20166595
97	0x3d1f192a	0.038842358
98	0x3e3654db	0.17805807
99	0x3f49895e	0.7872523
100	0xbeb3758f	-0.35050628
101	0x3e06282c	0.13101262
102	0x3ee9e918	0.4568565
103	0xbce19a54	-0.02753941
104	0xbd3293b3	-0.04359789
105	0x3d98d8ed	0.0746325
106	0x3ccaebe8	0.024770692
107	0x3d6d9de3	0.0580119
108	0x3d481862	0.04885138
109	0xbec6c684	-0.3882333
110	0xbd5912d5	-0.052996475
111	0xbf1038ac	-0.56336474
112	0xbf5b1df0	-0.85592556
113	0x3e92bdb9	0.28660372
114	0xbe0c6c28	-0.13713133
115	0xbe6490bb	-0.22320835
116	0xbd239507	-0.039937045
117	0x3dd56d0d	0.104211904
118	0xbaee4f84	-0.0018181656
119	0x3e18ddd5	0.14928372
120	0xbd355be6	-0.044277094
121	0x3d76d55b	0.060262065
122	0x3ea34284	0.31886685
123	0xba85bdb7	-0.0010203634
124	0xbe477786	-0.19479188
125	0x3e69200c	0.22766131
126	0x3e0ac0de	0.13550135
127	0x3da5b29d	0.080907084
128	0xbe11edda	-0.1425089
129	0xbda58c7d	-0.08083437
130	0x3d6a5688	0.05721143
131	0x3cc0bd4b	0.023527762
132	0x3e25f8f9	0.16208257
133	0xbc4f2c0e	-0.012644781
134	0xbe438cba	-0.19096652
135	0xbf8e6b32	-1.1126463
136	0xbd5c6dc8	-0.053815633
137	0xbda91a17	-0.08256929
138	0xbd709f05	-0.058745403
139	0xbec2e990	-0.3806882
140	0xbca7ebf6	-0.020498257
141	0x3e13e238	0.14441764
142	0xbd25e66f	-0.04050296
143	0x3de545a0	0.111949205
144	0xbea469dc	-0.32112014
145	0x3ca5f5a0	0.020258725
146	0xbf05b915	-0.5223554
147	0xbf55f65d	-0.83579046
148	0xbf14e091	-0.5815516
149	0xbccbbe1c	-0.024870925
150	0xbd36414d	-0.04449587
151	0x3d1f4429	0.038883362
152	0x3e80583e	0.25067323
153	0xbe82de91	-0.2556043
154	0x3f9ee881	1.2414705
155	0x3d87ea33	0.06636467
156	0x3db1302a	0.08651765
157	0x3e1ea397	0.15492092
158	0x3d15a574	0.03653474
159	0xbd1209fe	-0.03565406
160	0xbc6259ca	-0.013815353
161	0xbe249494	-0.16072303
162	0x3ea70b09	0.32625607
163	0xbe0d2c7a	-0.13786498
164	0x3e8ba4fb	0.27274308
165	0x3ebdede3	0.37095556
166	0x3f2a2a74	0.6647103
167	0x3cec1b26	0.02882154
168	0xbdc68a80	-0.096943855
169	0x3d80fdc3	0.06298401
170	0x3d89fb6e	0.067374095
171	0x3f2cb3d6	0.6746191
172	0xbeb6bc5d	-0.35690585
173	0x3d343476	0.043995343
174	0xbd1642ec	-0.036684915
175	0x3f3045b1	0.6885634
176	0xbe45fd63	-0.1933494
177	0x3e4c8f6d	0.19976588
178	0x3e024e90	0.12725282
179	0x3dc68189	0.096926756
180	0x3f08dcd5	0.5346196
181	0xbcb1067a	-0.021609534
182	0xbe97a327	-0.29616663
183	0xbcf0a744	-0.029376633
184	0xbec924c0	-0.3928585
185	0x3d3674f2	0.04454512
186	0xbbb1f9bd	-0.0054313825
187	0x3da1f91a	0.079088405
188	0x3d19080d	0.037361193
189	0x3f3d6c94	0.739938
190	0xbf2ad8a1	-0.667368
191	0xbe04997f	-0.12949179
192	0xbde6e6b7	-0.11274474
193	0xbf09a0bd	-0.5376089
194	0x3bc99d3d	0.0061527775
195	0x3ca9b5f7	0.02071665
196	0xbc1c7bf9	-0.009551042
197	0x3c4cc296	0.012497565
198	0x3f61cd60	0.88204
199	0xbf4d7da6	-0.8026985
200	0x3eb2521d	0.34828272
201	0x3e9e9795	0.30975023
202	0x3f1e4fbb	0.6184041
203	0xbd86c64d	-0.065807916
204	0x3d589bbd	0.0528829
205	0x3de0ab1e	0.10970138
206	0xbe11ac03	-0.14225774
207	0x3ebf4eb4	0.37364733
208	0xbe67e1bc	-0.22644705
209	0xbe51d80c	-0.20492572
210	0xbde32915	-0.1109182
211	0x3f0276dd	0.5096262
212	0xbce2d36d	-0.027688706
213	0xbd1b17e8	-0.037864596
214	0x3d7199f9	0.05898473
215	0xbc62086e	-0.013795955
216	0x3f60835e	0.8770045
217	0xbecd082e	-0.40045303
218	0x3e9694bc	0.2941035
219	0x3f261e6b	0.64890164
220	0x3eb5cf1d	0.35509577
221	0xbeb6e80a	-0.35723907
222	0xbe1e0c0b	-0.15434282
223	0x3ea1a5f3	0.31571922
224	0x3e178ace	0.14799044
225	0x3f39080b	0.722779
226	0xbf2ddd1f	-0.6791553
227	0x3f36656b	0.712485
228	0x3f17c3c5	0.59283096
229	0x3f67b450	0.9050951
230	0xbd800b76	-0.06252186
231	0xbe68e7d1	-0.22744681
232	0x3e8f9583	0.28043756
233	0x3e02bd23	0.12767462
234	0x3f342a37	0.70376915
235	0xbeedc4d2	-0.46439224
236	0x3e983f78	0.29735923
237	0x3ebb8c19	0.36630324
238	0x3f33bab2	0.7020675
239	0xbd461554	-0.048360184
240	0xbe11800b	-0.14209001
241	0x3e7518c3	0.23935227
242	0x3d59c518	0.05316648
243	0x3f0172d5	0.50565845
244	0xbf07e3e0	-0.53082085
245	0x3e4d67c4	0.20059115
246	0x3e377b06	0.17918023
247	0x3f0f8e4b	0.56076497
248	0xbdcaa286	-0.0989428
249	0xbc97ce71	-0.018531056
250	0x3cc72598	0.024309918
251	0x3d278b8a	0.04090456

weight_hh_l0 f4 [28, 7]
0	0xbe3d84a8	-0.18507636
1	0xbe491c38	-0.19639671
2	0xbf8f7c8f	-1.1209887
3	0xbe49ab7d	-0.19694324
4	0x3eaf0d57	0.34189865
5	0xbdb0c1e0	-0.08630729
6	0x3eb211f3	0.3477932
7	0x3f5588b0	0.83411694
8	0xbf16f8b5	-0.58973247
9	0xbe666014	-0.22497588
10	0x3f444027	0.7666039
11	0x3e713fab	0.23559444
12	0xbf6905d3	-0.9102451
13	0x3fb14b51	1.385111
14	0x3f06e949	0.52699715
15	0x3f012941	0.50453573
16	0x3e644f70	0.22295928
17	0xbf0e63eb	-0.5562121
18	0x3f9aea1f	1.2102698
19	0xbf73b400	-0.95196533
20	0x3f13c101	0.57716376
21	0x3e31088b	0.17288415
22	0xbf8f14cd	-1.1178223
23	0x3dd97f6f	0.10620009
24	0xbe90346e	-0.28165
25	0x3f8811ef	1.0630473
26	0xbe9583b8	-0.29202056
27	0x3f0c985b	0.54919976
28	0x3f0597a6	0.5218452
29	0xbe5a25bb	-0.21303456
30	0x3eea599c	0.45771492
31	0xbdd4198e	-0.10356437
32	0x3f61ee46	0.882542
33	0xbf91f0c2	-1.1401598
34	0x3f4e1ef6	0.8051599
35	0x3fa57a66	1.2927978
36	0xbfe426b1	-1.7824308
37	0x3f721763	0.94566935
38	0x3e826682	0.25468832
39	0x3f311587	0.69173473
40	0xbf8de885	-1.1086584
41	0x3fe0e69a	1.7570374
42	0x3d804f0e	0.062650785
43	0xbf07a0a8	-0.52979517
44	0xbf845e97	-1.0341367
45	0xbf609874	-0.87732625
46	0x3f59ab18	0.85026693
47	0xbe7e7c61	-0.24852134
48	0x3f590972	0.8478004
49	0xbe29b659	-0.16573466
50	0xbf35afa9	-0.7097116
51	0xbec83dd1	-0.39109662
52	0xbe261921	-0.16220523
53	0xbe39401a	-0.18090859
54	0x3f0fd18b	0.5617911
55	0xbeca21a0	-0.3947878
56	0xbf441d45	-0.7660716
57	0xbe9dc39c	-0.308133
58	0xbd3b2da0	-0.04569781
59	0x3f0dd4c3	0.55402774
60	0xbf4277ba	-0.7596394
61	0x3eece9b9	0.46272066
62	0xbe18a644	-0.14907175
63	0xbeab053f	-0.3340244
64	0xbeb92145	-0.36158195
65	0x3ebcb736	0.3685853
66	0x3c8a2354	0.016862549
67	0x3e8044d8	0.25052524
68	0x3f2a560c	0.6653755
69	0xbe2896e7	-0.16463815
70	0xbeb97da5	-0.36228672
71	0xbf64ae6d	-0.8932865
72	0xbee5b723	-0.44866285
73	0x3d0cde16	0.034391485
74	0x3f18363a	0.59457743
75	0xbd975be1	-0.073905714
76	0x3dffd18a	0.12491138
77	0xbf15a92e	-0.5846127
78	0xbc624c40	-0.013812125
79	0x3e31dccd	0.17369385
80	0xbe8e7470	-0.2782321
81	0xbdfc181d	-0.12309287
82	0x3ec0b284	0.37636197
83	0x3dcd33f5	0.10019676
84	0xbf844459	-1.0333358
85	0xbf8c9163	-1.0981869
86	0xbcf53b65	-0.029935548
87	0xbe884638	-0.26616073
88	0x3ed3a2a1	0.41335014
89	0x3f917df3	1.1366562
90	0xbf9b25c7	-1.2120904
91	0xbf27cb6a	-0.6554476
92	0xbf4a340b	-0.7898566
93	0xbcea031d	-0.028565938
94	0xbe8c3400	-0.27383423
95	0x3d90b761	0.07066227
96	0x3f31759e	0.69320095
97	0x3eac1e2f	0.33616778
98	0x3e047bea	0.12937894
99	0xbde8271c	-0.113355845
100	0x3f4038ca	0.75086653
101	0x3ccc0252	0.02490345
102	0xbf0c8dcb	-0.5490386
103	0xbf081b1d	-0.5316637
104	0xbcb3a0af	-0.021927206
105	0xbddf2ffa	-0.10897823
106	0x3e1d38cd	0.15353699
107	0x3f93f278	1.155837
108	0x3e298487	0.16554461
109	0x3e909c90	0.28244448
110	0xbe7a529f	-0.2444558
111	0xbe5e856d	-0.21730585
112	0xbe4aaa34	-0.1979149
113	0xbec5d36f	-0.38637874
114	0x3e49be77	0.19701563
115	0x3e315a64	0.17319638
116	0xbe7718e6	-0.24130592
117	0x3d9623af	0.07331025
118	0xbeef576e	-0.4674639
119	0xbe887349	-0.26650456
120	0x3ea74f8d	0.3267788
121	0x3e9bc2d0	0.30422068
122	0xbe14b2d4	-0.14521343
123	0xbe171027	-0.14752255
124	0x3ece8d2a	0.40342075
125	0xbf38d3c7	-0.72198147
126	0x3edfcfba	0.4371317
127	0xbed3b3fd	-0.41348258
128	0x3e92606f	0.28589198
129	0xbea21f55	-0.3166453
130	0xbeff2c8d	-0.49838677
131	0xbe89b425	-0.26895252
132	0x3f508900	0.81459045
133	0xbed423ff	-0.41433713
134	0xbf069a07	-0.5257878
135	0x3f5b83e5	0.8574813
136	0xbdd9c513	-0.10633292
137	0x3e8b730a	0.27236205
138	0xbc2a56fa	-0.010396713
139	0x3f07c52b	0.5303523
140	0x3ea0c85f	0.3140287
141	0x3db938c7	0.090440325
142	0x3f4cd1d3	0.80007666
143	0x3efb9e65	0.49144283
144	0xbf1b5208	-0.60672045
145	0xbf2c57b7	-0.6732134
146	0x3eda3e32	0.42625576
147	0xbdf2bf1a	-0.11852856
148	0x3de8471f	0.1134169
149	0xbdb213fa	-0.086952165
150	0xbf921584	-1.1412816
151	0x3fcf8f3f	1.621559
152	0x3e2dc26d	0.16968699
153	0x3dd8c6ec	0.10584816
154	0xbea9f471	-0.33194306
155	0xbf2ad609	-0.6673284
156	0xbf777b33	-0.9667236
157	0xbf2ae3a7	-0.6675362
158	0x3f8e0b71	1.1097242
159	0x3ed22a69	0.4104798
160	0xbf0f5dd9	-0.56002575
161	0xbf688cf7	-0.90840095
162	0xbf5792cb	-0.84208363
163	0xbf75160d	-0.9573677
164	0xbf3f0b1d	-0.7462633
165	0x3f724e16	0.946504
166	0x3f29d976	0.66347444
167	0xbf102af9	-0.5631557
168	0xbd910a22	-0.07082011
169	0xbf33b8ec	-0.70204043
170	0xbf0ecd6c	-0.557822
171	0xbf63edac	-0.89034534
172	0x3f2a85e1	0.66610533
173	0x3e6e3723	0.2326322
174	0xbf835c69	-1.0262576
175	0xbed88690	-0.42290163
176	0xbf376e93	-0.716531
177	0xbeb18397	-0.34670708
178	0xbf20d84e	-0.62830055
179	0x3e80c0b9	0.25147036
180	0x3f07d03b	0.5305211
181	0xbe390c12	-0.1807101
182	0xbf635f15	-0.8881696
183	0xbf379802	-0.7171632
184	0xbf8ae715	-1.0851771
185	0xbf6aef02	-0.91770947
186	0x3ee068b1	0.43829873
187	0x3eb718ed	0.35761204
188	0xbf1c37e1	-0.61022764
189	0xbea43cc7	-0.3207762
190	0xbf4a39c1	-0.78994375
191	0xbf3393fd	-0.7014769
192	0xbf9ecb4d	-1.2405792
193	0x3f879ffb	1.0595697
194	0x3f5234b0	0.82111645
195	0xbf17736d	-0.591605

bias_ih_l0 f4 [28]
0	0x3f6311c7	0.88699
1	0xbd79eb1c	-0.061015233
2	0xbe389485	-0.18025406
3	0x3d1e3d60	0.03863275
4	0xbf165047	-0.58716244
5	0x3f850b3c	1.0394053
6	0x3d968285	0.073491134
7	0x3e8f8bea	0.28036433
8	0x3e65fb52	0.22459152
9	0x3f639ecd	0.88914186
10	0x3e72e78c	0.2372114
11	0x3f1c1f54	0.609853
12	0x3f9e9f1f	1.239231
13	0x3e8cf7bd	0.2753276
14	0xbf4e37d6	-0.8055395
15	0x3e124f89	0.14288153
16	0xbe614e8a	-0.22002617
17	0xbe2d3017	-0.16912876
18	0xbe10673d	-0.14101882
19	0x3f9c2684	1.2199254
20	0xbf504207	-0.8135075
21	0x3eb73191	0.35780004
22	0x3f0e7d81	0.55660254
23	0x3f365603	0.71224993
24	0x3ee5d016	0.4488532
25	0x3ef09295	0.46986833
26	0x3f2e93bd	0.6819418
27	0x3f14fb62	0.5819608

bias_hh_l0 f4 [28]
0	0x3f0851ee	0.53250015
1	0x3ccf4c49	0.02530493
2	0xbedbee32	-0.42955166
3	0xbd72cb3a	-0.059275843
4	0xbe507b5a	-0.20359555
5	0x3f8c4e64	1.0961423
6	0x3eff463a	0.49858266
7	0x3ed20dc6	0.41026133
8	0x3f0b89eb	0.5450732
9	0x3f9d06e7	1.2267731
10	0xbddaee51	-0.106899865
11	0x3e5387f0	0.20657325
12	0x3f9ba8d5	1.2160898
13	0x3f227f91	0.634759
14	0xbf7f3de3	-0.99703807
15	0xbec0a0d4	-0.37622702
16	0xbf0ef55a	-0.55843127
17	0x3dff4fa9	0.12466366
18	0x3c17d72b	0.009267609
19	0x3f8b6e61	1.089306
20	0xbf29fc63	-0.66400737
21	0x3f10e55c	0.56599975
22	0x3f3dd8b3	0.7415878
23	0x3f05e00a	0.5229498
24	0x3ee4b7c8	0.44671464
25	0x3f298068	0.6621156
26	0x3f0f425f	0.5596065
27	0x3f2bbc3d	0.67084104

weight f4 [1, 7]
0	0xc056b099	-3.3545287
1	0xc0517fd7	-3.2734277
2	0xc06882a7	-3.6329744
3	0xc0675350	-3.61446
4	0x406718ef	3.6108968
5	0x4048d741	3.138138
6	0xc064f62e	-3.5775256
