Output_Opt/adamw_dynlr_model_finetune.pt (torch, 4707 bytes, 5 tensors)

weight_ih_l0 f4 [28, 9]
0.6227745 0.5507863 0.9177021 0.8431206 0.26666915 -0.1639691 -0.5007366 -0.06200784
-0.014177661 1.3856854 -2.485432 0.13755214 0.2339545 0.18539244 0.23249026 -0.656459
-0.4933139 -0.59607893 1.862086 -2.1698472 0.45671412 0.25920516 -0.43508512 0.16408406
0.51332104 -0.53884345 0.22638074 -0.7858175 -0.939429 2.5811102 1.9263991 1.0392665
-1.2280196 -0.23292981 0.40559885 -1.742845 2.784515 -0.13340491 2.2490659 1.8521645
0.3211042 -1.1888462 -1.223108 1.0291455 -1.509122 -1.0285563 0.13868831 1.3567688
-0.16276486 2.3995073 -0.5756845 -0.18550129 0.3066463 -0.063097596 2.2755826 1.029208
1.2227001 1.609212 1.6790903 -0.2756845 -0.5874804 0.120623216 -0.44856223 -1.461687
0.5372867 0.44671208 0.8493347 0.16908439 -0.3574921 -1.262025 1.3632536 -1.2154769
3.5097687 -0.7736494 1.8091267 0.9593725 2.0438151 0.40534446 0.12380936 0.12443871
0.28903553 -0.10977895 0.08182944 0.9412773 1.3358119 1.3297644 -0.18495297 -0.1940364
0.0047764536 -1.3590277 -0.24056631 -0.6026608 1.1030532 1.0032246 2.6915653 0.17636262
-0.10995182 -0.23722543 -0.6143732 0.53961045 0.04122526 1.9763849 1.1457361 2.0496178
0.07734624 -0.4293829 -0.22497536 0.119980924 -0.45680702 -0.4691978 0.38714758 0.37917414
1.2461089 -0.12525769 -0.20425044 -0.30963638 0.121532835 0.15582535 -0.092940725 1.2466424
0.4497347 0.9605633 0.2176518 -0.008632485 -0.42779964 0.5119694 -1.3205539 3.5824263
-0.69092494 -0.07051138 -0.4132472 -0.053519316 -0.069618724 -0.5643752 -0.8672914 -2.0177073
-0.5115364 0.31763434 -1.0746135 -1.1692119 0.061381456 -0.07440123 -0.08555817 0.60076153
-0.07195695 -0.065269195 -1.774735 -1.8687536 -1.8559293 0.16593762 0.6459306 -0.721968
0.25574443 -0.20971283 -0.35023248 0.27864346 -0.26490453 0.32546413 -1.6698767 0.040978435
0.6622911 -1.1857823 1.7350398 0.68340564 -1.2333939 -0.58746874 -1.0805994 0.42048556
-0.31850418 0.28956065 0.7478864 -0.48197618 0.48996943 -0.31275472 -0.079802826 -0.030504467
1.0854504 -0.3665882 -0.13923183 -0.039066438 1.7627469 0.45497298 -0.87877846 1.7867663
1.5695078 -0.9421909 -0.5780062 0.57957816 0.12918939 -1.1993936 -0.8673802 0.7874786
1.0179441 1.7947105 -0.64622873 -0.33748946 0.08560291 -0.61363405 -2.133118 -1.9121394
1.084398 0.50938016 0.69407827 -0.27733046 -0.12072579 0.34415752 -0.29137668 0.92507505
-3.559683 1.0578203 0.43599874 1.6336259 -0.15644881 -0.1303025 0.15637547 -0.038323317
1.2708805 -0.7241923 0.94263095 1.1265464 1.975929 -0.96109354 -0.34856012 -0.04365382
-0.8599173 0.5776398 0.3137781 0.7407523 0.6375261 1.1878284 -0.5331955 0.0868914
-0.1438663 0.16923887 5.9986196 -0.65455836 -0.23708043 -0.19345702 -0.49561495 0.0040928093
0.054562703 0.017252631 0.12889281 3.1831508 -0.9602725 0.3723042 0.5187188 0.19310686
-0.44976598 1.0063478 -0.33329555 -0.21101576
00000000: 266e 1f3f 5500 0d3f 86ee 6a3f c0d6 573f
00000010: dc88 883e 84e7 27be 4630 00bf effb 7dbd
00000020: 6c49 68bc 245e b13f 5111 1fc0 78da 0c3e
00000030: c591 6f3e 84d7 3d3e ed11 6e3e b20d 28bf
00000040: a493 fcbe a198 18bf d658 ee3f c7de 0ac0
00000050: 6fd6 e93e 8ab6 843e 7ac3 debe a705 283e
00000060: 0269 033f a5f1 09bf 5ad0 673e 562b 49bf
00000070: 6b7e 70bf e930 2540 3f94 f63f af06 853f
00000080: bf2f 9dbf 2785 6ebe a7aa cf3e 8c15 dfbf
00000090: 7e35 3240 4c9b 08be b2f0 0f40 ba13 ed3f
000000a0: c567 a43e 1d2c 98bf ce8e 9cbf 0abb 833f
000000b0: e92a c1bf bca7 83bf 4f04 0e3e 9aaa ad3f
000000c0: d5ab 26be 8791 1940 0f60 13bf 0df4 3dbe
000000d0: be00 9d3e 5039 81bd 25a3 1140 16bd 833f
000000e0: 7081 9c3f a9fa cd3f 6eec d63f 8526 8dbe
000000f0: 1e65 16bf 4e09 f73d f3a9 e5be 8f18 bbbf
00000100: 9f8b 093f 72b7 e43e 006e 593f 7524 2d3e
00000110: 3409 b7be 098a a1bf 187f ae3f bf94 9bbf
00000120: 0da0 6040 e30d 46bf 7791 e73f 7099 753f
00000130: decd 0240 4f89 cf3e c38f fd3d b9d9 fe3d
00000140: 77fc 933e c9d3 e0bd 3296 a73d 8df7 703f
00000150: e2fb aa3f b835 aa3f 5064 3dbe 7ab1 46be
00000160: cc83 9c3b 9ff4 adbf 0457 76be fa47 1abf
00000170: d930 8d3f aa69 803f 9b42 2c40 6798 343e
00000180: 6b2e e1bd 39eb 72be 9047 1dbf e923 0a3f
00000190: d1db 283d 2efa fc3f 7ba7 923f f02c 0340
000001a0: b567 9e3d 13d8 dbbe f15f 66be 8fb8 f53d
000001b0: 9ce2 e9be b23a f0be 3538 c63e 1d23 c23e
000001c0: 7f80 9f3f 8d43 00be 0727 51be a988 9ebe
000001d0: 35e6 f83d ae90 1f3e b557 bebd fa91 9f3f
000001e0: a043 e63e 7ae7 753f 1de0 5e3e 446f 0dbc
000001f0: 8e08 dbbe 6d10 033f e907 a9bf 7946 6540
00000200: 75e0 30bf 4568 90bd 2395 d3be 1237 5bbd
00000210: 4394 8ebd e57a 10bf cf06 5ebf 1e22 01c0
00000220: 0df4 02bf f8a0 a23e ef8c 89bf bca8 95bf
00000230: 1f6b 7b3d ac5f 98bd 1f39 afbd 82cb 193f
00000240: 2a5e 93bd dbab 85bd 842a e3bf 5133 efbf
00000250: 178f edbf 8deb 293e b55b 253f e5d2 38bf
00000260: eff0 823e f6be 56be ac51 b3be 5baa 8e3e
00000270: 91a1 87be 3ca3 a63e 85be d5bf 01d9 273d
00000280: e98b 293f b7c7 97bf c915 de3f acf3 2e3f
00000290: dadf 9dbf 5a64 16bf 1551 8abf e249 d73e
000002a0: fb12 a3be 4b41 943e 7c75 3f3f 95c5 f6be
000002b0: 46dd fa3e 6321 a0be aa6f a3bd 81e4 f9bc
000002c0: 0af0 8a3f 73b1 bbbe ca92 0ebe 2104 20bd
000002d0: b1a1 e13f 38f2 e83e a0f7 60bf c2b4 e43f
000002e0: a2e5 c83f 6c33 71bf 37f8 13bf 3c5f 143f
000002f0: 394a 043e bb85 99bf a10c 5ebf 3398 493f
00000300: fe4b 823f 13b9 e53f 3f6f 25bf 6bcb acbe
00000310: 9450 af3d 1f17 1dbf 0185 08c0 fcc0 f4bf
00000320: 8ecd 8a3f bd66 023f 1daf 313f 42fe 8dbe
00000330: 153f f7bd 6a35 b03e 532f 95be b8d1 6c3f
00000340: d9d1 63c0 a866 873f 3a3b df3e a71a d13f
00000350: 1e34 20be 056e 05be e420 203e e9f8 1cbd
00000360: 36ac a23f ab64 39bf 4350 713f ac32 903f
00000370: 3eeb fc3f 3a0a 76bf 7976 b2be 59ce 32bd
00000380: 8a23 5cbf 34e0 133f 86a7 a03e f1a1 3d3f
00000390: e934 233f c30a 983f 807f 08bf 1ef4 b13d
000003a0: b051 13be f44c 2d3e b1f4 bf40 2391 27bf
000003b0: 36c5 72be 9919 46be 3ec1 fdbe f91c 863b
000003c0: 247d 5f3d 6455 8d3c 7afc 033e beb8 4b40
000003d0: 6bd4 75bf a89e be3e c1ca 043f cebd 453e
000003e0: ba47 e6be 01d0 803f b7a5 aabe 8414 58be

weight_hh_l0 f4 [28, 7]
-1.5310332 0.1726215 1.1799753 -0.803552 2.3009632 0.9045383 -0.27832955 -2.0460844
1.4332811 -0.38953957 -1.6302499 1.059618 1.5581329 -0.4310269 -0.18997014 1.6606742
0.44406664 -1.446697 0.9567544 0.3923303 0.2921323 2.423804 0.46412024 -2.114265
2.0145545 0.887438 1.7591624 -1.6592981 0.3704373 -0.81781256 1.1769806 0.39398783
0.85594493 1.9594877 -1.1264925 -2.4648912 -2.1760676 -0.43176043 1.1323794 -2.1728709
-1.3358028 -0.060045682 -0.18023928 0.93826455 1.5719407 -1.329077 -0.51940376 1.9731239
-0.32845402 -0.09472877 -0.4417896 0.96627647 1.2103249 -0.22567533 -0.6458357 -0.6991693
0.029556055 -0.32264107 0.48289195 0.32014748 -0.36178857 -0.69946176 1.1384505 1.7726362
0.64514637 1.5435919 -0.3480663 -0.56686 -0.93668413 0.7751435 -0.07391352 0.5462849
0.2285212 -0.18881339 -0.4995844 -0.13207327 -0.003534669 1.9125693 -0.7527894 1.731117
2.0310776 0.13206147 -1.0232685 0.06338003 -0.32752377 0.84308404 0.116183326 2.4888163
-2.319735 -0.6814008 0.6966177 1.9803171 0.97320014 -0.52938014 1.2423395 -1.2026273
-1.2411319 -0.5414614 -2.1615903 -0.18336906 1.0415664 0.73332727 -0.4029997 -0.97622275
-0.7795295 -0.18861291 0.34007502 0.7635349 -0.13764267 1.1882573 0.51418257 -1.2163014
-2.0184143 -1.6160758 -1.713267 0.65607196 0.4510198 -1.0475252 -0.27233702 2.5927012
-0.068034016 -0.99706435 1.6111332 -0.3036843 0.16645506 0.27480254 0.12105528 0.14850624
-0.05847879 -2.5498776 0.7595846 -0.14878266 -0.0853895 0.21120964 -0.19470087 0.06768801
-1.1537094 1.1081223 0.4259721 -0.112343304 -0.34056845 -1.5431689 -1.0064541 0.382624
-2.113027 0.46077237 1.0438147 -0.23368391 -1.6103473 0.32143253 2.6291456 -1.3041985
0.313928 0.9095137 -0.17664216 -2.4258668 -0.1122724 3.9413435 -2.1675868 0.20540205
-0.21008231 2.7039847 -1.105315 0.061184254 3.2488797 -1.0319947 0.48331198 1.022592
1.3517486 -0.087612495 0.93181753 1.6577408 -0.18237376 -0.0019020062 2.323725 0.295836
-0.865256 -0.35881698 1.3132013 -2.8658454 -0.03846381 2.4197462 -0.4968022 0.7136126
0.924054 0.556863 0.15836073 -1.214482 0.51121354 -0.20339131 -0.74803036 -1.2216659
0.85360116 -0.75972414 -1.945253 1.1006632
00000000: e5f8 c3bf b1c3 303e 6e09 973f 95b5 4dbf
00000010: fb42 1340 d28f 673f 3681 8ebe 0cf3 02c0
00000020: c175 b73f bb71 c7be 07ac d0bf 90a1 873f
00000030: e670 c73f 8faf dcbe 8887 42be f990 d43f
00000040: b45c e33e 5e2d b9bf dbed 743f 84df c83e
00000050: 5d92 953e 9b1f 1b40 2ba1 ed3e 1e50 07c0
00000060: 76ee 0040 232f 633f 3c2c e13f e163 d4bf
00000070: f5a9 bd3e 2a5c 51bf 4da7 963f c6b8 c93e
00000080: 351f 5b3f 7ed0 fa3f e830 90bf c7c0 1dc0
00000090: b144 0bc0 b40f ddbe cff1 903f 5110 0bc0
000000a0: 96fb aabf 76f2 75bd a590 38be 1b32 703f
000000b0: 5a35 c93f 321f aabf a5f7 04bf 538f fc3f
000000c0: 202b a8be 2801 c2bd 3f32 e2be e55d 773f
000000d0: edeb 9a3f 6f17 67be 7d55 25bf c2fc 32bf
000000e0: 8a1f f23c 3631 a5be 9d3d f73e 5fea a33e
000000f0: 5a3c b9be ed0f 33bf bfb8 913f bee5 e23f
00000100: 5028 253f 6b94 c53f bf35 b2be bd1d 11bf
00000110: 88ca 6fbf ce6f 463f f95f 97bd 54d9 0b3f
00000120: 7601 6a3e 4c58 41be 87c9 ffbe 373e 07be
00000130: e8a5 67bb 12cf f43f ceb6 40bf 3e95 dd3f
00000140: 2dfd 0140 1f3b 073e 76fa 82bf 64cd 813d
00000150: 32b1 a7be 5bd4 573f 86f1 ed3d c448 1f40
00000160: 8a76 14c0 4870 2ebf 8a55 323f 087b fd3f
00000170: a523 793f 7585 07bf fb04 9f3f b1ef 99bf
00000180: 69dd 9ebf 379d 0abf 7f57 0ac0 19c5 3bbe
00000190: 0c52 853f 56bb 3b3f fa55 cebe bce9 79bf
000001a0: 3f8f 47bf be23 41be 501e ae3e 0677 433f
000001b0: 33f2 0cbe d118 983f 78a1 033f c4af 9bbf
000001c0: b32d 01c0 92db cebf 554c dbbf 55f4 273f
000001d0: 11ec e63e 4e15 86bf c26f 8bbe d1ee 2540
000001e0: 6b55 8bbd 9c3f 7fbf 9d39 ce3f 827c 9bbe
000001f0: 3273 2a3e ebb2 8c3e d5eb f73d 0512 183e
00000200: 7587 6fbd 3231 23c0 2374 423f 7b5a 18be
00000210: b1e0 aebd 5747 583e aa5f 47be 03a0 8a3d
00000220: c0ac 93bf f4d6 8d3f 0419 da3e 3f14 e6bd
00000230: fd5e aebe 8f86 c5bf 7dd3 80bf 4be7 c33e
00000240: d63b 07c0 5bea eb3e b89b 853f d64a 6fbe
00000250: dc1f cebf ce92 a43e ec43 2840 faef a6bf
00000260: 2cbb a03e e4d5 683f afe1 34be 6741 1bc0
00000270: 12ef e5bd f93e 7c40 beb9 0ac0 ea54 523e
00000280: d11f 57be 160e 2d40 f67a 8dbf 579c 7a3d
00000290: a5ed 4f40 6718 84bf ab74 f73e 4be4 823f
000002a0: 1906 ad3f 2e6e b3bd 988b 6e3f da30 d43f
000002b0: 30c0 3abe bd4c f9ba e9b7 1440 d177 973e
000002c0: 6b81 5dbf dcb6 b7be fb16 a83f 036a 37c0
000002d0: 3a8c 1dbd 1fdd 1a40 dc5c febe 51af 363f
000002e0: ce8e 6c3f 938e 0e3f 5129 223e 2574 9bbf
000002f0: e4de 023f d045 50be eb7e 3fbf 8c5f 9cbf
00000300: 9b85 5a3f 487d 42bf 0dfe f8bf 88e2 8c3f

bias_ih_l0 f4 [28]
-0.2685193 -1.165568 -0.9072346 1.1879233 -0.7867286 1.4877987 -1.2267323 1.0767771
0.06206635 0.5833059 1.0349375 0.9113396 1.2527885 1.1944652 1.3170425 -0.9736548
0.3339262 1.452415 -1.7660606 -1.2862248 1.0180138 -0.82187146 0.7588915 -1.3419943
1.3221669 0.4508453 1.0511657 2.0963192
00000000: 5d7b 89be 5531 95bf 8740 68bf df0d 983f
00000010: 0c67 49bf 3070 be3f 9005 9dbf d5d3 893f
00000020: 4939 7e3d 8953 153f d578 843f 8d4d 693f
00000030: 605b a03f 3ce4 983f d994 a83f 7141 79bf
00000040: 60f8 aa3e bce8 b93f 460e e2bf 04a3 a4bf
00000050: 474e 823f 2b66 52bf b746 423f 78c6 abbf
00000060: c43c a93f 32d5 e63e 998c 863f 182a 0640

bias_hh_l0 f4 [28]
-0.14391237 -0.6745777 -0.58439827 0.89438325 -0.70171845 1.4732934 -1.232915 1.059522
0.111575 0.6722927 0.927303 0.9051477 1.3550844 1.1380038 0.9816873 -1.2684065
0.148907 1.7047641 -1.6285136 -1.4138589 1.1203836 -0.4490281 0.41181773 -1.3296652
0.85364693 0.508541 1.3061984 2.2156193
00000000: c45d 13be 20b1 2cbf 209b 15bf 4df6 643f
00000010: d2a3 33bf e194 bc3f 29d0 9dbf 6b9e 873f
00000020: 6f81 e43d 601b 2c3f bb63 6d3f c2b7 673f
00000030: 6873 ad3f 1caa 913f dc4f 7b3f 255b a2bf
00000040: 147b 183e b635 da3f 2273 d0bf 54f9 b4bf
00000050: bb68 8f3f 03e7 e5be c6d9 d23e 7832 aabf
00000060: 9b88 5a3f be2f 023f 8231 a73f b5cc 0d40

weight f4 [1, 7]
-3.2390368 -3.808409 -4.1564636 3.276512 -2.530841 -3.528107 3.1785054
00000000: 614c 4fc0 f9bc 73c0 c001 85c0 5fb2 5140
00000010: 4df9 21c0 81cc 61c0 a26c 4b40
