Output_Opt/adam_fixlr_model_finetune.pt (torch, 4707 bytes, 5 tensors)

weight_ih_l0 f4 [28, 9]
0	0x3e56a858	0.20962656
1	0xbe51960d	-0.20467396
2	0x3e82a70b	0.2551807
3	0x3e5dce4f	0.21660732
4	0x3d1031e8	0.035203844
5	0xbec773db	-0.38955578
6	0x3cd59bef	0.026075331
7	0x3dafc9b5	0.085833944
8	0xbe3ea53d	-0.18617721
9	0xbdb8ae9f	-0.09017681
10	0x3de8b1aa	0.11362012
11	0x3f6fc768	0.93663645
12	0x3ee4d82a	0.4469617
13	0x3f362300	0.71147156
14	0xbc84755a	-0.016169239
15	0xbe1e01c6	-0.15430364
16	0x3f164e76	0.5871347
17	0xbe3f4ee3	-0.18682437
18	0x3eab522e	0.33461136
19	0x3e9d34bf	0.30704305
20	0x3f56a494	0.83844876
21	0x3f38b695	0.721536
22	0x3eaac86a	0.3335603
23	0xbe6699df	-0.22519635
24	0xbe9509f0	-0.29109144
25	0x3e88684d	0.26642075
26	0xbd9274f7	-0.071512155
27	0x3f25d991	0.64785105
28	0xbebf0f29	-0.37316254
29	0x3cc7f622	0.024409357
30	0x3ea22780	0.3167076
31	0x3f03d597	0.5149779
32	0xbe56d721	-0.20980503
33	0xbadeef17	-0.001700851
34	0xbc1cfaf5	-0.009581317
35	0xbd6f2953	-0.05838902
36	0x3e8bd9b2	0.27314526
37	0xbd9fe4cb	-0.07807311
38	0x3e5dc1a2	0.21655896
39	0x3ecf35ef	0.40470836
40	0x3ead372a	0.3383115
41	0xbe26acb1	-0.16276814
42	0xbe25929b	-0.16169207
43	0x3dd346dd	0.103162505
44	0x3df1726f	0.117894046
45	0x3f03ecfe	0.51533496
46	0xbf049e1f	-0.51803774
47	0xbc879645	-0.016551146
48	0xbbdc82d1	-0.0067294617
49	0xbd84147d	-0.0644922
50	0x3dc43446	0.09580283
51	0x3ec924a2	0.3928576
52	0x3c3673d9	0.011136019
53	0x3e881687	0.26579687
54	0x3f05e154	0.5229695
55	0x3f3441c8	0.70412874
56	0x3e922087	0.2854044
57	0x3edc7373	0.4305683
58	0x3f23709e	0.63843715
59	0xbe73011e	-0.23730895
60	0xbe421087	-0.18951617
61	0xbd3f2896	-0.046669565
62	0x3b7b8f00	0.0038384795
63	0x3ee486c9	0.44634083
64	0xbe255ca3	-0.1614862
65	0x3d71919e	0.058976762
66	0x3e3219a2	0.1739259
67	0x3e144cd4	0.14482433
68	0x3e17cabd	0.14823432
69	0xbd99d907	-0.07512098
70	0x3dd0c22e	0.10193287
71	0x3d6c0cd9	0.05762944
72	0xbe2e02af	-0.16993211
73	0xbe3eb98e	-0.18625471
74	0xbcf585cc	-0.029971026
75	0xbe4220c7	-0.18957816
76	0xbeadb528	-0.33927274
77	0xbda51517	-0.08060663
78	0xbead3341	-0.33828166
79	0xbe5caff4	-0.21551496
80	0x3d9cf70c	0.07664308
81	0x3e840779	0.2578695
82	0xbe684252	-0.22681549
83	0x3edc7a95	0.43062273
84	0x3e8946a4	0.26811707
85	0x3f88a644	1.067574
86	0x3e850506	0.25980395
87	0x3d1f3af1	0.03887457
88	0xbdd306fe	-0.10304068
89	0x3e0abc7d	0.13548465
90	0x3dcbedd2	0.0995747
91	0xbe65e372	-0.22450045
92	0xbc3f0f86	-0.011661416
93	0xbe464511	-0.19362284
94	0x3eb0a937	0.345041
95	0x3c422331	0.011849211
96	0x3c94481a	0.018100787
97	0xbd7aacfb	-0.061200123
98	0x3e1c9419	0.1529087
99	0x3edccb1d	0.43123713
100	0xbf2c7a2e	-0.6737393
101	0x3dd5cce4	0.104394704
102	0x3df29130	0.118440986
103	0x3e3b4732	0.18288878
104	0x3d1308c0	0.035897017
105	0x3bd03096	0.006353448
106	0xbb03c2a6	-0.0020105033
107	0x3e352871	0.17691208
108	0xbe3221f3	-0.17395763
109	0x3e08507b	0.13311951
110	0x3e47f384	0.19526488
111	0x3db3beaf	0.087766044
112	0x3d8ac464	0.0677574
113	0x3e8c76a3	0.27434263
114	0x3b3b7683	0.0028604574
115	0xbe0fb758	-0.14034784
116	0xbe9f0179	-0.3105581
117	0xbd268564	-0.040654555
118	0x3e3eff52	0.18652084
119	0x3e50187c	0.2032184
120	0x3cd7730c	0.026299976
121	0x3f306872	0.6890937
122	0x3e1a18c0	0.15048504
123	0xbe43fa53	-0.1913846
124	0x3cb391a2	0.02192003
125	0x3e4a1e5a	0.1973814
126	0x3e13aaa6	0.14420566
127	0xbe10a167	-0.1412407
128	0xbe4b6590	-0.19862962
129	0xbe886004	-0.26635754
130	0xbf032c90	-0.5123987
131	0x3e16e733	0.14736633
132	0x3dd34fda	0.10317965
133	0xbdd5e02c	-0.10443148
134	0x3c8b3571	0.016993256
135	0xbd553dca	-0.05206088
136	0x3e0271e0	0.12738752
137	0xbf1314ad	-0.57453424
138	0xbeea44b8	-0.45755553
139	0x3ddbe3ac	0.10736784
140	0xbe8483e8	-0.25881886
141	0xbe1c6b5b	-0.15275328
142	0xbe631c3e	-0.22178742
143	0x3aa617e2	0.0012671913
144	0xbed5c44d	-0.41751328
145	0xbe28c916	-0.16482958
146	0x3e87fe9d	0.26561442
147	0xbc9d862d	-0.019229019
148	0x3f0428a4	0.5162451
149	0xbe6546b5	-0.22390254
150	0xbcb7ce78	-0.02243732
151	0xbdb91386	-0.09036927
152	0xbcc5cf72	-0.02414677
153	0x3fc478a6	1.5349319
154	0xbf535ff3	-0.8256828
155	0xbe3256a3	-0.17415862
156	0xbe4c1d8c	-0.19933146
157	0xbe52ad1d	-0.2057385
158	0x3d2667da	0.040626384
159	0x3d1fe9e2	0.039041407
160	0xbd9112bd	-0.07083652
161	0x3e1cdb57	0.15318047
162	0xbf4941a6	-0.78615797
163	0xbe7f96a5	-0.2495981
164	0xbe8f0904	-0.27936566
165	0xbe113e72	-0.14183977
166	0xbf1dd58c	-0.6165397
167	0xbb89598c	-0.004191583
168	0x3db59798	0.08866805
169	0x3dca0d81	0.09865857
170	0x3dbeb3ca	0.09311636
171	0x3e587a36	0.2114037
172	0x3db306c5	0.087415256
173	0x3f22f066	0.6364807
174	0x3f5236bf	0.82114786
175	0x3f2c623d	0.673374
176	0x3d111dcb	0.035428803
177	0xbe161288	-0.14655507
178	0x3d6e138b	0.058124106
179	0xbeaebd68	-0.3412888
180	0xbe3f2c65	-0.18669279
181	0x3faafa8a	1.3357708
182	0x3d059795	0.032615263
183	0x3e101d4e	0.14073679
184	0xbe1f1e90	-0.15539002
185	0x3cac847a	0.021059263
186	0xbcae474c	-0.021274231
187	0xbd9f11af	-0.07767045
188	0x3c17f025	0.0092735635
189	0x3fb0a602	1.3800662
190	0xbf2b6e19	-0.6696487
191	0xbe5e0f5f	-0.21685551
192	0xbdebe09a	-0.11517449
193	0x3f35d07b	0.7102124
194	0xbe84d0a6	-0.25940436
195	0x3daed0d9	0.08535928
196	0x3cb9ed41	0.02269614
197	0x3d3f03ac	0.04663436
198	0x3f98c7c8	1.1935968
199	0xbea9334f	-0.33046958
200	0x3dc6b531	0.09702528
201	0x3e93f519	0.28897932
202	0x3e211d58	0.1573385
203	0x3cace0b4	0.02110324
204	0xbccb7c0c	-0.024839424
205	0xba9758b2	-0.0011546819
206	0x3da7c9a3	0.08192756
207	0x4021103f	2.5166166
208	0xbf54b0e9	-0.83082443
209	0x3d38a8f8	0.045083016
210	0x3e50de3a	0.20397273
211	0x3d7ff5bf	0.06249022
212	0xbe51794e	-0.2045643
213	0xbd4eb116	-0.05046185
214	0x3d2c4550	0.04205829
215	0x3bb7d67a	0.0056102844
216	0x3f2dc37a	0.678764
217	0xbf6a852a	-0.9160944
218	0xbc3c46b2	-0.011491464
219	0x3e13dae2	0.14438966
220	0xbe225ff0	-0.1585691
221	0xbe5f6d4f	-0.21819042
222	0x3dade02c	0.08490023
223	0x3e5930bd	0.21209998
224	0xb9280f20	-0.00016027363
225	0x3f1c6e44	0.6110575
226	0xbf72bebc	-0.9482229
227	0x3ed7ac9e	0.42123884
228	0x3e7bb8c2	0.24582198
229	0xbd6a4ea7	-0.057203915
230	0xbd81cd97	-0.06338041
231	0xbdb18f27	-0.08669882
232	0x3ea84b5b	0.32869992
233	0x3e898ace	0.26863712
234	0x3c778347	0.015106983
235	0xbf4935d1	-0.7859774
236	0x3dca3768	0.09873849
237	0xbd100afa	-0.035166718
238	0x3e2e6f23	0.17034583
239	0x3e75d05c	0.24005264
240	0x3d150f06	0.03639128
241	0x39e4d0f1	0.00043643222
242	0x3da8fe0e	0.08251582
243	0x3e017e41	0.12645818
244	0xbf3c5a19	-0.7357498
245	0x3e70aef3	0.23504238
246	0x3eda7f15	0.4267508
247	0x3f7c92f7	0.9866175
248	0xbeecb214	-0.46229613
249	0xbe0de8d0	-0.13858342
250	0x3e361df5	0.17784865
251	0xbda8afeb	-0.08236679

weight_hh_l0 f4 [28, 7]
0	0x3e8b577f	0.27215192
1	0x3f334b60	0.7003689
2	0x3fadd522	1.3580668
3	0xbf3dc102	-0.7412263
4	0xbf094dc7	-0.53634304
5	0x3f98225d	1.1885487
6	0xbf778f45	-0.96702987
7	0xbee6c416	-0.45071477
8	0xbed08522	-0.40726572
9	0x3f27df53	0.6557514
10	0xbbd8f656	-0.0066211624
11	0xbdeacba5	-0.11464623
12	0x3ea76212	0.3269201
13	0xbe9f3a7e	-0.31099313
14	0x3f02af35	0.51048595
15	0x3f64a557	0.8931479
16	0xbe2c3466	-0.16816863
17	0xbf702f43	-0.93822116
18	0x3f0ab587	0.5418324
19	0x3f82fc6d	1.0233284
20	0xbf27018b	-0.6523673
21	0xbed4b825	-0.4154674
22	0x3f24db50	0.64397144
23	0xbefce9ad	-0.4939703
24	0x3e8451ed	0.25843754
25	0x3ea9fc78	0.3320043
26	0x3e17e97a	0.14835158
27	0xbeab7403	-0.33486947
28	0x3ed90087	0.42383215
29	0x3f824977	1.017867
30	0xbf276509	-0.6538854
31	0xbf12e22b	-0.57376355
32	0x3e4c8ccb	0.19975583
33	0x3e25b87a	0.16183653
34	0xbeaa387a	-0.33246213
35	0x3f557e58	0.8339591
36	0x3ea2007e	0.31641
37	0xbf79e88a	-0.9762045
38	0xbcb33d66	-0.021879863
39	0x3ecd93cb	0.4015182
40	0x3e8073f1	0.25088456
41	0xbf58cd19	-0.84687954
42	0x3ea08711	0.31353047
43	0x3f889bc8	1.0672541
44	0xbe9f72f3	-0.31142387
45	0xbf046ff2	-0.51733315
46	0x3cef912c	0.029244028
47	0xbd8c6b7c	-0.068564385
48	0x3f11955e	0.5686854
49	0x3e839ee5	0.25707164
50	0xbe8e847c	-0.27835453
51	0x3e7ffce2	0.24998811
52	0xbe3181f4	-0.1733473
53	0xbea8a903	-0.32941446
54	0xbdd6daef	-0.10490977
55	0x3ed374e8	0.4130013
56	0xbf6d468c	-0.9268577
57	0xbf643734	-0.89146733
58	0x3efab186	0.48963565
59	0x3ea698b5	0.3253838
60	0xbf101f7c	-0.5629804
61	0x3dd31460	0.103066206
62	0xbed6b08f	-0.4193158
63	0xbf282fe0	-0.6569805
64	0xbb3afffa	-0.0028533922
65	0x3e279952	0.16367081
66	0x3c9e3a08	0.01931478
67	0x3f11a4d4	0.5689213
68	0xbed03527	-0.40665552
69	0x3f396e73	0.7243416
70	0xbf70c369	-0.9404817
71	0xbdeee75d	-0.11665223
72	0x3e53c05d	0.2067885
73	0x3f71b508	0.94416857
74	0x3d456fb6	0.04820224
75	0xbef992f9	-0.48744944
76	0xbf85930a	-1.0435498
77	0xbeb54207	-0.35401937
78	0xbe0282f9	-0.12745275
79	0x3e965287	0.29359838
80	0x3e37b598	0.17940366
81	0xbd1b2e8c	-0.037886187
82	0x3e75d7c5	0.24008091
83	0xbb6ddb45	-0.0036294025
84	0xbf0f14b1	-0.5589095
85	0xbe9cb1fe	-0.30604547
86	0x3ef1766f	0.4716067
87	0xbe3100ec	-0.17285508
88	0xbe1d2b96	-0.15348658
89	0xbeb18165	-0.34669033
90	0xbe8494c6	-0.25894755
91	0xbe368555	-0.178243
92	0x3ec8a540	0.39188576
93	0x3e939293	0.28822765
94	0x3edc6440	0.43045235
95	0xbe8254d7	-0.25455353
96	0xbc74f91e	-0.014951972
97	0xbf0a3477	-0.53986305
98	0x3f034cc3	0.51289004
99	0xbf053fbe	-0.5205039
100	0xbf80e8c1	-1.0071031
101	0xbda5a1ed	-0.080875255
102	0x3f5ac58c	0.8545768
103	0x3d1e7ac9	0.038691316
104	0xbf34059b	-0.70321053
105	0x3f472909	0.7779699
106	0x3f2ffc07	0.6874394
107	0xbda9ccab	-0.082909904
108	0x3df0ce2a	0.11758073
109	0x3ec5612f	0.38550708
110	0x3ef1b435	0.472078
111	0x3edad5d1	0.42741254
112	0xbe9c0f15	-0.30480257
113	0x3e004673	0.12526874
114	0x3e956249	0.29176548
115	0xbed32a08	-0.41243005
116	0xbe94ddef	-0.29075572
117	0x3f110d64	0.5666106
118	0xbf064c62	-0.524603
119	0x3d45d6de	0.048300616
120	0x3e8e974c	0.27849805
121	0xbe86b601	-0.26310733
122	0xbf0b4d4a	-0.5441481
123	0xbed8080f	-0.42193648
124	0x3e0fd502	0.140461
125	0xbec31448	-0.3810141
126	0xbe14218f	-0.14465927
127	0xbf1fed12	-0.62471116
128	0xbee773a4	-0.45205414
129	0x3e951a77	0.29121754
130	0xbd67e319	-0.05661306
131	0xbdec477f	-0.11537074
132	0xbef3250e	-0.47489208
133	0xbc616e82	-0.013759257
134	0x3f17df29	0.5932489
135	0xbb41e354	-0.002958496
136	0xbf3d04c9	-0.73835427
137	0x3e7e01ee	0.24805424
138	0xbe8f0741	-0.27935222
139	0x3f4065b3	0.7515518
140	0xbcc2d127	-0.023781372
141	0xbf9cb84d	-1.2243744
142	0xbd72063d	-0.05908798
143	0x3e766729	0.2406279
144	0x3ea77561	0.3270674
145	0xbf05a4b0	-0.5220442
146	0xbe6be373	-0.23035984
147	0xbf97d371	-1.1861402
148	0xbf5bdbc7	-0.8588223
149	0x3f669807	0.90075725
150	0x3f093f84	0.5361254
151	0xbedf3231	-0.4359298
152	0x3ee5fb5f	0.44918343
153	0xbeef4338	-0.4673097
154	0xbf7aa512	-0.9790813
155	0xbf7380ca	-0.9511839
156	0x3f575f3e	0.84129703
157	0x3f5fc678	0.87412214
158	0xbf014d99	-0.5050903
159	0x3e29864d	0.16555138
160	0xbf96f3ef	-1.1793193
161	0xbf4f3292	-0.8093654
162	0xbea74cc1	-0.32675746
163	0x3f237d76	0.63863313
164	0x3f136012	0.57568467
165	0xbf4dca40	-0.80386734
166	0x3f5b08ac	0.8556011
167	0xbf846be3	-1.0345424
168	0xbf1fcf7f	-0.6242599
169	0xbf3fa97a	-0.74867976
170	0x3f60c47c	0.8779981
171	0x3f66f901	0.902237
172	0xbf910593	-1.1329826
173	0x3ef6d4e9	0.48209313
174	0xbf7602b3	-0.9609787
175	0xbef2eb8c	-0.47445333
176	0xbf7889f8	-0.97085524
177	0x3f4f1139	0.80885655
178	0x3f16b26c	0.58866
179	0xbf26f51e	-0.6521777
180	0x3f141471	0.5784369
181	0xbf3a5180	-0.7278061
182	0xbf696187	-0.9116444
183	0xbfacf7ef	-1.3513163
184	0x3ea66995	0.32502428
185	0x3e63fcec	0.22264451
186	0xbf8f3223	-1.1187176
187	0x3f259056	0.64673364
188	0xbd6d6028	-0.05795303
189	0xbe47cee4	-0.19512516
190	0xbf405637	-0.75131553
191	0x3f23548f	0.638009
192	0x3fa70715	1.3049036
193	0xbf72d50c	-0.94856334
194	0x3f545ac9	0.8295103
195	0xbf4a52b2	-0.79032433

bias_ih_l0 f4 [28]
0	0x3ee4c53c	0.44681728
1	0x3f82f86b	1.0232061
2	0x3edd437e	0.43215555
3	0xbed5f222	-0.41786295
4	0xbdaf894b	-0.085711084
5	0xbe9ac4b7	-0.30228207
6	0x3e999318	0.29995036
7	0x3f58d9fe	0.8470763
8	0x3f802b86	1.0013282
9	0x3f3b1bd1	0.7308932
10	0x3e43ae52	0.19109467
11	0x3e9a0a32	0.30085903
12	0x3f26d8c9	0.6517454
13	0xbd6a3854	-0.057182625
14	0xbf585ed5	-0.845197
15	0xbf8f20d7	-1.1181897
16	0x3f2473ea	0.6423937
17	0x3dab152e	0.08353649
18	0xbee0c7d9	-0.43902472
19	0xbd4bcd57	-0.049756374
20	0xbde6d613	-0.112713
21	0x3f4c4bec	0.7980335
22	0x3f930e45	1.148873
23	0x3f0cb6df	0.5496654
24	0x3f5572f3	0.83378524
25	0x3f8cfdd8	1.1014967
26	0x3f9f1f38	1.2431402
27	0x3e7a8ef4	0.24468595

bias_hh_l0 f4 [28]
0	0x3f2f508a	0.6848227
1	0x3f60b3da	0.8777443
2	0x3ee358a7	0.44403574
3	0xbde23ca6	-0.11046724
4	0xbebf1c59	-0.37326315
5	0xbe9485db	-0.29008374
6	0xbdcfe091	-0.101502545
7	0x3e6a3b88	0.22874272
8	0x3ed0658e	0.4070248
9	0x3e95e29c	0.29274452
10	0xbe8d26e6	-0.2756874
11	0x3e02db22	0.12778905
12	0x3f85927d	1.043533
13	0xbe3147cf	-0.17312549
14	0xbf131d3f	-0.574665
15	0xbf864087	-1.0488442
16	0x3f5211de	0.82058513
17	0x3e1cb3a5	0.15302904
18	0xbe4e7bd5	-0.20164426
19	0x3d91df2c	0.07122645
20	0x3e61aac8	0.22037804
21	0x3f90ceb9	1.1313087
22	0x3f684756	0.9073385
23	0x3f1d0625	0.613375
24	0x3f4d1fcb	0.8012664
25	0x3f48eb1b	0.7848374
26	0x3fa3d126	1.2798202
27	0x3f051aa2	0.51993763

weight f4 [1, 7]
0	0xc0527be2	-3.2888112
1	0xc05338c6	-3.3003402
2	0x4045753c	3.0852804
3	0x405a7b82	3.4137883
4	0xc05d68bc	-3.4595175
5	0x4054c847	3.324724
6	0xc05c8fbb	-3.4462726
