Output_Opt/adam_fixlr_model_pretrain.pt (torch, 4707 bytes, 5 tensors)

weight_ih_l0 f4 [28, 9]
0	0x3e72e997	0.2372192
1	0xbdc704a6	-0.097176835
2	0x3e830e17	0.25596687
3	0x3e979421	0.296052
4	0x3d9a5d4b	0.075373255
5	0xbed6dc00	-0.41964722
6	0x3e092de5	0.13396414
7	0x3c48cac8	0.012255378
8	0xbdb75115	-0.08951012
9	0xbcf79eef	-0.030227153
10	0x3e2a9b11	0.16660716
11	0x3f728f90	0.9475031
12	0x3eba6489	0.36404827
13	0x3f2bb112	0.6706706
14	0xbe351a12	-0.17685726
15	0xbd92342c	-0.07138857
16	0x3f1c80f7	0.61134285
17	0xbea19c00	-0.3156433
18	0x3ecda743	0.40166673
19	0x3e92fd61	0.28708938
20	0x3f269611	0.65072733
21	0x3f383fd8	0.7197242
22	0x3e9f7187	0.31141302
23	0xbe800067	-0.25000307
24	0xbd3184f2	-0.043339677
25	0x3ec345e5	0.38139263
26	0xbcd77400	-0.02630043
27	0x3f0526ff	0.5201263
28	0xbed1f101	-0.41004184
29	0x3d608e0d	0.05482297
30	0x3ea13689	0.3148692
31	0x3eefe763	0.46856222
32	0xbe05c450	-0.13063169
33	0x3c87ff19	0.016601132
34	0x3d443e7c	0.047911152
35	0xbdec4590	-0.115367055
36	0x3db2a6c4	0.08723214
37	0xba4013fe	-0.0007327198
38	0x3e3f6d34	0.18694001
39	0x3ed2d1aa	0.41175586
40	0x3ea8c9b2	0.3296638
41	0xbe0ba303	-0.13636403
42	0xbe0c0faa	-0.1367785
43	0x3d883a8d	0.06651793
44	0x3db15cd5	0.086602844
45	0x3e870e5e	0.2637815
46	0xbea1ea8c	-0.31624258
47	0x3c856dd3	0.01628772
48	0xbbb2d9ed	-0.0054581077
49	0xbd6b2ee2	-0.057417758
50	0x3b1177a0	0.0022196546
51	0x3e9eb535	0.30997625
52	0xbdc65ebf	-0.0968604
53	0x3e4defe3	0.20111041
54	0x3ef33a99	0.47505644
55	0x3ef87c96	0.48532552
56	0x3ea89f93	0.32934245
57	0x3ef4a05c	0.47778594
58	0x3f2ae617	0.6675734
59	0xbde0ee80	-0.1098299
60	0xbdd1117a	-0.102084115
61	0x3ddb18b3	0.106980704
62	0x3c87f9a4	0.01659853
63	0x3f0732f0	0.528121
64	0xbe1b8478	-0.15187252
65	0x3d896c4f	0.06710111
66	0x3dc1c48b	0.09461316
67	0x3d2825f3	0.041051816
68	0x3e5db4aa	0.21650949
69	0xbdfda5a7	-0.12385111
70	0x3b973cb2	0.0046153897
71	0x3e1ebffc	0.15502924
72	0xbdeeeddb	-0.11666461
73	0xbe81003b	-0.25195488
74	0xbd2ff90a	-0.04296211
75	0xbe4577ef	-0.19284032
76	0xbec6606f	-0.38745448
77	0xbde13260	-0.109959364
78	0xbea07b76	-0.31344193
79	0xbe7ad072	-0.24493578
80	0xbd64dc76	-0.05587431
81	0x3ea2e248	0.31813264
82	0xbe980058	-0.29687762
83	0x3e8fa09f	0.28052232
84	0x3e85c62f	0.26127765
85	0x3f479dc8	0.7797513
86	0x3e5bf8f1	0.21481682
87	0x3a39c2d3	0.0007086221
88	0xbdf56262	-0.11981656
89	0x3e448790	0.19192338
90	0x3d3745f3	0.044744443
91	0xbe5afe99	-0.21386184
92	0xb980d148	-0.0002456999
93	0xbe4966ad	-0.19668074
94	0x3e8ff538	0.28116775
95	0x3d310b54	0.043223694
96	0xbca2ce01	-0.019873621
97	0xbbec2ff0	-0.007207863
98	0x3e370101	0.17871477
99	0x3eb38f6e	0.35070366
100	0xbf21f805	-0.6326907
101	0x3d84bc3e	0.06481217
102	0x3dfaaf04	0.12240413
103	0x3e2d0457	0.16896187
104	0x3d6b9c4a	0.057522096
105	0xbb588535	-0.0033038382
106	0xbd134051	-0.03595001
107	0x3e41fa51	0.18943144
108	0xbe96b5ed	-0.29435673
109	0x3e174575	0.1477259
110	0x3e462eb4	0.19353753
111	0x3d8d72b8	0.069066465
112	0x3d6ee8f2	0.058327623
113	0x3e1b80b5	0.15185817
114	0x3cceed2c	0.025259577
115	0xbe664d84	-0.22490507
116	0xbe9e29c2	-0.30891234
117	0x3c27b631	0.010236309
118	0x3d1b3ac6	0.037897848
119	0x3e3399a9	0.17539085
120	0xbbae0813	-0.005311021
121	0x3f289239	0.6584812
122	0x3e79bd7c	0.24388689
123	0xbe4b27a5	-0.19839342
124	0x3d71cbc1	0.059032205
125	0x3e3730cd	0.1788971
126	0x3e61bfbe	0.220458
127	0xbdcdaded	-0.10042939
128	0xbe61941b	-0.22029154
129	0xbe966cf5	-0.29380003
130	0xbee044c5	-0.43802467
131	0x3dc37178	0.09543127
132	0xbbfb5ff6	-0.0076713515
133	0xbdf04ee7	-0.117337994
134	0xbc986b5c	-0.01860588
135	0xbe055226	-0.13019618
136	0x3dcde0c8	0.10052639
137	0xbf1569f4	-0.58364797
138	0xbe953e3e	-0.2914905
139	0x3e420d6e	0.18950436
140	0x3d7cfb1b	0.06176291
141	0xbe1f04a7	-0.15529118
142	0xbdf90950	-0.12159979
143	0x3dca1231	0.09866751
144	0xbece6132	-0.4030853
145	0xbdd71b71	-0.10503281
146	0x3e40e959	0.18839015
147	0x3da17902	0.078844085
148	0x3ea8da6a	0.32979137
149	0xbda6b592	-0.081401005
150	0x3d125172	0.035722204
151	0xbd03c666	-0.03217163
152	0x3d0c4830	0.03424853
153	0x3fb25fc5	1.3935477
154	0xbf2b8923	-0.6700613
155	0xbdacb377	-0.08432668
156	0xbe24d7c2	-0.1609793
157	0xbe2007ca	-0.15627971
158	0x3cc20ad2	0.0236868
159	0x3d3d8964	0.046273604
160	0xbc736c64	-0.014857385
161	0x3e2fb9cd	0.17160721
162	0xbf581d20	-0.8441944
163	0xbe810b37	-0.2520387
164	0xbe59dbca	-0.21275249
165	0xbe221cf7	-0.15831362
166	0xbf11ee59	-0.57004315
167	0xbde7a3a2	-0.11310507
168	0x3e4684be	0.19386575
169	0xbd47441e	-0.048648946
170	0x3dc3b97e	0.09556864
171	0x3e02df01	0.12780382
172	0x3e147ade	0.14499995
173	0x3f18e3c7	0.5972256
174	0x3f62ec5b	0.886419
175	0x3f24088d	0.6407555
176	0x3dcf7049	0.101288386
177	0xbe3fbf4a	-0.18725315
178	0x3dcc5dee	0.09978853
179	0xbed1577c	-0.40887058
180	0xbdd09ce8	-0.101861775
181	0x3f8ed2ac	1.1158042
182	0x3dcba9da	0.09944506
183	0x3e062223	0.1309896
184	0xbe136ec5	-0.14397724
185	0x3d734abf	0.059397455
186	0xbc88422e	-0.01663312
187	0xbccd7248	-0.025078908
188	0xbcc16e65	-0.02361221
189	0x3fae96a6	1.3639724
190	0xbf34a78e	-0.7056817
191	0xbe4047e6	-0.18777427
192	0xbdd93c88	-0.106072485
193	0x3f3cb6d7	0.7371649
194	0xbe3d5b71	-0.18491913
195	0x3da23c02	0.07921602
196	0x3e4ed15f	0.20197056
197	0x3d96c803	0.07362368
198	0x3f8f71a4	1.1206555
199	0xbefa5ea1	-0.4890032
200	0x3e46e341	0.19422628
201	0x3e807c67	0.2509491
202	0x3d3a247b	0.045444947
203	0x3d742093	0.059601378
204	0xbd92f45e	-0.071755156
205	0x3dcf7d15	0.101312794
206	0x3d575cf5	0.052578885
207	0x401f29de	2.4869304
208	0xbf51703e	-0.81811893
209	0x3e0c353c	0.13692182
210	0x3ec1d170	0.378551
211	0x3e883bcd	0.26608124
212	0xbe5a6f82	-0.213316
213	0xbd98b0f0	-0.07455623
214	0x3d564ab1	0.052317325
215	0xbdefd330	-0.11710203
216	0x3f2b5376	0.66924226
217	0xbf15b5c9	-0.5848051
218	0x3e3c4f1a	0.1838955
219	0x3eadecf7	0.33969852
220	0x3d2a5699	0.041586492
221	0xbe4c5dd9	-0.19957675
222	0x3e048ed3	0.12945108
223	0x3e744a8d	0.23856564
224	0xbc825338	-0.015908822
225	0x3f0c6819	0.5484634
226	0xbf50ce90	-0.8156519
227	0x3ecf2b8f	0.4046292
228	0x3edc3bd8	0.43014407
229	0x3ddad3a3	0.10684898
230	0xbd574f37	-0.05256578
231	0xbd9122f8	-0.07086748
232	0x3ec88d02	0.3917008
233	0x3e4e2142	0.20129874
234	0xbc3141ad	-0.010818881
235	0xbf12a3b1	-0.57281023
236	0x3d679153	0.056535076
237	0xbca4ae57	-0.020102663
238	0x3e8dffc1	0.27734187
239	0x3e07e179	0.13269605
240	0xbd680d79	-0.056653474
241	0x3d531d1f	0.051541444
242	0x3d23cb18	0.039988607
243	0x3e8f253c	0.27958095
244	0xbf462443	-0.7739908
245	0x3d9bdb9e	0.07610248
246	0x3eb53169	0.3538926
247	0x3f64b8f5	0.8934472
248	0xbed4a233	-0.41529998
249	0xbb2a20c2	-0.0025959467
250	0x3e1d4893	0.15359716
251	0x3c9a63c6	0.018846404

weight_hh_l0 f4 [28, 7]
0	0x3ea07d96	0.31345814
1	0x3f3c54ef	0.735671
2	0x3f9df519	1.2340423
3	0xbf2bbd7e	-0.6708602
4	0xbf2caff6	-0.67455995
5	0x3f990ec5	1.1957632
6	0xbf8e0c69	-1.1097537
7	0xbe08a540	-0.13344288
8	0xbed880a2	-0.4228564
9	0x3f244503	0.64167804
10	0xbe0b52b2	-0.13605765
11	0x3d089965	0.033349413
12	0x3eac3b28	0.33638883
13	0xbe426a65	-0.18985899
14	0x3f00a1fc	0.5024717
15	0x3f6253c4	0.88409066
16	0xbe43b105	-0.19110496
17	0xbf6023a9	-0.87554413
18	0x3eeb151d	0.45914546
19	0x3f76185d	0.96130925
20	0xbf2475ce	-0.64242256
21	0xbed0e92e	-0.40802902
22	0x3f272bbd	0.65301114
23	0xbf03fa42	-0.5155374
24	0x3e3ac060	0.18237448
25	0x3ee20443	0.44143876
26	0x3e0478f6	0.12936768
27	0xbec96238	-0.39332747
28	0x3edafc5f	0.4277067
29	0x3f831214	1.0239892
30	0xbf29f59d	-0.663904
31	0xbef0dee2	-0.47045046
32	0x3e5621d7	0.20911346
33	0x3e3af65d	0.18258043
34	0xbec76aa1	-0.3894854
35	0x3f4c5c67	0.79828495
36	0x3e8db644	0.2767812
37	0xbf721aff	-0.9457244
38	0x3cdd5ef0	0.027022809
39	0x3eb9cbf2	0.3628841
40	0x3e8e8de4	0.2784263
41	0xbf56b5d6	-0.8387121
42	0x3e095684	0.1341191
43	0x3f646c9c	0.89228225
44	0xbde55e77	-0.11199658
45	0xbefe805f	-0.49707314
46	0xbdb3ea9a	-0.08784981
47	0x3de05df3	0.109554194
48	0x3f1fe048	0.624516
49	0x3e803ade	0.25044912
50	0xbe6cc0ea	-0.23120466
51	0x3e56c435	0.20973285
52	0xbdfe5a8f	-0.124196164
53	0xbf053089	-0.52027184
54	0xbd879517	-0.066202335
55	0x3e66418c	0.22485942
56	0xbf2c9d8e	-0.6742791
57	0xbf654e66	-0.8957275
58	0x3eedb482	0.4642678
59	0x3e8e9e74	0.27855265
60	0xbeec44e6	-0.46146315
61	0x3dc1d5a4	0.09464577
62	0xbef90514	-0.48636687
63	0xbf225ff9	-0.6342769
64	0x3d3e6c5b	0.046490055
65	0x3e1da4aa	0.15394846
66	0x3c7db812	0.01548578
67	0x3ef6f27f	0.48231885
68	0xbebc6aa6	-0.36800116
69	0x3f04fabf	0.5194511
70	0xbf795d57	-0.9740805
71	0xbdf2d36e	-0.11856733
72	0x3e4c22a1	0.19935085
73	0x3f60baed	0.87785226
74	0x3e2ee121	0.17078067
75	0xbef41c79	-0.47677973
76	0xbf896925	-1.0735213
77	0xbeab217e	-0.3342399
78	0xbdccc78a	-0.099989966
79	0x3e87b262	0.26503283
80	0x3eacade8	0.3372643
81	0xbd0c0a47	-0.03418949
82	0x3e63b86e	0.22238323
83	0xbd8e3dbd	-0.069453694
84	0xbf0c07eb	-0.5469958
85	0xbe98e067	-0.29858705
86	0x3eeaf7ce	0.45892185
87	0xbccb0d6b	-0.024786672
88	0xbe1cec77	-0.15324579
89	0xbeb988d0	-0.36237192
90	0xbe9efe6d	-0.31053486
91	0xbe736603	-0.23769383
92	0x3eab14f7	0.33414432
93	0x3eb4cf6b	0.35314497
94	0x3ea743d2	0.3266893
95	0xbe779a58	-0.24179971
96	0x3b52a4f8	0.0032141786
97	0xbeed829f	-0.46388718
98	0x3f09ddd4	0.5385411
99	0xbefc3d2f	-0.4926543
100	0xbf7f513a	-0.99733317
101	0xbd96c58a	-0.07361896
102	0x3f2818e4	0.6566298
103	0x3d9c1d3d	0.07622764
104	0xbf18d03d	-0.59692746
105	0x3f0785ee	0.52938735
106	0x3f21cda4	0.6320441
107	0xbe3fb4ea	-0.18721357
108	0x3e85e01f	0.26147553
109	0x3e7f88bc	0.24954504
110	0x3ebc0ecb	0.36730036
111	0x3ebd25a1	0.3694277
112	0xbe99060a	-0.2988742
113	0x3df5c5f1	0.12000645
114	0x3e92cf37	0.28673717
115	0xbee9a1cd	-0.45631257
116	0xbe8d81f7	-0.27638218
117	0x3f12bd70	0.5732031
118	0xbf152ce2	-0.5827161
119	0x3dbc7908	0.092027724
120	0x3ea2ab2b	0.31771216
121	0xbea021ab	-0.31275687
122	0xbf03e21d	-0.51516896
123	0xbee31f27	-0.44359705
124	0x3e2e2542	0.170064
125	0xbeef9738	-0.46795058
126	0xbe0bbdda	-0.13646641
127	0xbf1bb5b6	-0.60824144
128	0xbee30aab	-0.44344077
129	0x3e86620c	0.2624668
130	0x3e2bf51a	0.16792718
131	0xbe03e88e	-0.12881681
132	0xbee6259f	-0.44950578
133	0xbd9dbeb3	-0.077023886
134	0x3f06988d	0.52576524
135	0x3d854802	0.06507875
136	0xbf33128e	-0.6995019
137	0x3dddfef7	0.10839646
138	0xbe2c50d3	-0.16827707
139	0x3f35d868	0.71033335
140	0xbd865c45	-0.06560568
141	0xbfa1cb14	-1.26401
142	0xbc42f552	-0.011899309
143	0x3c533a72	0.012892352
144	0x3e9946d4	0.2993685
145	0xbef83104	-0.48474896
146	0xbe0fd45a	-0.1404585
147	0xbf85a17e	-1.0439909
148	0xbf5092b8	-0.81473875
149	0x3f5b5cb5	0.85688335
150	0x3f391c3e	0.7230872
151	0xbf1c4ea6	-0.6105751
152	0x3eea9459	0.45816305
153	0xbee796e8	-0.4523232
154	0xbf4a8177	-0.791038
155	0xbf58f100	-0.84742737
156	0x3f4a2fe9	0.78979355
157	0x3f4b078f	0.7930841
158	0xbf33bd81	-0.70211035
159	0x3e02f15d	0.12787385
160	0xbf95681f	-1.16724
161	0xbf44ffd7	-0.7695288
162	0xbe9a67c5	-0.30157295
163	0x3f215cfc	0.6303251
164	0x3f110a87	0.5665669
165	0xbf833108	-1.0249338
166	0x3f5d7bcd	0.8651703
167	0xbf759fc3	-0.959469
168	0xbf596ca8	-0.8493142
169	0xbf368911	-0.71302897
170	0x3f7288f1	0.94740206
171	0x3f2411c7	0.64089626
172	0xbf77854c	-0.9668777
173	0x3f195d45	0.59907943
174	0xbf6eef05	-0.93333465
175	0xbf03de59	-0.5151115
176	0xbf7dc6d3	-0.99131507
177	0x3f4a8fee	0.7912587
178	0x3ede8223	0.4345866
179	0xbf31e5e4	-0.6949141
180	0x3f25999e	0.64687526
181	0xbf32fb03	-0.69914263
182	0xbf82e95e	-1.0227468
183	0xbfa334f5	-1.2750536
184	0x3ec32ac5	0.38118568
185	0x3e90a4b1	0.2825065
186	0xbf9a7642	-1.206734
187	0x3f4c395d	0.7977503
188	0xbd8bf017	-0.06832903
189	0xbe5e1b0b	-0.21690004
190	0xbf449f1d	-0.7680529
191	0x3f2a07f9	0.66418415
192	0x3fa36b6b	1.2767156
193	0xbf605d9f	-0.87642854
194	0x3f4cb874	0.79968953
195	0xbf4d20bb	-0.8012807

bias_ih_l0 f4 [28]
0	0x3ec88b0d	0.39168587
1	0x3f765804	0.9622805
2	0x3ed889a1	0.42292503
3	0xbee7263f	-0.45146367
4	0xbdd505b4	-0.104014784
5	0xbe8dd939	-0.2770479
6	0x3ee5865c	0.4482907
7	0x3f4b4531	0.7940245
8	0x3f7ee677	0.9957041
9	0x3f2d290a	0.67640746
10	0x3e4075d4	0.18794948
11	0x3e8b6353	0.27224216
12	0x3f260ec6	0.6486629
13	0xba7d608d	-0.0009665571
14	0xbf513918	-0.81727743
15	0xbf846fd7	-1.0346631
16	0x3f1d7a2a	0.6151453
17	0x3cdd3d5c	0.027006797
18	0xbee5449d	-0.4477891
19	0x3ce8af72	0.028403971
20	0xbd830508	-0.06397444
21	0x3f3a9bdc	0.7289407
22	0x3f90433c	1.1270518
23	0x3f033cf6	0.51264894
24	0x3f3fb8af	0.7489118
25	0x3f8748a0	1.0569038
26	0x3f8efb80	1.1170502
27	0x3e8385cb	0.25688013

bias_hh_l0 f4 [28]
0	0x3f213372	0.62969124
1	0x3f511b0c	0.81681895
2	0x3ede9eca	0.4348052
3	0xbe138696	-0.14406809
4	0xbec87b76	-0.39156693
5	0xbe879a5e	-0.2648496
6	0x3d3fd8ff	0.046837803
7	0x3e33e848	0.17569077
8	0x3ecd846f	0.401401
9	0x3e73fa1c	0.23825878
10	0xbe8ec325	-0.27883258
11	0x3dcb1ac8	0.099172175
12	0x3f852d77	1.04045
13	0xbdef6e1e	-0.11690925
14	0xbf0bf782	-0.5467454
15	0xbf771f0d	-0.96531755
16	0x3f4b181e	0.79333675
17	0x3dc5a170	0.096499324
18	0xbe577567	-0.21040879
19	0x3e18f8da	0.1493868
20	0x3e89c9a6	0.26911658
21	0x3f87f6b2	1.062216
22	0x3f62b143	0.8855173
23	0x3f138c3c	0.57635856
24	0x3f376587	0.71639293
25	0x3f3d80a7	0.7402443
26	0x3f93ad6e	1.1537302
27	0x3f0839c7	0.5321316

weight f4 [1, 7]
0	0xc0515c63	-3.2712638
1	0xc052b395	-3.2922108
2	0x40440778	3.0629559
3	0x40584a8f	3.3795507
4	0xc06084e2	-3.5081105
5	0x4057bf03	3.3710334
6	0xc05b4954	-3.4263506
