Output_Opt/sgd_dynlr_model_pretrain.pt (torch, 4707 bytes, 5 tensors)

weight_ih_l0 f4 [28, 9]
00000000: 9673 49be b942 543f 4e1d 543e 60ad d73e
00000010: 801f 11bb f965 193e ee5f 8ebd 9a1f 9bbd
00000020: 9146 44bc 47df ba3f d7ff a73e e2a5 853f
00000030: b325 613f abb0 6d3f 085e a93e dac6 aabe
00000040: a0fb 0d3e 9257 5b3e ad02 0cbf b1e9 273e
00000050: 2925 713d 9744 9fbe 7c0c 7a3e 2013 853e
00000060: 5133 3bbe 9fcf e03d 6cbf 94bd 8d95 f5be
00000070: 0632 6ebd 4ba7 c73e c6d4 99bd e7bb cbbd
00000080: 31fc c23e b3df 8f3d c2a8 bb3e e854 d73d
00000090: 0586 09bf 632b cbbe a9e9 1ebe e145 833e
000000a0: 2f03 2cbe e4ad 17be 9445 3b3e 7717 18bd
000000b0: d9f3 92bd 5a0b 3a3e 305c e7bf f912 973e
000000c0: b01b 44be 6a2b 86be 6b03 b0bc 924a 043f
000000d0: 593a c1bd f419 613d c7d0 2d3f 43ce 813e
000000e0: d6f5 2c3f fb47 463e 430f b2bc 4a3e a1be
000000f0: 43fe 5dbe 569a 4e3e d4d0 14bd e210 d9be
00000100: 8b1d 293d a51b cfbc 5ee5 933e 3531 513e
00000110: 2d09 2bbd 30b0 41be 3c29 e53e fec8 aebe
00000120: 88f4 8a3d a72c 883e dcc4 343f 4628 9d3f
00000130: db27 a13f 3350 843e 6c33 82be de2d 35bd
00000140: c16d 23bc db9b 1fbf f37c 16be 5de7 b73e
00000150: 12ff 2a3e f8be fc3e de65 78bc c9fa ce3d
00000160: a02b 9cbe d129 763d 9a09 173f 12b7 2dbe
00000170: 3859 9abd bd7b 2bbd 04f8 92be 9d3a c7bd
00000180: 76a7 0a3d 6afa a3be 8bfa 0bbe e469 30bf
00000190: d851 7b3d 303b 6fbe ed72 22bf 0873 23bf
000001a0: ec8d 073e c081 ba3d 3980 de3d b814 853e
000001b0: af3d 223f 62be 07bf 9a9d 143f 10ac 333f
000001c0: ec9d 1c3f ee11 ce3c bdf4 4dbe 87c1 35be
000001d0: ce27 c8be c412 2a3f d431 83bd 486f f7bd
000001e0: 3bdf 0c3f 62be d6be c8bd c63e 9562 f73a
000001f0: 99fa d1bd 2c16 8abd 5b2a db3f 0351 8ec0
00000200: 0fb4 0e3e c24f 943e 7622 563f e07e aabe
00000210: 4d5d 12be d49b 083e 2d29 0f3e 4a5e 59bd
00000220: 07a1 cdbf 9f4d b9bf b3ff e6bf db9a d7bf
00000230: 8277 1bbd 925b 853f 61c4 53be f503 983e
00000240: 857a cbbf d504 543d 9442 d7bd 1ff7 1abf
00000250: 67fa 0ebf 9ec4 593e 5170 b3bd 0e6f acbc
00000260: 6dd5 273d 4a23 d5bd 038b 443e 783e 3ebf
00000270: f480 adbf 0cbd 4dbf 4444 c73d d249 5ebe
00000280: 3751 a7be 523d b53e 8469 cdbf 5b2f ba3c
00000290: 01a7 c7be ce7f 67bf 3e0a c7bf c337 0c3e
000002a0: 3f13 62be 6dd4 d9be da4c ea3c 7f5f 73bf
000002b0: 4752 b2be b9c7 85bf 6df8 8dbf f7e5 c7bf
000002c0: 3173 08be 4b7c a13e a37b 25be 20e3 283d
000002d0: 80cc 203f 21cc 803e 74b4 a3bf 718b 25bf
000002e0: fb71 9bbf 7126 243e d3b3 7e3e 3665 4e3d
000002f0: 6cb9 443f 0db2 d4be 8265 443f 988d 993e
00000300: 6898 873e c0d9 9e3e e900 f03c 4cd1 98bd
00000310: bc42 193e e262 ca3d 0198 863e 0563 b3be
00000320: a3ca b33e 347f a83e 4625 f33e 5770 84be
00000330: ff98 533d b3c8 ce3a 2f30 03be e343 d1be
00000340: 5e15 9ebf f5d8 a0be 9723 09be 55c3 fcbe
00000350: 12c8 cebc 945e d73c 693c 9fbd 563c c1bc
00000360: 2654 d53e e962 cebd d825 5ebe 8815 14bf
00000370: c764 25bf 42ff 553d 4bc6 b43d cc02 88bc
00000380: fa2d b93d 9c81 84bf e2ad 4bbf 99f3 3abc
00000390: 8596 153e 2424 9cbe c393 3d3d 5671 173d
000003a0: 1bd3 a2bc af45 abbc aac0 3e3d 9073 13bf
000003b0: 1a92 88bd 5d5a 0e3e 7ddd aa3e 9c58 f23b
000003c0: fad7 7cbd e5c8 563d 7bb9 d5bc 02e9 c13f
000003d0: b5db 1ebf 02f8 053d 210c ce3d 1def b2bd
000003e0: ec1c 393d 8646 8bbe 4caf 153d 99ef ee3d
-0.19672999 0.8291431 0.20714304 0.42124462 -0.002214402 0.14980306 -0.06951891 -0.07574387
-0.011979715 1.4599389 0.32812378 1.0441248 0.8794815 0.928477 0.33079553 -0.33354837
0.13865519 0.21420124 -0.5469158 0.1639774 0.05887333 -0.31107017 0.24418825 0.25991154
-0.18281294 0.109771006 -0.07263073 -0.4796566 -0.058153175 0.38994822 -0.075112864 -0.09947949
0.38083032 0.07025089 0.3665219 0.105142415 -0.5372012 -0.3968154 -0.15518822 0.2563925
-0.1679809 -0.14812428 0.1828826 -0.037131753 -0.071754165 0.18168393 -1.8075008 0.29506662
-0.19151187 -0.26204997 -0.021486005 0.51676285 -0.09434957 0.05495639 0.67896694 0.25352678
0.67562616 0.19363396 -0.021735793 -0.31492835 -0.21679024 0.20176062 -0.036331967 -0.42395693
0.04128794 -0.025281737 0.2888593 0.20428927 -0.041756798 -0.18914866 0.44758022 -0.3413772
0.06784922 0.26596567 0.70612884 1.2277915 1.2590288 0.25842437 -0.25429857 -0.044233195
-0.009974898 -0.6234719 -0.14696102 0.35918704 0.16698864 0.49364448 -0.015161006 0.10106427
-0.30502033 0.060098473 0.58999026 -0.16964367 -0.075365484 -0.041866053 -0.28704846 -0.097279765
0.03385111 -0.32026988 -0.13669793 -0.68911576 0.06135735 -0.23362422 -0.6345661 -0.638474
0.13237733 0.09106779 0.108643 0.2599237 0.6337537 -0.53024876 0.5805298 0.7018442
0.6117847 0.025155034 -0.20112891 -0.17749606 -0.3909287 0.66434884 -0.06405988 -0.12081772
0.5502812 -0.41942126 0.38816667 0.0018873984 -0.10252876 -0.0674251 1.7122301 -4.447389
0.13935874 0.289671 0.83646333 -0.33299923 -0.14293404 0.13340694 0.13980551 -0.053068437
-1.6064767 -1.4476813 -1.8046783 -1.6844133 -0.03795577 1.041857 -0.20680381 0.2969052
-1.5896765 0.05176242 -0.10510746 -0.60533327 -0.55850834 0.2126641 -0.08761657 -0.021049049
0.040975023 -0.104071215 0.19193654 -0.7431407 -1.3554978 -0.8036659 0.097298175 -0.21707848
-0.3267915 0.35398346 -1.6047826 0.022727659 -0.389946 -0.9042939 -1.5550001 0.13693146
-0.22077654 -0.4254488 0.028601099 -0.9506759 -0.34828398 -1.0451576 -1.1091439 -1.5617055
-0.13325192 0.3154014 -0.16160445 0.04123223 0.6281204 0.25155738 -1.2789445 -0.64665896
-1.2144159 0.16030289 0.24873285 0.05038949 0.7684543 -0.41542092 0.7671739 0.2999084
0.26483464 0.31025505 0.029297309 -0.07461795 0.14966863 0.09882142 0.26287845 -0.35036483
0.35115537 0.32909548 0.47489375 -0.25866958 0.05165958 0.0015776366 -0.1281135 -0.40872106
-1.2350271 -0.31415525 -0.13392483 -0.49367777 -0.025241885 0.026290216 -0.07775194 -0.02358834
0.41665763 -0.10077459 -0.21694124 -0.57845354 -0.646069 0.052245386 0.08826884 -0.016602896
0.090419725 -1.0352054 -0.795622 -0.011410617 0.146082 -0.30496323 0.046283495 0.03697332
-0.019876054 -0.020907251 0.046570458 -0.5759821 -0.06668492 0.13901658 0.33372107 0.007395817
-0.06172941 0.05243768 -0.02608942 1.5149233 -0.62053996 0.03270722 0.10060907 -0.087370135
0.045193598 -0.27202243 0.03654413 0.116667934

weight_hh_l0 f4 [28, 7]
00000000: 7814 953e 656d dcbd be8a 7a3e 81c0 9c3e
00000010: 20a2 dd3e 8b16 6a3e f20a 1e3f d119 39be
00000020: 00e0 99bd e82b 8b3f 04cb c23e cd01 16be
00000030: 73f9 f63e 7e80 523f 65b2 8a3e 900c 7bbe
00000040: dc0e 463d 4b07 76be 52d0 d7be 80f6 5dbf
00000050: dbb5 313e 2db7 453f fc1d b0be 3cf9 ebbe
00000060: 1985 5e3e a832 923e d531 82be 36b8 dc3e
00000070: 0938 ce3f 395f 733e bc51 54be 7eb1 2a3d
00000080: 6e29 953d fd25 8fbf ab48 653e 38d2 473f
00000090: 596c 033f 59c2 463f e28a f83e 4217 56bd
000000a0: a598 25be dd9f 953f c826 543e 67d8 8abd
000000b0: c51e 1dbf 18ff 2c3b fab2 5d3e f194 cabe
000000c0: 42ee 74be 1619 1d3f c918 0cbf 6cf5 1cbf
000000d0: 9851 46bd 144b 12bf 3a97 6c3d 9650 4cbf
000000e0: 47b4 c1bf e808 333f 2cab c93d d6ae f43e
000000f0: 77ac 97bb 0434 173f 5416 b7be 709e 08be
00000100: db03 9a3e a378 0fbf 21c6 e7bd 5784 8b3e
00000110: 0ec0 c6be af74 15bf 47cc 293f d3e5 0c3e
00000120: bf99 eabd 22d5 6b3e 7aaf 9fbe 4891 25bc
00000130: 135c 903e 9037 803f 90aa 753e 48ea 43be
00000140: 9fee c4bd c30c b4be d0fb a5be 0919 2f3e
00000150: 0e9f a5bf 2a08 87bd 7345 1fbe ecf4 b83e
00000160: 102b 9fbe 9664 8c3e f5aa 9ebe 65ea 97bd
00000170: 013e 9abe 2ea8 a6be c303 04be ff20 8a3e
00000180: 19cc 08be 5434 1b3e bf42 d2bf 4f1f 46be
00000190: 0b25 613e 1cf6 0c3f 72fe 08be 3627 debe
000001a0: cca4 a93f 398e af3f 5f29 453f 6e6f 17bf
000001b0: 77a6 0c3d 8eaa 17bf 650f acbe ad2d 1dbe
000001c0: cb26 863e 73e8 7c3e 15a9 813e 4877 5a3f
000001d0: 0166 7cbe ab1f 7b3e e2c6 403f c85d 8f3e
000001e0: fca7 773e 58be dc3e 505b 6abb fe9e 3f3e
000001f0: 50af 9a3e 300e fc3d f96e 4b3f 89fe 3f3f
00000200: 79dd 073f 07c5 9c3f 8a36 7b3f 7f9f 323f
00000210: 0adc 9e3f 971c b23f 4ecc 8b3f 1653 03bf
00000220: b9e8 5cbd d40f bf3e 298f 90bf 22a7 413e
00000230: 7cc6 063f 8716 eb3e 12c7 92be 3058 d13e
00000240: 5596 59bf 2b9f 36be 73c4 44be 00a0 4dbe
00000250: 8b7a cbbe 7c16 04bf 7994 98be 682b 39bf
00000260: 21c8 84bf b822 80be 116d 3f3e 8184 76bf
00000270: ac5a ca3c e47a d7be 6c00 59bf 8f32 e9be
00000280: 110f 7abf 1583 de3f 5ff7 5d3d b039 8abf
00000290: d89c c4be 6c23 163f b479 1bbf 3ab5 023f
000002a0: afb1 813f 333c 8cbe 95ec b8be be93 c5be
000002b0: 0efd 33be 6eec f3be 3aa5 a83e e8ca 173f
000002c0: 478e bbbc b330 16bf 3981 23bd b6f4 1c3f
000002d0: 98ff f0be 0943 813f 890e 073f 59a2 bbbe
000002e0: 7b42 1abf be80 d3be 4cb5 c4bf f5ce 3abf
000002f0: f2cf 18be 7152 313e 2fe6 1fbf d95c b1be
00000300: a8b7 51bd 0aea 3a3e f2c2 07bf 35b6 1abf
0.2911718 -0.10763053 0.24466988 0.3061562 0.43287754 0.22860162 0.6173545 -0.18076254
-0.07513428 1.0872774 0.38045514 -0.14649124 0.4823719 0.82227314 0.2708923 -0.24516511
0.048354015 -0.2402622 -0.42151123 -0.86704254 0.17354529 0.7723263 -0.34397876 -0.46088588
0.2173046 0.28554273 -0.25428644 0.43109292 1.611085 0.23766793 -0.20734304 0.041673176
0.07283293 -1.1183468 0.22391002 0.78055143 0.513372 0.776403 0.4854346 -0.052268274
-0.1617151 1.1689411 0.20717919 -0.06779557 -0.61375076 0.0026397165 0.21650305 -0.39566758
-0.23919013 0.61366403 -0.5472532 -0.61311984 -0.048417658 -0.5714581 0.05776141 -0.79810464
-1.5133141 0.69935465 0.098471016 0.4778964 -0.0046287137 0.59063745 -0.35759223 -0.13341689
0.30081066 -0.5604345 -0.11317087 0.27249405 -0.388184 -0.5838117 0.6632733 0.13759546
-0.11455106 0.23030522 -0.31188565 -0.0101054385 0.28195247 1.0016956 0.23990846 -0.1913234
-0.09615826 -0.35165986 -0.3241868 0.17099394 -1.2939165 -0.06593354 -0.15553837 0.3612436
-0.31087542 0.2742049 -0.30989805 -0.07417754 -0.3012543 -0.32550186 -0.1289206 0.269783
-0.13359107 0.1515668 -1.6426619 -0.19347881 0.21986787 0.55063033 -0.13378313 -0.4338929
1.3253417 1.3715278 0.7701625 -0.59154403 0.03433844 -0.5924462 -0.33605495 -0.15349455
0.26201472 0.24698047 0.25324312 0.8533826 -0.24648286 0.24523799 0.7530347 0.28001237
0.24185175 0.4311397 -0.0035759993 0.18712994 0.30211878 0.123073936 0.79466206 0.74997765
0.53072315 1.2247628 0.98130095 0.6977462 1.24109 1.3914975 1.0921724 -0.51298654
-0.05393288 0.37316763 -1.1293689 0.18911412 0.52646613 0.45915624 -0.28667504 0.40887594
-0.84995013 -0.17834155 -0.19215564 -0.20080566 -0.3974193 -0.5159681 -0.29800776 -0.7233186
-1.0373574 -0.25026488 0.1869395 -0.96295935 0.024701439 -0.42085946 -0.8476627 -0.45546386
-0.9767924 1.7383753 0.05419099 -1.0798855 -0.38400912 0.586478 -0.6073258 0.5105778
1.013235 -0.27389678 -0.36117998 -0.3858928 -0.17577001 -0.4764132 0.32938558 0.59293985
-0.022894992 -0.5866806 -0.03991816 0.613109 -0.47070003 1.0098583 0.52756554 -0.366473
-0.6025769 -0.4130916 -1.5367827 -0.7297204 -0.14923075 0.17316605 -0.6246061 -0.3464115
-0.05120054 0.18253341 -0.5303184 -0.60434276

bias_ih_l0 f4 [28]
00000000: 0f77 e8be 3fa7 dbbf c508 15be f81b 86be
00000010: f358 debe 4a4d bfbf 71fb 29bf 3d7e 1b3f
00000020: fabd 8d3f cfe7 dc3e ab0b 983e b0e1 af3f
00000030: 7e8b 6a3f 7a23 393f 724c 0fc0 cf4e e03d
00000040: 627c d4be c03c 4cbe 7554 c5be dc58 e63e
00000050: 64ca 91bf 3b52 653f 22cd 1f3f a4f5 a43b
00000060: c5ba 7cbe ec93 df3f 34ca 003f fdfd 0b3f
-0.45403334 -1.7160414 -0.14554127 -0.26193213 -0.43427238 -1.4945462 -0.66399294 0.607395
1.1073601 0.43145606 0.29696402 1.3740749 0.916191 0.7231976 -2.2390409 0.109525315
-0.41501147 -0.1994505 -0.38540998 0.4498967 -1.138989 0.895786 0.6242238 0.0050341655
-0.24680622 1.7467017 0.5030854 0.5468443

bias_hh_l0 f4 [28]
00000000: fb5f 0dbf d666 bfbf fdd4 cdbe 7b88 bcbd
00000010: 3bf4 a8be 1c2b 99bf eec0 07bf 2585 523f
00000020: a957 373f 4bf3 153f 28fd 223f ee23 a13f
00000030: df50 393f cb38 3d3f dbba 28c0 c57f 37be
00000040: f891 0abf 7833 e9be 21b7 1fbf 918b f23e
00000050: f40b d1bf 1149 4b3f 09ae b53e ec59 4abe
00000060: 3912 77bd eaf9 a73f f321 6f3e c470 863f
-0.5522458 -1.4953258 -0.4020156 -0.09205719 -0.32998833 -1.1966281 -0.5302876 0.8223441
0.71618134 0.5857436 0.63667536 1.258909 0.72389024 0.73914784 -2.6364048 -0.17919834
-0.5412898 -0.4554708 -0.6238881 0.47372106 -1.6331773 0.79408365 0.3548434 -0.19760865
-0.060320113 1.3123143 0.23352794 1.0503163

weight f4 [1, 7]
00000000: e6aa 7040 9694 88c0 edc4 2cc0 a9f4 c2bf
00000010: 351a 3bc0 440b 6dc0 98b0 15c0
3.7604308 -4.268138 -2.6995194 -1.5230914 -2.9234746 -3.7038126 -2.3389034
