Output_Opt/sgd_fixlr_model_pretrain.pt (torch, 4707 bytes, 5 tensors)

weight_ih_l0 f4 [28, 9]
0	0xbc649d78	-0.013953559
1	0x3decf520	0.115701914
2	0x3ea6669b	0.32500157
3	0x3eb5663d	0.35429564
4	0xbb00a958	-0.0019632187
5	0xbd0bc1e8	-0.03412047
6	0xbd986ce4	-0.07442644
7	0x3d30122d	0.042986084
8	0x3c83c17f	0.016083477
9	0xbcb93be7	-0.022611571
10	0x3eb44ded	0.35215703
11	0xbcd70e1c	-0.026251845
12	0x3d169e5e	0.036772124
13	0xbeac267e	-0.33623117
14	0xbd3002a7	-0.04297128
15	0xbe08f80e	-0.13375875
16	0xbe09bc8e	-0.13450834
17	0x3eb8d72f	0.36101672
18	0xbd3c4252	-0.045961685
19	0x3efa9892	0.48944527
20	0x3e1fe568	0.15614855
21	0xbdd26f9a	-0.102751926
22	0xbe4de58a	-0.20107093
23	0xbe0e76e0	-0.13912535
24	0x3cbecdf0	0.023291558
25	0x3db99017	0.09060686
26	0xbe78518d	-0.24249859
27	0xbe4b600a	-0.19860855
28	0x3eacf9b6	0.33784264
29	0x3ebac648	0.36479402
30	0x3df035dd	0.117290236
31	0x3e1d4240	0.15357304
32	0xbd94ac4b	-0.07259425
33	0x3d9f5d29	0.07781441
34	0x3dfea476	0.12433712
35	0x3d298b43	0.041392576
36	0xbee8a532	-0.45438534
37	0x3e02fc7d	0.12791629
38	0x3da80040	0.08203173
39	0x3e1a92cd	0.15095063
40	0xbcc0a822	-0.023517672
41	0xbe2f0ce2	-0.17094758
42	0xbe3559d7	-0.17710052
43	0x3d39ffd8	0.045410007
44	0xbcc52f1f	-0.02407032
45	0x3e60f598	0.21968687
46	0xbd9b890e	-0.075945005
47	0x3d7245b1	0.059148494
48	0x3e7b5007	0.24542247
49	0xbcc31093	-0.023811614
50	0x3e41be29	0.18920197
51	0xbe309eb0	-0.17248034
52	0x3eb3a5f0	0.35087538
53	0xbe8527ef	-0.2600703
54	0xbeba0c20	-0.36337376
55	0xbe1029ed	-0.14078493
56	0x3da1c080	0.078980446
57	0x3e94c5d0	0.2905717
58	0xbe1f84ed	-0.15578051
59	0xbd084edb	-0.033278327
60	0x3d95b77f	0.0731039
61	0xbda608b3	-0.08107128
62	0xbd1b8876	-0.037971936
63	0x3f13ebc0	0.577816
64	0xbdf61c1e	-0.12017082
65	0x3bd89a04	0.006610157
66	0x3ec5d95b	0.38642392
67	0xbb3f613d	-0.0029202246
68	0x3d5330ac	0.05156009
69	0x3cb16916	0.021656554
70	0xbe2a6fb5	-0.16644175
71	0xbd465cc9	-0.04842833
72	0xbe31f59b	-0.17378847
73	0xbe0a077d	-0.13479419
74	0x3e076d93	0.13225393
75	0x3e906161	0.28199294
76	0x3daef07d	0.08541963
77	0x3e1d5398	0.1536392
78	0x3ddf42fd	0.10901449
79	0x3edf2216	0.43580693
80	0xbe4f06f5	-0.20217498
81	0xbcd0d633	-0.025492763
82	0xbed64e09	-0.4185641
83	0xbc391ac1	-0.011297883
84	0x3ee96246	0.4558279
85	0x3eacd5f6	0.3375699
86	0xbd3ed6bb	-0.0465915
87	0xbc87e6b0	-0.016589493
88	0x3dac2612	0.08405699
89	0x3e687043	0.22699074
90	0x3ebe4603	0.3716279
91	0xbe8089cf	-0.2510514
92	0x3cae2aec	0.021260701
93	0x3e4cefac	0.20013303
94	0x3dfef176	0.12448399
95	0xbe6555c6	-0.22396001
96	0xbc167939	-0.009184175
97	0xbe08c8d0	-0.13357854
98	0x3e277f8c	0.16357249
99	0x3e0ec18a	0.13941017
100	0xbefea2ce	-0.49733585
101	0x3def8110	0.116945386
102	0xbe03f6a9	-0.12887062
103	0x3ea12b00	0.3147812
104	0x3deda22b	0.11603197
105	0x3da638a1	0.0811627
106	0x3cdffe8a	0.027343053
107	0x3da8d895	0.08244435
108	0xbe6af7b7	-0.22946058
109	0xbdfacce9	-0.12246115
110	0x3e101f6a	0.14074484
111	0x3d5542c4	0.052065626
112	0x3d95b3d2	0.07309689
113	0xbeafae35	-0.34312597
114	0xbe1e5102	-0.1546059
115	0xbe029e91	-0.12755801
116	0x3e9718c2	0.29511076
117	0x3e06e26b	0.13172309
118	0x3c66fc09	0.014098176
119	0x3ee5c84a	0.4487937
120	0x3e768ee7	0.2407795
121	0x3d2dc1ee	0.042421274
122	0x3e200a89	0.15629019
123	0xbd0f0cc3	-0.03492428
124	0xbe756aee	-0.23966572
125	0x3e74f66f	0.23922132
126	0xbe28dab0	-0.16489673
127	0xbe07563f	-0.13216494
128	0xbf0d312b	-0.5515315
129	0xbf3cbaeb	-0.73722714
130	0xbf03d371	-0.5149451
131	0x3d84eee3	0.064908765
132	0x3e0e4193	0.13892202
133	0xbe7b20ac	-0.24524182
134	0x3d521877	0.051292863
135	0x3eeb4f51	0.4595895
136	0xbfb86844	-1.4406819
137	0x3bca2bfb	0.0061697937
138	0x3e4166d4	0.18886882
139	0x3e0c0e09	0.13677229
140	0xbdcbacb6	-0.09945051
141	0x3dcdde58	0.10052174
142	0x3dfd8dcd	0.12380562
143	0x3d8c3dfa	0.068477586
144	0xbecf86a6	-0.40532416
145	0x3f6e48ac	0.9307964
146	0xbe237ff4	-0.15966779
147	0xbe81a58c	-0.25321615
148	0xbede85a5	-0.43461338
149	0xbd27dbb3	-0.040981006
150	0x3e2fe7de	0.17178294
151	0x3c501ad3	0.012701708
152	0xbe0918d5	-0.13388379
153	0xbe9eca9e	-0.3101396
154	0xbc5cbd42	-0.013472857
155	0x3e8ce884	0.27521145
156	0x3e7b9f4a	0.24572483
157	0x3e6dbd5b	0.23216765
158	0x3d6c194e	0.05764132
159	0xbcd40c22	-0.025884692
160	0xbd13c66e	-0.03607791
161	0x3df0d5e0	0.117595434
162	0xbf31a69a	-0.6939484
163	0xbe398fb6	-0.18121228
164	0xbcd758bb	-0.026287427
165	0x3c966c83	0.01836229
166	0xbdd0ca3a	-0.10194822
167	0xbce9c745	-0.028537402
168	0x3c3a370e	0.011365665
169	0xbc157523	-0.009122166
170	0x3e874d14	0.26425993
171	0x3eb964b1	0.36209634
172	0xbfce7962	-1.6130793
173	0xbddce3ca	-0.10785635
174	0xbe64e303	-0.22352223
175	0xbec66b63	-0.38753805
176	0xbd2e008d	-0.042480994
177	0x3e3163db	0.17323248
178	0x3db0ad61	0.086268194
179	0x3e5351db	0.20636694
180	0xbf418966	-0.7560028
181	0xbe288070	-0.16455245
182	0xbeca33fa	-0.3949278
183	0xbf29e3ad	-0.6636303
184	0xbf447c49	-0.76752144
185	0x3c5291b9	0.012852126
186	0x3e2a5d22	0.1663709
187	0xbdbfe2b4	-0.09369412
188	0x3e02ece4	0.12785679
189	0x3f5041a0	0.81350136
190	0xbebab7f6	-0.36468476
191	0x3e17dbde	0.14829966
192	0x3cae3c80	0.021269083
193	0x3e364b42	0.17802146
194	0xbc2533b8	-0.0100831315
195	0xbd5908a7	-0.052986767
196	0x3d54e84d	0.05197935
197	0x3e12ebf8	0.14347827
198	0x3e6df70c	0.23238772
199	0xbe2cc767	-0.16872941
200	0x3f03ebf6	0.5153192
201	0x3e7c27b6	0.24624524
202	0x3f37963e	0.71713626
203	0xbe2421e8	-0.16028559
204	0xbc70e2c2	-0.014702501
205	0x3e2c7b02	0.16843799
206	0x3d1234fe	0.03569507
207	0xbe04799e	-0.12937018
208	0xbe586b59	-0.211347
209	0x3e37a7c3	0.1793509
210	0x3ee20575	0.44144788
211	0x3ee8cf58	0.4547069
212	0xbc0cbe07	-0.008590228
213	0xbe8da3e7	-0.2766411
214	0x3e6e6020	0.23278856
215	0xbe4fb306	-0.20283136
216	0x3f033148	0.5124707
217	0xbf05b5eb	-0.5223071
218	0x3e75f509	0.24019255
219	0x3ef7e74d	0.48418656
220	0x3ddd4207	0.10803609
221	0xbd9aa384	-0.075507194
222	0xbe098e29	-0.13433136
223	0x3e125562	0.14290383
224	0xbcf2fcfa	-0.029661644
225	0x3e919139	0.2843111
226	0xbf7f28b3	-0.9967148
227	0xbe584300	-0.21119308
228	0xbe5fcb3f	-0.21854876
229	0xbea05006	-0.31311053
230	0x3d2bffa4	0.041991845
231	0x3d063099	0.03276119
232	0xbd213af9	-0.03936288
233	0xbe453d6d	-0.19261713
234	0xbeac6723	-0.33672437
235	0xbf0d6575	-0.55232936
236	0xbd66d768	-0.05635777
237	0xbd15de2e	-0.03658884
238	0x3d9cd704	0.076581985
239	0x3d763f20	0.060118794
240	0xbd84d8df	-0.064866774
241	0x3dac0ff2	0.08401479
242	0x3e03bd5c	0.12865204
243	0xbc8d817b	-0.017273655
244	0xbe9bd6e7	-0.30437395
245	0xbd89f4bd	-0.06736133
246	0xbdd3f5cc	-0.103496164
247	0xbdc5a659	-0.09650869
248	0xbd96fcbe	-0.073724255
249	0x3d940c51	0.07228912
250	0x3db9f23b	0.09079405
251	0xbd8fa607	-0.07014089

weight_hh_l0 f4 [28, 7]
0	0x3e384eb8	0.17998779
1	0xbd32fc64	-0.04369773
2	0xbed2f7df	-0.41204736
3	0xbf6837b4	-0.90709996
4	0x3f199d9c	0.6000612
5	0xbd7996a1	-0.060934667
6	0x3e8dc045	0.27685753
7	0xbeabfd63	-0.33591756
8	0x3df14485	0.11780647
9	0xbe7b35c0	-0.24532223
10	0x3e15f27c	0.14643282
11	0x3df83723	0.121198915
12	0xbd4ee686	-0.050512813
13	0x3e766ffa	0.24066153
14	0x3ddb9649	0.10722024
15	0xbe00a630	-0.12563396
16	0x3e5ba811	0.21450831
17	0x3e05d23e	0.13068482
18	0x3e9762b5	0.29567495
19	0xbe2bc766	-0.16775283
20	0x3e3f5dc8	0.18688118
21	0xbeee4b92	-0.4654203
22	0xbb0d2bd5	-0.0021541019
23	0x3e209d67	0.15685044
24	0x3dd03ad0	0.101674676
25	0xbe55ad3e	-0.20866868
26	0x3e9ef8aa	0.3104909
27	0x3de939a1	0.11387945
28	0xbdcab9cb	-0.098987184
29	0xbe01b59f	-0.12666939
30	0xbef44802	-0.47711188
31	0x3e0207ae	0.12698242
32	0xbe606227	-0.21912442
33	0x3ea45019	0.3209236
34	0xbe99f3a2	-0.3006869
35	0xbe706883	-0.23477368
36	0x3e2b9a8f	0.16758178
37	0x3e41cab6	0.18924984
38	0xbeae6e4c	-0.34068525
39	0xbe713e8f	-0.2355902
40	0x3e973f13	0.2954031
41	0xbe9386b6	-0.28813714
42	0x3edd3595	0.43204942
43	0xbb45c8f6	-0.0030179597
44	0xbf54648c	-0.8296592
45	0xbf782c39	-0.9694248
46	0x3ed7169e	0.42009443
47	0xbe79de2d	-0.2440116
48	0x3e52ec99	0.20598067
49	0xbccc7a6a	-0.024960715
50	0xbd8329b6	-0.0640444
51	0x3eddea00	0.4334259
52	0x3f06bebd	0.52634794
53	0x3ea48299	0.32130888
54	0x3ebf50e0	0.3736639
55	0x3ee57ce9	0.4482186
56	0xbeb50e03	-0.35362253
57	0x3cf4112e	0.029793348
58	0x3d17126c	0.036882803
59	0x3e7f485e	0.2492995
60	0x3e32f6d8	0.17476976
61	0x3e2717a5	0.16317613
62	0xbe800bd6	-0.2500903
63	0x3e687a5b	0.22702925
64	0x3e397ec3	0.18114762
65	0xbe8e97b5	-0.27850118
66	0x3e16a2e1	0.14710571
67	0x3e52b7f4	0.20577985
68	0x3e19aa2e	0.15006325
69	0xbde84a44	-0.1134229
70	0x3c615832	0.013753938
71	0xbe874848	-0.26422334
72	0xbe597ac0	-0.21238232
73	0x3e9fa094	0.311772
74	0xbe3878b4	-0.18014795
75	0xbe24d4cf	-0.16096805
76	0xbe689e73	-0.22716694
77	0xbe07a773	-0.1324747
78	0x3ee18f93	0.4405485
79	0xbe810637	-0.25200054
80	0xbe352e29	-0.1769339
81	0xbeaa8e77	-0.33311817
82	0xbeb23238	-0.3480394
83	0xbef483a2	-0.47756678
84	0xbef60052	-0.4804712
85	0x3e3d1373	0.1846445
86	0xbd8c1656	-0.06840198
87	0xbe8c6a33	-0.27424774
88	0x3c55bca3	0.013045463
89	0x3d898cb9	0.06716294
90	0xbe834e2c	-0.25645578
91	0xbda3c821	-0.07997156
92	0x3e0eb81b	0.13937418
93	0x3edb119e	0.42786878
94	0x3de5fa48	0.11229378
95	0xbea4e894	-0.32208693
96	0x3e49485a	0.19656506
97	0x3d43aa8f	0.04777008
98	0x3ec4f53c	0.3846835
99	0x3e270bc2	0.16313079
100	0xbeebb0b0	-0.4603324
101	0x3e89aa7b	0.2688788
102	0xbed3fb0b	-0.41402468
103	0x3f07a4aa	0.5298563
104	0xbeb444a0	-0.35208607
105	0x3e1700ab	0.14746349
106	0x3cbc47e5	0.0229835
107	0x3dcf492a	0.10121377
108	0xbed567cd	-0.41680756
109	0x3e24a642	0.16079047
110	0x3ed7c1f4	0.42140162
111	0xbebe8936	-0.3721406
112	0x3ec8bb28	0.3920529
113	0xbec2b6e0	-0.38030148
114	0x3dc928c1	0.09822226
115	0x3eae425d	0.34035006
116	0xbf01806e	-0.50586593
117	0x3e7b01a4	0.24512345
118	0x3dde5610	0.10856259
119	0xbed39d0c	-0.41330755
120	0x3df303d3	0.11865964
121	0xbbc5c7eb	-0.006035795
122	0x3ef9e517	0.48807594
123	0x3e5aabc4	0.21354586
124	0x3e7f3161	0.2492118
125	0xbe877e11	-0.2646337
126	0x3e6085c6	0.2192603
127	0xbeb5f7a3	-0.35540494
128	0x3eb6d1cd	0.3570694
129	0xbf031f5e	-0.5121974
130	0xbe338152	-0.175298
131	0x3d5f8e45	0.05457904
132	0x3e01e697	0.1268562
133	0x3e9421b3	0.2893196
134	0xbd23cf52	-0.039992638
135	0x3d884169	0.06653101
136	0xbe351632	-0.17684248
137	0xbe89bdea	-0.26902705
138	0x3e3aec7d	0.18254276
139	0x3d9db19d	0.07699893
140	0x3ef02b74	0.46908152
141	0x3eb393a5	0.3507358
142	0xbe5aaf5a	-0.21355954
143	0xbe79d091	-0.24395968
144	0xbe931c29	-0.28732422
145	0x3ead7862	0.33880907
146	0x3edba63b	0.4290026
147	0xbf4117a0	-0.75426674
148	0x3d942a0a	0.07234581
149	0xbeeecfec	-0.46643007
150	0x3eeff68e	0.46867794
151	0xbdfbcb57	-0.12294643
152	0x3ee362b2	0.44411236
153	0xbf45c58e	-0.7725457
154	0xbedf5b19	-0.4362419
155	0x3e4b8291	0.19874026
156	0xbe37fff2	-0.17968729
157	0x3e994547	0.29935667
158	0xbd786726	-0.060645245
159	0x3d3cf8c4	0.04613568
160	0xbf535da1	-0.8256474
161	0xbdd787c1	-0.1052394
162	0x3e767f48	0.24071991
163	0x3ee0346f	0.43790004
164	0x3f091932	0.5355407
165	0xbe962a34	-0.29329073
166	0x3e4ff958	0.20309961
167	0xbeea1280	-0.4571724
168	0xbf00c8da	-0.50306475
169	0x3ef85b74	0.48507273
170	0xbe12cb2c	-0.14335316
171	0x3f21596c	0.6302707
172	0xbe8c7fcc	-0.2744125
173	0x3ec7df78	0.3903768
174	0xbe2b32d0	-0.16718602
175	0xbe44e3a0	-0.19227457
176	0x3f4c2094	0.7973721
177	0xbebb8d52	-0.36631256
178	0x3de3161d	0.11088202
179	0xbe451a73	-0.19248371
180	0xbde7b08f	-0.11312973
181	0xbed264df	-0.41092584
182	0xbf13651e	-0.5757617
183	0x3ed57b98	0.41695857
184	0xbec4e7f0	-0.38458204
185	0xbd70d324	-0.05879511
186	0x3d9838b8	0.07432693
187	0xbdccfeb3	-0.100095175
188	0xbf135494	-0.5755093
189	0xbf19103a	-0.59790385
190	0xbd9858c6	-0.07438807
191	0xbd57043f	-0.052494284
192	0x3eb0d1b5	0.34534994
193	0xbe0be38d	-0.13661022
194	0x3dd2a622	0.102855936
195	0xbdf1b830	-0.11802709

bias_ih_l0 f4 [28]
0	0xbeb107fc	-0.34576404
1	0xbe2d8407	-0.16944896
2	0x3db51e01	0.088436134
3	0x3e517d5a	0.20457974
4	0x3e23b11c	0.1598553
5	0x3e790e1a	0.24321786
6	0xbe1fd027	-0.15606748
7	0x3f8efde3	1.117123
8	0x3ef65902	0.48114783
9	0x3ee8130d	0.45327035
10	0x3f52fb9b	0.8241517
11	0x3e555e97	0.20836864
12	0x3d05e102	0.032685287
13	0x3fa5229a	1.2901185
14	0xbe2027d6	-0.15640196
15	0xbf431842	-0.7620889
16	0x3f7356d2	0.9505435
17	0x3f4b5841	0.7943154
18	0xbebdb1bf	-0.37049672
19	0xbd3b94d8	-0.045796245
20	0xbeac5edc	-0.33666122
21	0x3f1492d3	0.58036536
22	0x3da77b55	0.081778206
23	0x3ea856c2	0.3287869
24	0x3ee96320	0.4558344
25	0x3e83ad5a	0.25718194
26	0x3d574b73	0.05256219
27	0x3f9254fd	1.1432186

bias_hh_l0 f4 [28]
0	0xbda14b4f	-0.07875692
1	0xbda72e79	-0.08163161
2	0x3d966c0c	0.07344827
3	0x3de881d1	0.113528855
4	0xbe7369a8	-0.23770773
5	0x3e6248e7	0.22098123
6	0xbf216d03	-0.63056964
7	0x3ede9fe6	0.43481368
8	0x3e6b3ab9	0.2297162
9	0x3e0caa1c	0.13736767
10	0x3e3788e2	0.1792331
11	0x3e29f445	0.16597088
12	0xbe96e1f6	-0.2946927
13	0x3f60f2d2	0.87870514
14	0xbe56612b	-0.20935504
15	0xbf2c84a2	-0.6738988
16	0x3f35f25d	0.7107294
17	0x3f5ea020	0.8696308
18	0xbed93912	-0.42426354
19	0xbe497b1e	-0.19675872
20	0x3e79d1d2	0.24396446
21	0x3e8de90e	0.2771687
22	0x3dded5eb	0.10880645
23	0x3e946dd2	0.28990036
24	0x3f44a994	0.76821256
25	0x3e940a2e	0.28914016
26	0x3ed21313	0.41030177
27	0x3f9aac8c	1.2083907

weight f4 [1, 7]
0	0xc07aa40f	-3.9162633
1	0x401b2368	2.424036
2	0xc0221724	-2.5326624
3	0x4073986a	3.8061776
4	0xc05dff77	-3.4687173
5	0x3fedb6be	1.8571393
6	0xc07d335e	-3.9562602
