Output_Opt/sgd_dynlr_model_finetune.pt (torch, 4707 bytes, 5 tensors)

weight_ih_l0 f4 [28, 9]
0	0xbef2400a	-0.47314483
1	0x3f5b37fb	0.85632294
2	0x3e203b77	0.15647684
3	0x3ef827ca	0.48467857
4	0xbe0b7db3	-0.13622169
5	0xbdd6ec50	-0.10494292
6	0xbcc65977	-0.024212582
7	0xbe49ac35	-0.19694598
8	0x3c6a2030	0.014289901
9	0x3fd16ecd	1.6361939
10	0x3c45c52f	0.012070938
11	0x3f99d9d5	1.2019602
12	0x3f629257	0.88504547
13	0x3f8b2989	1.087205
14	0xbe2c3f04	-0.16820914
15	0xbe76e4ec	-0.24110764
16	0xbd68302f	-0.056686576
17	0x3ddaba21	0.106800325
18	0xbf006142	-0.50148404
19	0x3e16bba0	0.14720011
20	0x3dc138c9	0.09434659
21	0xbe2f14ba	-0.1709775
22	0x3ecb5e55	0.39720407
23	0x3ecac3f5	0.39602628
24	0xbe0a291e	-0.13492247
25	0x3e121ad2	0.14268044
26	0x3d494b38	0.049144
27	0xbf0fcdd4	-0.56173444
28	0xbd700868	-0.058601767
29	0x3ede661c	0.43437278
30	0xbd553b7c	-0.05205868
31	0xbdb541cb	-0.0885044
32	0x3eadcdb5	0.33946005
33	0x3dfcded9	0.12347192
34	0x3e6726db	0.22573416
35	0x3e0876ec	0.13326615
36	0xbee0c437	-0.438997
37	0xbf47b3f5	-0.7800897
38	0x3ddfcbd0	0.10927546
39	0x3e6d1d9e	0.2315583
40	0xbdc17aa1	-0.09447218
41	0xbd1fd4ce	-0.039021306
42	0x3e28fd46	0.16502866
43	0x3e0c54e8	0.13704264
44	0xbe145c91	-0.14488436
45	0x3f18ecc1	0.5973626
46	0xc00a4110	-2.160221
47	0x3ca70f21	0.020392956
48	0xbe34ec04	-0.17668158
49	0xbea9f4c9	-0.3319457
50	0xbc05d006	-0.008167272
51	0x3ec5a373	0.38601264
52	0xbd7fea05	-0.062479038
53	0x3d107339	0.035266135
54	0x3f4acdfd	0.79220563
55	0x3e82b222	0.2552653
56	0x3f4fd79b	0.8118836
57	0x3e853e2e	0.26024002
58	0x3dca948a	0.09891613
59	0xbeb8812d	-0.36036053
60	0xbc8b5df5	-0.017012576
61	0x3e91ce39	0.28477648
62	0xbc608352	-0.013703184
63	0xbf448520	-0.7676563
64	0x3e358ab2	0.1772869
65	0x3e85560a	0.26042205
66	0x3eb86ff5	0.36022916
67	0x3e2c12fc	0.16804117
68	0xbe7287c9	-0.2368461
69	0xbe5d48a8	-0.21609747
70	0x3ea35d57	0.3190715
71	0xbeae7c5e	-0.3407926
72	0xbd810bc6	-0.06301074
73	0x3eb21124	0.34778702
74	0x3f756328	0.95854425
75	0x3f8f7cea	1.1209996
76	0x3fab4768	1.3381166
77	0xbd493107	-0.04911902
78	0xbe7e6e1a	-0.24846688
79	0xbe4729cd	-0.1944954
80	0xbd0fb5ed	-0.035085607
81	0xbf1ba1b1	-0.60793597
82	0xbe99b705	-0.30022445
83	0x3e9437d9	0.28948858
84	0x3d4c7940	0.04992032
85	0x3ec2c0ae	0.38037628
86	0x3e6fbe0b	0.2341234
87	0x3e0d6d8d	0.13811322
88	0xbeb20a18	-0.34773326
89	0x3df7f328	0.12106925
90	0x3f0d244b	0.55133504
91	0xbe52b2ce	-0.20576021
92	0xbd0925cf	-0.033483323
93	0xbd9f7de4	-0.077876836
94	0xbe8ff988	-0.28120065
95	0xbdd9d13d	-0.10635612
96	0x3d59e437	0.05319616
97	0xbee06775	-0.4382893
98	0xbddbd058	-0.10733098
99	0xbf50a8d8	-0.81507635
100	0xbdca91cd	-0.098910905
101	0xbd85d139	-0.06534047
102	0xbf239d2a	-0.6391169
103	0xbf3180f0	-0.6933737
104	0x3e38358f	0.17989181
105	0x3cacb6e5	0.021083305
106	0x3e282963	0.16422038
107	0x3e6ebbb3	0.23313789
108	0x3f1b26fe	0.6060637
109	0xbe89df2b	-0.26928076
110	0x3f2a50a2	0.66529286
111	0x3f68c557	0.90926117
112	0x3f3076ba	0.6893116
113	0x3ee9face	0.4569916
114	0xbe4f58ca	-0.20248714
115	0x3d0200f6	0.031739198
116	0xbec0026b	-0.37501845
117	0x3f478714	0.7794049
118	0xbd9af9f8	-0.07567209
119	0xbd340236	-0.04394742
120	0x3f01e5ff	0.5074157
121	0xbeabeefa	-0.33580762
122	0x3ecfdbff	0.4059753
123	0xbe20788e	-0.15670988
124	0xbe0d8393	-0.13819723
125	0xbdb915e4	-0.090373784
126	0x40009da7	2.0096223
127	0xc08e0f3e	-4.4393606
128	0x3ea7d0fa	0.32776624
129	0x3e98f27b	0.29872498
130	0x3f84b08b	1.0366377
131	0xbe83795c	-0.25678527
132	0xbe85f5c4	-0.26164067
133	0x3f3a7453	0.72833747
134	0x3da0b2ae	0.078465804
135	0xbd8ba7ae	-0.06819092
136	0xbfc119be	-1.5085981
137	0xbfca36eb	-1.579801
138	0xbff0b109	-1.8804027
139	0xbfe7d5df	-1.8112143
140	0x3de4fd10	0.1118108
141	0x3f87c662	1.0607417
142	0xbd5dcb75	-0.05414911
143	0x3e9a1baf	0.30099246
144	0xbfb5251b	-1.4151949
145	0xbd28951a	-0.04115782
146	0xbe0fabc2	-0.14030364
147	0xbf0e212b	-0.5551936
148	0xbf1ac141	-0.6045113
149	0x3f01b234	0.5066254
150	0x3b7b41d5	0.00383388
151	0xbdd6c1dd	-0.10486195
152	0x3e1a03d6	0.15040526
153	0xbdf8cb09	-0.12148101
154	0x3db66d92	0.08907618
155	0xbf5b97b2	-0.85778344
156	0xbfaac400	-1.3341064
157	0xbf6a5774	-0.9153969
158	0x3e86a8c2	0.26300627
159	0xbd90aa7f	-0.070637695
160	0xbe5b2f22	-0.21404698
161	0x3eb4b404	0.3529359
162	0xbfe2dc04	-1.7723393
163	0xbe01815e	-0.12647006
164	0xbecf0add	-0.40437976
165	0xbf565af2	-0.8373252
166	0xbfd5453c	-1.6661754
167	0x3e734bda	0.23759404
168	0xbc24d0f6	-0.010059586
169	0xbeac9a59	-0.33711508
170	0x3d0329b9	0.03202221
171	0xbf8d67fd	-1.104736
172	0xbecf6fb6	-0.40514916
173	0xbf8cb59c	-1.0992923
174	0xbf961606	-1.1725471
175	0xbfdcd98b	-1.7253889
176	0x3e0027fe	0.12515256
177	0x3e26dfae	0.16296265
178	0xbe4b3a2c	-0.1984641
179	0x3c894fd8	0.016761705
180	0x3f08c815	0.534303
181	0x3e8ae8f4	0.27130854
182	0xbfa35f04	-1.2763371
183	0xbf10cb4c	-0.56560206
184	0xbfa2feb3	-1.2733978
185	0x3e828cc2	0.25498015
186	0x3e808c17	0.2510688
187	0x3e8f4c0b	0.27987704
188	0x3f49a36a	0.78764975
189	0xbf1d5d86	-0.6147083
190	0x3f26fe72	0.65232
191	0x3eb8625f	0.3601255
192	0x3e335a20	0.17514849
193	0x3e5a02d1	0.21290137
194	0xbd4b641a	-0.04965601
195	0xbda9b5c8	-0.08286625
196	0x3ddb9c81	0.1072321
197	0x3de7f468	0.11325914
198	0x3ea9c9d3	0.33161792
199	0xbebed168	-0.3726914
200	0x3e961f6f	0.29320857
201	0x3eab89f6	0.33503693
202	0x3efdc227	0.4956219
203	0xbe3f7ee7	-0.18700753
204	0x3da4a944	0.08040097
205	0x3d624701	0.055243496
206	0xbe4f7350	-0.20258832
207	0xbef26148	-0.47339845
208	0xbfbbb4bd	-1.4664532
209	0xbe9ac9ca	-0.30232078
210	0xbdde258a	-0.10847004
211	0xbec96780	-0.39336777
212	0xbb1f75b1	-0.0024331624
213	0x3e0e30e7	0.13885842
214	0xbdc6bfc6	-0.09704547
215	0xbc4e1b88	-0.012579806
216	0x3ec9bcc5	0.39401832
217	0xbea90934	-0.33014834
218	0xbe69313d	-0.22772689
219	0xbec44eb4	-0.38341296
220	0xbeeb0d78	-0.45908713
221	0x3c81020e	0.01574805
222	0x3c8d18b1	0.017223688
223	0x3d385f0d	0.045012522
224	0x3dbfee45	0.09371618
225	0xbf8226c5	-1.0168082
226	0xbf82df00	-1.0224304
227	0x3d6ac21b	0.05731402
228	0x3e1cde9d	0.15319295
229	0xbe7d30a2	-0.24725583
230	0xbb9760bc	-0.004619686
231	0x3bb7d9e5	0.005610692
232	0x3d87bc73	0.06627741
233	0xbbf3d5a1	-0.007441238
234	0x3d398fce	0.04530316
235	0xbf4a05a7	-0.78914875
236	0xbdd647da	-0.10462923
237	0xbd1847a2	-0.03717769
238	0x3de848b4	0.11341992
239	0x3ce267fe	0.027637478
240	0x3cf83af9	0.030301558
241	0x3d4a0f3e	0.049330942
242	0x3b7f4744	0.003895239
243	0x3fd13212	1.6343405
244	0xbf372e44	-0.7155497
245	0xbd8706cb	-0.065930925
246	0x3d066c30	0.03281802
247	0xbde9c9e8	-0.11415464
248	0x3e0695eb	0.13143127
249	0xbda0b5e7	-0.07847195
250	0xbcb7682a	-0.022388536
251	0x3dd64d42	0.104639545

weight_hh_l0 f4 [28, 7]
0	0x3ef5188f	0.478703
1	0x3d172074	0.036896184
2	0x3e815766	0.25261992
3	0x3eb9ea4c	0.36311567
4	0x3f06d801	0.52673346
5	0x3eb0cb90	0.34530306
6	0x3f462c8a	0.7741171
7	0xbdac90e5	-0.08426074
8	0x3e87ef35	0.26549688
9	0x3fa19902	1.2624819
10	0x3f0194f9	0.5061794
11	0x3de9c54c	0.114145845
12	0x3f3339a6	0.7000984
13	0x3f8ac415	1.084109
14	0x3e97a7ef	0.2962031
15	0xbe7a2f25	-0.24432047
16	0x3e03159e	0.12801215
17	0xbe6dfcc9	-0.23240961
18	0xbf11dccb	-0.5697753
19	0xbf632bb1	-0.8873854
20	0x3e6506d4	0.22365886
21	0x3f458fb8	0.7717242
22	0xbeb331b7	-0.34998867
23	0xbec5d2e0	-0.38637447
24	0x3e6705f5	0.22560866
25	0x3e88a66d	0.26689473
26	0xbe8fc028	-0.2807629
27	0x3ee9a1de	0.45631307
28	0x3fc9708e	1.5737474
29	0x3e865047	0.26233122
30	0xbe1da1f7	-0.15393816
31	0xbbb80b2e	-0.005616567
32	0x3cc12f61	0.023582162
33	0xbfa55ec6	-1.2919548
34	0x3e3ede6b	0.18639533
35	0x3ed2ede4	0.4119712
36	0x3e80634d	0.2507576
37	0x3f8cb6c5	1.0993277
38	0x3f19c8d9	0.60072094
39	0x3ee93804	0.4555055
40	0x3ce57f52	0.028014813
41	0x3f999c58	1.2000837
42	0x3e67703b	0.22601406
43	0xbd450c60	-0.048107505
44	0xbf09fb0c	-0.5389869
45	0xbc8c8992	-0.017155442
46	0x3e3cbace	0.18430635
47	0xbefced50	-0.49399805
48	0xbe3cc232	-0.18433455
49	0x3f3fb410	0.7488413
50	0xbee12229	-0.43971375
51	0xbf26e586	-0.65193975
52	0xbc8185dd	-0.015810901
53	0xbf2565b1	-0.64608294
54	0x3d2dc288	0.042421848
55	0xbf44a542	-0.76814663
56	0xbfe2eb2a	-1.7728016
57	0x3f6e4ff9	0.9309078
58	0x3e9133ab	0.28359732
59	0x3f1b32b4	0.6062424
60	0x3e394614	0.18093139
61	0x3f57cdf9	0.84298664
62	0xbe877ce2	-0.26462466
63	0xbe06691a	-0.1312603
64	0x3ea08c86	0.3135721
65	0xbefad2fc	-0.48989093
66	0xbd8b64c3	-0.06806328
67	0x3e722846	0.23648176
68	0xbe91fbcc	-0.28512418
69	0xbf1aba3d	-0.6044043
70	0x3f29681a	0.6617447
71	0x3e145030	0.14483714
72	0xbd81130a	-0.063024595
73	0x3e8745ff	0.2642059
74	0xbe9345d9	-0.28764227
75	0x3c5215f2	0.012822615
76	0x3e9b4e35	0.30333105
77	0x3f61bc83	0.8817827
78	0x3e9c430d	0.30519906
79	0xbe5f9ea1	-0.21837856
80	0xbe166c95	-0.14689858
81	0xbe77480b	-0.24148576
82	0xbeece192	-0.46265846
83	0x3da83362	0.082129255
84	0xbfd35346	-1.6509788
85	0xbe9f703d	-0.3114032
86	0x3cb09798	0.02155666
87	0x3ee3713e	0.44422334
88	0xbd58b5ce	-0.052907757
89	0x3ecc8e9b	0.3995255
90	0xbea532a6	-0.32265204
91	0xbcdc32bf	-0.026879666
92	0xbe64de3e	-0.22350404
93	0xbe858fb1	-0.2608619
94	0xbdaafb97	-0.08348768
95	0x3e948a07	0.29011557
96	0xbe54acc1	-0.20769025
97	0x3eab150b	0.33414492
98	0xc01e86f3	-2.4769866
99	0xbf1ace1f	-0.60470766
100	0x3ee68c44	0.4502889
101	0x3f24ddda	0.6440102
102	0x3d71e9ca	0.05906085
103	0xbe9b9e37	-0.30394146
104	0x3f80d925	1.0066267
105	0x3fa60965	1.2971617
106	0x3f3d803d	0.740238
107	0xbf0d7ce5	-0.552687
108	0x3d846670	0.06464851
109	0xbf075c87	-0.5287556
110	0xbed80d23	-0.42197523
111	0xbdcbefd6	-0.099578544
112	0x3ebd64d6	0.36990994
113	0x3e7dbc3e	0.2477884
114	0x3e2ae9c6	0.1669074
115	0x3f5e9578	0.8694682
116	0xbede600c	-0.43432653
117	0x3e735532	0.23762968
118	0x3f447480	0.76740265
119	0x3e8411e2	0.25794894
120	0x3e6b0dbf	0.22954462
121	0x3ebfd70b	0.37468752
122	0x3926a292	0.00015891556
123	0x3e51539f	0.20442055
124	0x3eb36ac0	0.3504238
125	0x3d9e2c23	0.07723262
126	0x3f3abb9b	0.72942513
127	0x3f40bd1a	0.75288546
128	0x3efa5409	0.4889224
129	0x3f99a783	1.2004246
130	0x3f77464a	0.9659163
131	0x3f3e5147	0.7434277
132	0x3f924892	1.1428397
133	0x3faec879	1.3654929
134	0x3f906537	1.1280888
135	0xbf3659e6	-0.71230924
136	0xbe2a2bfe	-0.16618344
137	0x3f07882b	0.5294215
138	0xbfa96a9c	-1.323566
139	0x3e54da57	0.20786415
140	0x3f09e155	0.53859454
141	0x3ede574a	0.4342597
142	0xbe86897f	-0.26276776
143	0x3ed90a17	0.4239051
144	0xbf511756	-0.8167623
145	0xbe2caa8c	-0.16861933
146	0xbe4d10d7	-0.20025955
147	0xbdcb2cf0	-0.099206805
148	0xbea0203e	-0.312746
149	0xbeed17d8	-0.46307254
150	0xbe8574da	-0.26065713
151	0xbf259773	-0.6468422
152	0xbf6c9131	-0.92409045
153	0xbe455d68	-0.19273913
154	0x3df2950d	0.118448354
155	0xbf7d61bd	-0.9897726
156	0x3ca25fdb	0.019821098
157	0xbee68642	-0.45024306
158	0xbf523b30	-0.8212156
159	0xbef04871	-0.46930268
160	0xbf83da72	-1.0301039
161	0x3fcdb53b	1.6070932
162	0x3d1e42f4	0.03863807
163	0xbf874328	-1.056737
164	0xbed0e8c3	-0.40802583
165	0x3f224a60	0.6339474
166	0xbf0d8f07	-0.5529637
167	0x3eea3e0e	0.4575047
168	0x3f86f13d	1.054237
169	0xbe878cd8	-0.26474643
170	0xbeb78ff9	-0.3585203
171	0xbedd6233	-0.43238983
172	0xbe374d2f	-0.17900537
173	0xbef6d2b0	-0.48207617
174	0x3e8ef09f	0.27917954
175	0x3f295166	0.6613983
176	0x3e0a70e0	0.13519621
177	0xbf1ab380	-0.60430145
178	0xbdab6666	-0.0836914
179	0x3f2f0077	0.68360084
180	0xbe89089b	-0.26764378
181	0x3f8e6eb2	1.1127532
182	0x3ede3694	0.43401015
183	0xbeb83231	-0.35975793
184	0xbf087236	-0.5329927
185	0xbebe3670	-0.37150908
186	0xbfc36138	-1.5264044
187	0xbf408556	-0.75203454
188	0xbe23aaeb	-0.15983169
189	0x3eb6067f	0.3555183
190	0xbedadb4e	-0.4274544
191	0xbea6e914	-0.325997
192	0xbd92e3a3	-0.071723245
193	0x3e577a07	0.21042643
194	0xbf05e639	-0.52304417
195	0xbed6074f	-0.4180245

bias_ih_l0 f4 [28]
0	0xbeeb5487	-0.45962927
1	0xbfe8d614	-1.8190331
2	0xbe006635	-0.12538989
3	0xbeb3cfbc	-0.35119426
4	0xbec675c0	-0.3876171
5	0xbfb86193	-1.4404777
6	0xbf33f1ff	-0.7029113
7	0x3f282dea	0.6569506
8	0x3f8a9f90	1.0829945
9	0x3f0dc79d	0.5538271
10	0x3ea65a03	0.32490548
11	0x3fab9c4d	1.3407074
12	0x3f7f4461	0.9971371
13	0x3f2fcb81	0.686699
14	0xbff59074	-1.9184709
15	0x3de8062d	0.11329303
16	0xbf14776a	-0.5799471
17	0xbe14fb83	-0.14549069
18	0xbe82a308	-0.25515008
19	0x3f0c81a3	0.5488531
20	0xbfa15743	-1.2604755
21	0x3f68ae61	0.9089108
22	0x3f3184b8	0.6934314
23	0x3e776f63	0.24163584
24	0xbdde775e	-0.10862611
25	0x3fd27416	1.6441677
26	0x3f12bb36	0.5731691
27	0x3ebd1233	0.36927947

bias_hh_l0 f4 [28]
0	0xbf0eceb7	-0.5578417
1	0xbfcc95ae	-1.5983179
2	0xbec383b3	-0.38186416
3	0xbe39abca	-0.18131939
4	0xbe911108	-0.28333306
5	0xbf923f65	-1.1425596
6	0xbf11b77c	-0.569206
7	0x3f5f34d2	0.8718997
8	0x3f311add	0.69181615
9	0x3f3546fc	0.7081144
10	0x3f2a2450	0.6646166
11	0x3f9cde8b	1.2255415
12	0x3f4e09c0	0.8048363
13	0x3f33e0d2	0.70264924
14	0xc01436a1	-2.3158343
15	0xbe33a414	-0.1754306
16	0xbf34cb31	-0.70622545
17	0xbecd92d8	-0.40151095
18	0xbefcbcd9	-0.4936283
19	0x3f129afe	0.5726775
20	0xbfe098d3	-1.7546638
21	0x3f4ea537	0.8072085
22	0x3ed91d39	0.42405108
23	0x3d1fb729	0.038993035
24	0x3d9f7517	0.07786005
25	0x3f9ada14	1.2097802
26	0x3e9b72f1	0.3036113
27	0x3f5f6c9f	0.8727512

weight f4 [1, 7]
0	0x40670238	3.6095104
1	0xc08678e6	-4.202258
2	0xc02fff88	-2.7499714
3	0xbfafdb4c	-1.3738799
4	0xc0349ead	-2.8221848
5	0xc0443708	-3.0658588
6	0xc01cd5a0	-2.4505386
