Output_Opt/sgd_fixlr_model_finetune.pt (torch, 4707 bytes, 5 tensors)

weight_ih_l0 f4 [28, 9]
0	0x3e54967c	0.2076053
1	0x3e8a20a5	0.2697803
2	0x3ee8c6e8	0.45464253
3	0x3f064956	0.5245565
4	0x3dd75d9d	0.10515902
5	0x3d060dcd	0.032728005
6	0xbb32840a	-0.0027239346
7	0x3c510a14	0.0127587505
8	0x3daafc1a	0.08348866
9	0xbd95c8f6	-0.07313721
10	0x3f03af5f	0.5143947
11	0x3c8aa142	0.016922597
12	0x3d93e5d9	0.07221574
13	0xbe99df73	-0.3005329
14	0xbe01147b	-0.12605469
15	0xbe336e18	-0.17522466
16	0xbe23026f	-0.15918897
17	0x3ec1ee19	0.37876967
18	0xbdace8d1	-0.08442844
19	0x3f17ef8e	0.59349906
20	0x3e09f3ab	0.13471858
21	0xbdea3469	-0.11435778
22	0xbe802d6f	-0.25034663
23	0xbdca1e19	-0.09869022
24	0xbd2a0e4e	-0.04151755
25	0x3dda47bf	0.10658216
26	0xbe6c9cd3	-0.23106699
27	0xbe1c8872	-0.15286425
28	0x3ec3a2b3	0.38210067
29	0x3eddcbc7	0.43319532
30	0x3e464040	0.19360447
31	0x3e8f0127	0.27930567
32	0xbe209ab3	-0.15684013
33	0x3bb0d9a4	0.0053970385
34	0x3e235683	0.1595097
35	0x3cdd3611	0.02700332
36	0xbf062794	-0.5240414
37	0x3dde7e81	0.108639725
38	0x3d86583b	0.065597974
39	0x3dc7d1c9	0.0975681
40	0xbd1c14da	-0.038105823
41	0xbe2ae9dc	-0.16690773
42	0xbe519261	-0.20465995
43	0xbc4216ef	-0.011846288
44	0xbdee0f8b	-0.11624058
45	0x3e889451	0.26675656
46	0xbd5075f6	-0.050893746
47	0x3d73370e	0.059378676
48	0x3e734cf7	0.23759829
49	0xbc8f0393	-0.017457759
50	0x3e17d1d8	0.14826143
51	0xbe4712c8	-0.19440758
52	0x3e986593	0.29764995
53	0xbe86d487	-0.2633402
54	0xbd0ef578	-0.034902066
55	0xbeb52748	-0.35381532
56	0x3e501395	0.2031997
57	0x3ea65fb9	0.32494906
58	0xbdd4fb6d	-0.10399518
59	0xbd1cf8e8	-0.038323313
60	0x3dbf5229	0.09341843
61	0x3dfd92f5	0.123815455
62	0xbd021289	-0.031755958
63	0x3f18d047	0.59692806
64	0xbe4f6194	-0.20252067
65	0x3e1902ff	0.14942549
66	0x3ec8994d	0.3917946
67	0x3d29a0e4	0.041413203
68	0xbcdf2b14	-0.027242221
69	0x3afdbd71	0.0019358826
70	0xbe773934	-0.24142915
71	0xbcf7d79b	-0.030254176
72	0xbe745ddf	-0.23863934
73	0x3d27790b	0.04088692
74	0x3e806016	0.25073308
75	0x3ec386de	0.38188833
76	0x3e3e264a	0.18569294
77	0x3ccb674f	0.024829535
78	0x3d44167f	0.047873016
79	0x3ed7c205	0.42140213
80	0xbe4fd8c0	-0.20297527
81	0xbdca450d	-0.09876452
82	0xbea7ccfe	-0.32773584
83	0x3d5644a1	0.052311543
84	0x3eeef887	0.46673986
85	0x3ea9c2dc	0.33156478
86	0xbd97246d	-0.073799945
87	0xbe089970	-0.13339782
88	0x3d4be29e	0.049776666
89	0x3e6306a9	0.2217051
90	0x3ea2eacc	0.3181976
91	0xbe0c2b13	-0.13688307
92	0x3d404259	0.046938274
93	0x3e873fd5	0.26415887
94	0x3e61e082	0.22058299
95	0xbe38c175	-0.18042548
96	0xbd195e72	-0.037443586
97	0xbdaed9c9	-0.08537633
98	0x3e173aca	0.1476852
99	0x3d73927c	0.05946587
100	0xbefc2480	-0.49246597
101	0x3da2c774	0.07948199
102	0xbe228f36	-0.15874943
103	0x3e94896c	0.29011095
104	0x3e032cb2	0.12810019
105	0x3de4d7fc	0.11174008
106	0xbd79beac	-0.060972854
107	0x3dac5563	0.08414724
108	0xbe5e674c	-0.21719092
109	0xbd70b326	-0.0587646
110	0x3d875959	0.066088386
111	0x3bf09133	0.007341528
112	0x3cd379e3	0.025814956
113	0xbebf96b4	-0.37419665
114	0xbdcdb815	-0.100448765
115	0xbe6fbdce	-0.23412248
116	0x3ea05a59	0.3131893
117	0x3e032078	0.12805355
118	0x3d96f092	0.07370104
119	0x3f103078	0.5632396
120	0x3e5847ee	0.21121189
121	0xbbf48500	-0.007462144
122	0x3ecbe1e6	0.39820784
123	0xbdf7abf5	-0.12093345
124	0xbdd64012	-0.10461439
125	0x3e7570e1	0.23968841
126	0xbe7af217	-0.24506412
127	0xbdef9d3a	-0.116999105
128	0xbf2dc876	-0.67884004
129	0xbf450b96	-0.76970804
130	0xbf3e9c12	-0.74456894
131	0x3e37b695	0.17940743
132	0x3e6dcbe0	0.23222303
133	0xbde746b5	-0.11292783
134	0x3da9f6e5	0.082990445
135	0x3f292c94	0.66083646
136	0xbfd4e6f3	-1.663298
137	0x3cb87844	0.022518285
138	0xbc87dbeb	-0.016584357
139	0x3de23e0e	0.11046992
140	0x3d6e02fc	0.058108315
141	0x3daf7205	0.085666694
142	0x3e8d934f	0.2765145
143	0x3db031f7	0.0860328
144	0xbf05de40	-0.5229225
145	0x3f825a84	1.0183873
146	0xbeb3f90b	-0.35150942
147	0xbe415228	-0.18878996
148	0xbf05c32e	-0.52250946
149	0x3c473945	0.01215965
150	0x3e7e81dc	0.24854225
151	0x3cf95719	0.03043704
152	0xbe056a4e	-0.13028833
153	0xbe551cc9	-0.20811762
154	0x3d281345	0.041034
155	0x3e58dfbd	0.211791
156	0x3e88f3b0	0.2674842
157	0x3ea9279f	0.3303804
158	0x3e674b69	0.2258736
159	0xbc62579e	-0.013814835
160	0xbd217566	-0.0394186
161	0x3de8992a	0.11357339
162	0xbf48b714	-0.78404355
163	0xbd9770ec	-0.07394585
164	0x3c1562be	0.00911778
165	0xbd62e2a2	-0.055391915
166	0xbe6d0922	-0.23148015
167	0xbc1a01d7	-0.009399853
168	0x3cd6e4fd	0.026232237
169	0xbd0fa56d	-0.03506987
170	0x3e543d84	0.20726591
171	0x3eec8daa	0.4620183
172	0xbff33d83	-1.9003147
173	0xbe17008c	-0.14746302
174	0xbe8ac04d	-0.2709984
175	0xbecb6064	-0.39721978
176	0x3dca6a77	0.09883588
177	0x3e2807b8	0.16409194
178	0x3df36657	0.11884754
179	0x3e299107	0.1655923
180	0xbf536331	-0.8257323
181	0xbe3edaac	-0.18638104
182	0xbf07b0c4	-0.530041
183	0xbf24cab8	-0.64371824
184	0xbf765e39	-0.9623752
185	0x3dd5d865	0.104416646
186	0x3e13bc6c	0.14427346
187	0xbda230de	-0.07919477
188	0x3e03469f	0.12819909
189	0x3f46d747	0.7767224
190	0xbec957d4	-0.3932482
191	0x3e4338bc	0.19064611
192	0x3d42d9b5	0.047570903
193	0x3dee1a66	0.11626129
194	0xbcd0f10b	-0.025505563
195	0xbc988f18	-0.01862292
196	0x3da6fdfa	0.08153911
197	0x3e140936	0.14456639
198	0x3e649bf1	0.22325112
199	0xbdf8bc65	-0.121453084
200	0x3ef762e9	0.4831765
201	0x3e967f33	0.2939392
202	0x3f3e7800	0.74401855
203	0xbe00626b	-0.12537543
204	0xbc0fa419	-0.008767151
205	0x3e1d0c6c	0.1533677
206	0x3d83f027	0.0644229
207	0xbe026b10	-0.12736154
208	0xbe4e1a7b	-0.20127289
209	0x3e86553e	0.2623691
210	0x3eec92b4	0.46205676
211	0x3efef12c	0.49793375
212	0xbd01ae2d	-0.031660248
213	0xbeb01b4b	-0.34395823
214	0x3e23f1df	0.16010235
215	0xbe2f14ef	-0.1709783
216	0x3ef636c5	0.4808866
217	0xbf19d6a0	-0.60093117
218	0x3e8c3d52	0.27390534
219	0x3efc8d33	0.49326476
220	0x3e0b1c0a	0.13584915
221	0xbdf8fcb7	-0.121575765
222	0xbe0a4c3c	-0.13505644
223	0x3e1e6701	0.1546898
224	0xbbab862e	-0.0052345013
225	0x3e903546	0.28165644
226	0xbfa947d5	-1.3225046
227	0xbe953a04	-0.29145825
228	0xbe5fa94f	-0.2184193
229	0xbeee2214	-0.46510375
230	0x3d85d6d2	0.06535114
231	0x3d12786a	0.035759367
232	0xbdf4005d	-0.11914132
233	0xbe5c38a4	-0.21505982
234	0xbe960be5	-0.2930595
235	0xbeebde46	-0.4606802
236	0xbcdce29f	-0.02696353
237	0xbd0217ce	-0.031760983
238	0x3dae7fa3	0.085204385
239	0xbd1cfccc	-0.038327023
240	0xbc81e12e	-0.015854444
241	0x3c27c68a	0.0102402065
242	0x3dd1bbe6	0.10240917
243	0xbcfef2f1	-0.031121703
244	0xbeda8a88	-0.42683816
245	0xbe0c788e	-0.13717863
246	0xbd0197b3	-0.031638812
247	0xbdfad669	-0.12247927
248	0x3cf7cade	0.030248102
249	0x3ddef825	0.108871736
250	0x3d9b1254	0.07571855
251	0xbdcf2c77	-0.10115903

weight_hh_l0 f4 [28, 7]
0	0x3e1b81f7	0.15186296
1	0xbe19ddbc	-0.15025991
2	0xbedb1b69	-0.4279435
3	0xbf832382	-1.0245211
4	0x3f2ed398	0.68291616
5	0xbe6b6dd4	-0.22991115
6	0x3e56be0f	0.20970939
7	0xbe9adc58	-0.30246234
8	0x3e164f2e	0.14678642
9	0xbec1c774	-0.37847483
10	0x3cd515d8	0.026011392
11	0x3e574de8	0.21025813
12	0xbdcc6bac	-0.09981474
13	0x3e902820	0.28155613
14	0x3e5c1510	0.2149241
15	0xbe43aca4	-0.19108826
16	0x3e58c4a8	0.21168768
17	0x3d848a66	0.0647171
18	0x3ec12f7b	0.37731537
19	0xbe606eb3	-0.21917228
20	0x3e8ef16d	0.27918568
21	0xbefd0573	-0.4941822
22	0xbc566986	-0.013086682
23	0x3e27542a	0.163407
24	0x3da33bb2	0.0797037
25	0xbe4c332a	-0.19941393
26	0x3e997ab4	0.29976428
27	0x3db74586	0.089488074
28	0xbdc04fc5	-0.09390215
29	0xbe118d53	-0.14214067
30	0xbef1b9bd	-0.4721202
31	0x3e095602	0.13411716
32	0xbe374f41	-0.17901327
33	0x3e986127	0.2976162
34	0xbe8a31a2	-0.26990992
35	0xbe77b005	-0.2418824
36	0x3e3458a5	0.1761194
37	0x3e1dfb2b	0.15427844
38	0xbeb3b228	-0.3509686
39	0xbe79a12e	-0.24377891
40	0x3e97b9dd	0.2963399
41	0xbeb04e3b	-0.34434685
42	0x3efa8837	0.4893205
43	0xbda235f0	-0.07920444
44	0xbf7b485c	-0.98157287
45	0xbf9aab3b	-1.2083505
46	0x3f1435de	0.57894695
47	0xbeab239e	-0.3342561
48	0x3d719966	0.058984183
49	0x3dc54d3b	0.09633871
50	0xbe3013dc	-0.17195076
51	0x3f013737	0.50474876
52	0x3f00ca37	0.50308555
53	0x3ebe5b9a	0.3717926
54	0x3e951bc3	0.29122743
55	0x3f16e516	0.5894331
56	0xbec148bd	-0.37750807
57	0x3d6b7232	0.057481952
58	0xbcca925c	-0.024727993
59	0x3e81cd34	0.2535187
60	0x3e3e76c0	0.18599987
61	0x3e2c24c7	0.16810904
62	0xbe868c36	-0.26278847
63	0x3e93a206	0.28834552
64	0x3e4be09a	0.19909897
65	0xbe8a566f	-0.2701907
66	0x3e4b681f	0.19863938
67	0x3e3fa722	0.187161
68	0x3e48d95c	0.19614166
69	0xbdcb7118	-0.0993368
70	0x3c08af18	0.008342527
71	0xbe91e00d	-0.2849125
72	0xbe2be6a6	-0.16787204
73	0x3e95b7f5	0.2924191
74	0xbe1fb519	-0.15596427
75	0xbe32015b	-0.1738333
76	0xbe2577a2	-0.16158918
77	0xbe0ae998	-0.13565671
78	0x3ed8748f	0.42276427
79	0xbe6e37cf	-0.23263477
80	0xbe278153	-0.16357927
81	0xbe97379e	-0.2953462
82	0xbebd13c4	-0.36929142
83	0xbee91ab1	-0.45528176
84	0xbeec8096	-0.46191853
85	0x3e583e01	0.21117403
86	0xbdfaebf0	-0.12252033
87	0xbea15f9a	-0.3151825
88	0x3ca5212a	0.020157415
89	0x3d946570	0.0724591
90	0xbe8c852a	-0.27445346
91	0xbe4893f0	-0.19587684
92	0xbe4da060	-0.2008071
93	0x3f0f87da	0.5606667
94	0x3e30f35f	0.17280339
95	0xbe5644e0	-0.20924711
96	0x3cef0f78	0.02918218
97	0xbda89cb6	-0.08233015
98	0x3e2ff9df	0.17185162
99	0x3e46c024	0.19409233
100	0xbee64408	-0.4497378
101	0x3e88b204	0.26698315
102	0xbed09fc9	-0.40746906
103	0x3f1ed285	0.6203998
104	0xbf0d26a7	-0.55137104
105	0x3d185b9c	0.03719674
106	0xbe336fc1	-0.175231
107	0x3e93cd4d	0.2886757
108	0xbec94128	-0.39307523
109	0x3e12d327	0.1433836
110	0x3eced831	0.40399316
111	0xbf030f49	-0.511952
112	0x3ef06209	0.46949795
113	0xbe612d0c	-0.2198984
114	0xbd93aab3	-0.07210293
115	0x3eea04ef	0.4570689
116	0xbf1ea78a	-0.61974394
117	0x3eada662	0.33916003
118	0x3ca938be	0.02065694
119	0xbec37edd	-0.38182727
120	0x3ddd6947	0.10811096
121	0x3d051782	0.032493122
122	0x3efa80b2	0.48926312
123	0x3e53b16e	0.20673153
124	0x3e831879	0.2560461
125	0xbe6e36d9	-0.2326311
126	0x3e812b55	0.25228372
127	0xbead4b08	-0.33846307
128	0x3e8f2f02	0.27965552
129	0xbf1dcc2c	-0.61639667
130	0xbdebb07b	-0.1150827
131	0x3d2d4465	0.042301554
132	0x3e00bcc0	0.12572002
133	0x3e410459	0.18849315
134	0xbeae5180	-0.34046555
135	0x3eb79850	0.35858393
136	0xbd6a558e	-0.057210498
137	0xbea762d4	-0.32692587
138	0x3d93dee1	0.07220245
139	0x3b2300d6	0.0024872324
140	0x3ec661c0	0.38746452
141	0x3e8977f1	0.2684932
142	0xbe7ccbc5	-0.24687107
143	0xbe38fd75	-0.18065436
144	0xbe8a2900	-0.26984406
145	0x3ebfe06c	0.37475908
146	0x3e19f483	0.1503468
147	0xbf346910	-0.7047281
148	0x3e077390	0.13227677
149	0xbef19d59	-0.4719036
150	0x3ec5c1e2	0.38624483
151	0xbdebe30a	-0.11517914
152	0x3ee1cbdf	0.44100854
153	0xbf24992f	-0.6429624
154	0xbee4dd49	-0.44700077
155	0x3e313402	0.17304996
156	0xbe4ef777	-0.20211588
157	0x3e960092	0.2929731
158	0xbd3b122b	-0.045671623
159	0x3d3b1328	0.045672566
160	0xbf67bde3	-0.9052412
161	0xbdd1d18e	-0.102450475
162	0x3e54f445	0.20796306
163	0x3eeac8c8	0.4585631
164	0x3f0645d3	0.52450293
165	0xbe8b262b	-0.27177557
166	0x3e439873	0.19101124
167	0xbef6c437	-0.48196575
168	0xbedf0d59	-0.4356487
169	0x3f121b98	0.57073355
170	0xbe1f4af2	-0.15555933
171	0x3f190cb4	0.5978501
172	0xbe9f4f1a	-0.31115037
173	0x3ed40af8	0.41414618
174	0x3d364b73	0.044505548
175	0xbe13d0b3	-0.14435081
176	0x3f529e69	0.82272965
177	0xbec5716c	-0.38563097
178	0x3d13ab98	0.036052316
179	0xbe8d1e15	-0.27562013
180	0xbd5a1085	-0.05323841
181	0xbe9d9781	-0.3077965
182	0xbf1eaa0f	-0.6197824
183	0x3ec90eb6	0.39269036
184	0xbee3183b	-0.44354424
185	0xbd531663	-0.05153502
186	0x3d5772c8	0.0525997
187	0xbdd32240	-0.10309267
188	0xbf2ee2b8	-0.68314695
189	0xbf0f09e0	-0.55874443
190	0xbd827e02	-0.0637169
191	0xbd795de3	-0.060880553
192	0x3e959164	0.29212487
193	0xbe047f77	-0.12939249
194	0x3dfeb92d	0.12437663
195	0xbda587e7	-0.08082562

bias_ih_l0 f4 [28]
0	0xbeb26817	-0.3484504
1	0xbe8cda90	-0.275105
2	0x3d9e1d06	0.077203795
3	0x3e84f48c	0.25967824
4	0x3e8c7a3d	0.2743701
5	0x3e7345c1	0.23757078
6	0xbe7305b8	-0.2373265
7	0x3f93e71c	1.1554904
8	0x3ef96ddc	0.4871663
9	0x3f0880fc	0.53321815
10	0x3f57c7c6	0.84289205
11	0x3e7cabb9	0.24674882
12	0xbc52ba5a	-0.0128618125
13	0x3fb61a99	1.4226867
14	0xbe2367e2	-0.15957597
15	0xbf303e22	-0.6884481
16	0x3f76b71e	0.96373165
17	0x3f604083	0.8759844
18	0xbee649a6	-0.44978064
19	0x3e0d7cdb	0.1381716
20	0xbe8b002a	-0.27148563
21	0x3f1c30dd	0.6101206
22	0x3d424161	0.04742563
23	0x3e9f18ab	0.31073508
24	0x3efd4fd3	0.49474964
25	0x3e8dfc68	0.27731633
26	0x3d916ceb	0.071008526
27	0x3f8f6f87	1.120591

bias_hh_l0 f4 [28]
0	0xbda6cbad	-0.08144317
1	0xbe3fc852	-0.1872876
2	0x3d7ed626	0.062215947
3	0x3e2caca2	0.16862729
4	0xbdfc4c8f	-0.1231929
5	0x3e5c808e	0.21533415
6	0xbf363a68	-0.7118287
7	0x3ef244bf	0.47318074
8	0x3e716478	0.23573482
9	0x3e5e87f8	0.21731555
10	0x3e4ab987	0.19797336
11	0x3e514168	0.20435107
12	0xbeae33f0	-0.34024
13	0x3f81716c	1.0112739
14	0xbe59a13c	-0.21252912
15	0xbf19aa82	-0.600258
16	0x3f3952a9	0.72391754
17	0x3f738862	0.9512998
18	0xbf00e87a	-0.5035473
19	0xbc51908d	-0.012790811
20	0x3e9e47a2	0.30914026
21	0x3e9d251c	0.30692375
22	0x3d987b49	0.0744539
23	0x3e8b2fbb	0.27184853
24	0x3f4e9ff2	0.8071281
25	0x3e9e593c	0.30927455
26	0x3edb84d7	0.42874786
27	0x3f97c716	1.1857631

weight f4 [1, 7]
0	0xc079fc3b	-3.90602
1	0x4017cf97	2.3720453
2	0xc01b5bd9	-2.427481
3	0x4079b20e	3.9014926
4	0xc063be85	-3.5585034
5	0x3ff6bcae	1.927633
6	0xc07adadd	-3.9196084
