Output_test/adam_fixlr_model_finetune.pt (torch, 4707 bytes, 5 tensors)

weight_ih_l0 f4 [28, 9]
00000000: 2d3a 2a3f 1464 f9be 09cd 993d dd11 963d
00000010: fda6 10be 5d63 7d3c 23f9 08be 00f1 a93d
00000020: 3ed2 34be a413 ab3f 6218 ad3e e7ab 8fbd
00000030: 61cd 2c3e a1fe 7c3f 2e61 febe d0a7 263c
00000040: 3432 4a3e efd7 00be 1b31 743f 362c 95be
00000050: 463a 493e 71b5 063f d511 8dbe 0982 00be
00000060: f3d8 edbc a722 883e 807e d3bd da27 833f
00000070: 60cd cf3d fab3 613e 4fd1 10bc 8751 b7bd
00000080: cee2 69be aa22 5ebc 17e3 ad3d 1cb6 35be
00000090: a318 e73e 96a3 6fbf da54 f63d d55a 86bd
000000a0: 4974 75be 2321 d93d 0ffc ab3e d7fa dfbd
000000b0: 5850 053f 6e5c 45bf d4ee 7cbf d590 8b3e
000000c0: 8538 6dbd 167a cd3e 966a 1c3c 524e 7cbe
000000d0: 933f 8a3d 2220 a4be 3e03 4a3f 7e2d 3dbf
000000e0: 07eb 563e 9e54 a33e 6434 b53e 035b a9be
000000f0: 371d 95be 057a da3e d768 e6be 932f 5a3e
00000100: a125 f2bf 8321 07be 502c 7ebe f172 a1be
00000110: 30d0 013b 9cb2 f03d 1b64 6bbe 1f37 c93e
00000120: bb6b 253e 5e63 13be 4dd8 613e 7e47 483e
00000130: 51eb 2e3e 78f1 ce3e 1a9a eabd 9aee 51be
00000140: b083 a03c aa6e aebe d896 c43e baeb ed3e
00000150: 5458 2b3d ab28 043f f214 f23e b408 dfbd
00000160: 2c5e a6be 0406 ce3e 7dfd 0a3f 5941 a7bd
00000170: de59 df3d 1dff 443e 8c39 213f 8d22 973e
00000180: 92be d0bd 759b e3bd d031 373e 9e04 293e
00000190: c5ee b03e 28a0 db3d c8d9 ea3d f2d7 d63e
000001a0: d371 a83d 712d a0bc 62b1 08bd 33d9 25be
000001b0: b0f1 f3bd f304 51bf 06df 89bd 8371 2f3e
000001c0: d6ba f6bc 5e4f 60be 8265 24bc 60b3 493e
000001d0: ee6e 683e 3e45 7e3f 81d2 f23e 64d3 fd3d
000001e0: 4f86 82be 2665 d43e 3dc6 173e 60b5 223d
000001f0: 800b b6bd 5b8c 643e 3e88 d63e 1096 c5bf
00000200: acf2 1dbe fee6 2ebe 84fb aebd 4670 95bc
00000210: 84b1 c73d 2cf8 f73c 0e25 8ebd eabb 643d
00000220: 7d92 173e 2695 83bd 56f0 993d a52e c6be
00000230: c094 9b3d b929 413e d165 01be 62db 86bc
00000240: 3cad 30bd 15e1 45bb c9cf 103f 721f 1d3f
00000250: b4f2 5c3f 4b6b a7be a61e c4bc aa5f cd3d
00000260: 37d8 023e 6cf4 36be fb20 cc3d 57e2 ad3e
00000270: 76cb 6a3e 4de9 3d3f 9348 46bd 2f10 2fbe
00000280: 8ade 11bb c9c7 09bd 529f b3be 113f e1bd
00000290: b996 fdbe 41b0 e9be ac0d 38bf d718 143b
000002a0: 7ebc f93d 8e75 d4bc ee35 303e 4ceb 88bf
000002b0: d12e 4e3f 4cd8 b5bd 587e e0be 9dff 563d
000002c0: 82ed 023c 072b 353e 6f05 5b3c 21f0 e9be
000002d0: 4567 ed3e 6f28 9cbe f66e 5a3c f10a 9b3e
000002e0: db81 f43e 573d d13c cee0 2abe 0190 4d3e
000002f0: 7d28 5e3e 8592 d03f 8874 27be 6757 b9bd
00000300: 17ce 0b3f d0a0 d63e 121f 8fbe 6581 6bbe
00000310: d8da e13c e391 3e3d 35eb c73f 7c31 8bbf
00000320: 7b3b 34be 0c42 7abe 488e f6bc e015 74bd
00000330: 0ff8 08be 68d5 193e 841d 093e e57d a43f
00000340: f6a3 12bf 9abf 023e 1e48 6a3e 9db6 a73d
00000350: a52c 12bd 6871 243e a040 61bc 576b abbc
00000360: 5909 af3f 61e6 b7bf 6c20 0cbd 2af7 48bd
00000370: 790b 1abf b54a aa3d e543 33bd 3f77 20bd
00000380: 0958 e2bc 403b 423e 630a 65bf 65c8 5d3e
00000390: 7111 c53d 4a86 133f f650 eb3c 50d5 5bbe
000003a0: ca33 953c 1a80 b63d 3501 663f 29b0 8bbf
000003b0: ba56 b53e ba66 773f 3be3 523f 87d7 f1be
000003c0: 4911 58be 2388 8f3e e6a7 abbd 0565 133f
000003d0: bea2 e8be ff1a be3e 120e bb3e c0d1 4f3e
000003e0: 9ae4 1d3d 47e1 13bc c875 9e3c 0cc8 3b3d
0.6649502 -0.48709166 0.075098105 0.07327626 -0.14126201 0.015465585 -0.13376288 0.0829792
-0.17658326 1.3365369 0.33807665 -0.0701521 0.16875221 0.9882603 -0.49683517 0.010171846
0.19745713 -0.12582372 0.9538743 -0.29135293 0.19651136 0.5262061 -0.27552667 -0.12549604
-0.029034114 0.26588938 -0.10326862 1.0246537 0.10146594 0.22041312 -0.008838966 -0.08951097
-0.22840425 -0.013558069 0.084905796 -0.1774525 0.45135984 -0.9360899 0.12027903 -0.065602936
-0.2397014 0.106020235 0.33590743 -0.10936516 0.5207572 -0.7709416 -0.9880192 0.27258936
-0.05791523 0.40132207 0.009546896 -0.24639252 0.06750407 -0.32055765 0.789112 -0.7389754
0.20988093 0.31900495 0.35391533 -0.3307725 -0.29123852 0.4267122 -0.4500186 0.2130721
-1.8917733 -0.13196377 -0.24821591 -0.31533006 0.0019807927 0.11752817 -0.22987406 0.39299867
0.16154377 -0.14393374 0.22055168 0.19558522 0.17081954 0.404186 -0.11455174 -0.20501176
0.019594043 -0.34068805 0.38396335 0.46468908 0.041832283 0.51624554 0.47281605 -0.10890332
-0.32493722 0.40238965 0.5429304 -0.08166761 0.10905813 0.19237943 0.62978435 0.29518548
-0.101925984 -0.111136355 0.17890096 0.16505668 0.34557167 0.10723907 0.1146732 0.41961628
0.08224835 -0.019552918 -0.03337229 -0.16196136 -0.119113326 -0.81648177 -0.067319915 0.17133145
-0.030118387 -0.21905276 -0.010033967 0.19697332 0.22698566 0.99324405 0.47426227 0.12393835
-0.25493094 0.4148342 0.14821716 0.039723754 -0.08888912 0.22319166 0.4190082 -1.543642
-0.15424603 -0.17080304 -0.085440665 -0.018242013 0.09750655 0.030269705 -0.06940661 0.05584327
0.14801975 -0.06424932 0.075165436 -0.38707462 0.07596731 0.18863572 -0.12636496 -0.016462032
-0.04313396 -0.0030193974 0.56567055 0.61376107 0.86307836 -0.32699046 -0.023940396 0.10028012
0.12777792 -0.17866677 0.09967228 0.33961746 0.22929177 0.74184114 -0.048409056 -0.17096017
-0.0022257888 -0.033637796 -0.3508249 -0.10998357 -0.49529055 -0.45642284 -0.7189586 0.0022597814
0.12194155 -0.02593496 0.17208073 -1.0696807 0.80540186 -0.08879146 -0.43846393 0.052489866
0.007991197 0.17692195 0.013367995 -0.45691016 0.4636785 -0.30499598 0.013332119 0.30281785
0.47755322 0.025541944 -0.16687319 0.20074464 0.21695133 1.6294714 -0.16353047 -0.09049874
0.54611343 0.41919565 -0.27953392 -0.22998579 0.027570173 0.046525847 1.5618654 -1.0874476
-0.17600815 -0.24439257 -0.030097142 -0.059591174 -0.13375877 0.15022814 0.13390166 1.285092
-0.57281435 0.12768403 0.22879073 0.081891276 -0.035687108 0.16058886 -0.013748318 -0.020925207
1.3674728 -1.4367181 -0.034210607 -0.04906384 -0.60173756 0.083150305 -0.04376592 -0.039176222
-0.027629869 0.18967915 -0.89468974 0.21658476 0.09622467 0.57626784 0.028725129 -0.21468091
0.018213172 0.08911152 0.8984559 -1.0913135 0.3541773 0.96641123 0.82377976 -0.47234747
-0.21100344 0.28033552 -0.083816335 0.5757602 -0.45436662 0.3712997 0.36534172 0.20294857
0.03854809 -0.009025878 0.019343272 0.045845076

weight_hh_l0 f4 [28, 7]
00000000: 4d53 54bd 73eb a03e fd3c da3d b758 8d3e
00000010: 9c22 8dbf 52fa 81bf 2097 193e 5fc6 3cbf
00000020: 55ef 71bc 6c18 623f a490 933f 3726 5bbe
00000030: cc12 163e 888f 84be 9f5a 1bbe 4aab fe3e
00000040: 71f8 a8be 1568 bfbf 65e5 4dbf 2d76 30bf
00000050: 133f 49bf 3c33 21bf a318 363f abd7 303f
00000060: b5a7 65bf f53b f0be 8b4d 16be fe66 61bf
00000070: 77e5 963e 1176 873f 5ab5 a6bf c63f 33be
00000080: 0491 27be cfb7 18bf 8a01 36bf d4c8 18bf
00000090: 688f 923f ff54 63bf 9086 81be a810 5abf
000000a0: 9be1 3dbf d4b8 43bf e13e 603f 3ca5 5cbe
000000b0: 1c02 433e 82f8 02bf 52e3 9bbe 0c58 8abf
000000c0: 4810 f03e 1ec7 b8bd cf28 273f 8b1c 2fbe
000000d0: 0370 8c3e 6a34 82bf 4997 2ebe aabe 12bf
000000e0: 627d 633d 1d0a 4fbf 4deb 623e fbdb b43e
000000f0: 6347 20be 3d2e 133f 1ba3 4b3e c7c6 693e
00000100: 1c46 2fbf bd3b 0f3e c466 f7bd 2720 8d3f
00000110: 3082 8a3e 13c7 363f 5ee9 8c3e 6379 4dbe
00000120: 1995 ae3e f000 0cbe e6b4 4e3e 19bf acbe
00000130: 906d 973e 21ba 463f fa4f 7dbe 13e6 66bd
00000140: 3bf9 8b3d 51ce b73e 0870 a33d b1b8 083f
00000150: 5b4c 9c3e 539d 583e 554c 023e a8e4 d83e
00000160: 93df 14bd 7093 123c cede 3d3c 498b 28be
00000170: 8bb4 21bf 96f1 903f 28da cb3f e9e9 61bf
00000180: 3ec3 53bf 0389 103e f6da cf3d ffcd b53e
00000190: 675a 1dbf 8965 81bb 1c1b c9be 9b23 80bd
000001a0: a635 2ebe 6b77 12be 2e98 2c3e 3fa1 f1be
000001b0: abf4 64bf f6da 01be 8e0c e63e 372a d8be
000001c0: 1556 17bd fcbc 68bd b253 9a3d 7c66 4abd
000001d0: 86b6 28bf 0b88 463f 7b75 7bbe 68bd e23c
000001e0: 9c69 66be d460 303f 75de 143f e6b4 20bf
000001f0: c072 d3bd 63cf bd3e 3102 ab3e 1651 1abe
00000200: e488 b8be 262b 783e 1457 0abf e64c 37bf
00000210: ec82 ae3e 7201 5b3e 2cd4 dbbd 1281 293e
00000220: 577c f1bc 4e39 353f 53ff e4be 0ba5 f13e
00000230: 6d5e a53f c977 6cbf 7ea3 fc3e 0a00 00bf
00000240: c1f6 a73e 0a47 53be 1241 413e 0797 323f
00000250: 2669 53bf bb9d d63d 9428 14bf 0390 21bf
00000260: a9a1 90bf 3028 4a3f cb78 203f 6161 10bf
00000270: f014 873f 822a 9f3f 1870 0abf 772b 00bf
00000280: 157c e93e 831a 253f 62db 56bf 31f3 883f
00000290: 859b 8d3f 1b33 febe 980e 24bf bbea b43e
000002a0: 62de 9a3f ec25 353c 011c 80be 65ef e43e
000002b0: 9a97 12bf 3832 0ebf 1f42 3f3d b04f 573f
000002c0: 7b61 24be e655 1c3e 48a5 153f 6ebf 27bf
000002d0: 0705 51bf 38da 6d3f 41e5 683f beb7 3ebf
000002e0: dffa a13f b018 3d3f b840 3dbf 35b4 6bbe
000002f0: 7548 573f 0011 843f 0c26 3abf fe0b a13e
00000300: afbf 3f3f 15d3 3dbf 0850 06bf ef11 ff3e
-0.051837254 0.31429633 0.10656164 0.27606747 -1.1026187 -1.0154517 0.14999056 -0.7374019
-0.014766534 0.88318515 1.1528516 -0.21401297 0.14655608 -0.25890756 -0.15171288 0.49740058
-0.33002046 -1.4953638 -0.80428153 -0.6893032 -0.7861187 -0.629688 0.7113134 0.69079083
-0.89709026 -0.46920744 -0.14678018 -0.8804778 0.29471943 1.0582906 -1.3024094 -0.17504796
-0.16363913 -0.5965547 -0.710961 -0.5968144 1.1450014 -0.8880157 -0.25297976 -0.85181665
-0.7417237 -0.764539 0.87595946 -0.21547407 0.19043773 -0.5116044 -0.3044687 -1.080812
0.46887422 -0.090223536 0.65296644 -0.17100732 0.27429208 -1.0172246 -0.17049898 -0.5732218
0.055539496 -0.80874807 0.22160073 0.35324082 -0.15652232 0.5749243 0.19886439 0.22829734
-0.68466353 0.13987632 -0.12080148 1.1025437 0.2705245 0.71397513 0.27521795 -0.20065837
0.34098127 -0.13672233 0.20186195 -0.33739546 0.29575777 0.7762776 -0.2473754 -0.05637176
0.06834646 0.35899594 0.07980353 0.53406817 0.30527005 0.21153764 0.12724431 0.4236195
-0.03634603 0.008946285 0.011588765 -0.16459383 -0.6316611 1.1323726 1.5925951 -0.88247544
-0.8271979 0.14114766 0.10149185 0.35508725 -0.6146607 -0.0039488715 -0.39278495 -0.06256791
-0.17012653 -0.14303367 0.16854927 -0.47193334 -0.89435834 -0.12681183 0.44931453 -0.42219707
-0.03694733 -0.056820855 0.07535495 -0.049414143 -0.6590351 0.77551335 -0.24556534 0.027678207
-0.22501224 0.6889775 0.5815194 -0.6277603 -0.10324621 0.37072286 0.3340011 -0.15069994
-0.3604194 0.2423521 -0.5403912 -0.7160171 0.3408426 0.2138727 -0.10733828 0.16553143
-0.029478235 0.70790565 -0.44726047 0.4719623 1.2919441 -0.9237028 0.49343485 -0.5000006
0.32805446 -0.20632568 0.18872479 0.697617 -0.8258232 0.104793034 -0.5787442 -0.6311037
-1.1299335 0.7896757 0.62684315 -0.5639859 1.0553265 1.2434847 -0.5407729 -0.5006632
0.4560248 0.6449358 -0.839285 1.0699216 1.1063086 -0.49648365 -0.6408477 0.35335335
1.2099116 0.011056405 -0.25021365 0.44713894 -0.57262576 -0.5554538 0.046693917 0.8410597
-0.16052811 0.15267143 0.58455324 -0.65526474 -0.81648296 0.929111 0.90974814 -0.7449912
1.2654685 0.73865795 -0.7392688 -0.23017962 0.84094936 1.0317688 -0.72714305 0.31454462
0.7490186 -0.7415021 -0.5246587 0.4981837

bias_ih_l0 f4 [28]
00000000: eb8b 453e cd04 eb3e 13b2 9abd 8b70 4ebc
00000010: 9b14 91ba 84c5 3ebf 20dd c03f 6ea4 bebd
00000020: 9b18 af3e ed1f 5c3f 0da1 8b3d 2181 473f
00000030: 353d 663e 8bc2 b83d 7795 ce3e 11e8 60bf
00000040: 9922 473e 529d 213f 329e ab3e 6a01 eb3d
00000050: 08b4 623f 5661 f93e a4e4 8c3f c02b 2d3f
00000060: ab82 14bd 6d74 133f 3fd6 373e 8df9 9f3f
0.19291656 0.459021 -0.07553496 -0.0126000745 -0.0011068763 -0.74520135 1.5067482 -0.09308706
0.3419846 0.85986215 0.068178274 0.7793141 0.22484286 0.09021481 0.40348408 -0.87854105
0.19446792 0.63130677 0.3351913 0.11474879 0.88555956 0.48707074 1.1007276 0.6764488
-0.036257427 0.57599527 0.17952822 1.2498032

bias_hh_l0 f4 [28]
00000000: a7ab e13e 66fe e73e 1f1b c8be 7f9e 183c
00000010: 0570 45bd a0ee eebe 83c0 cc3f 1ff1 33be
00000020: 5aad 063f 68ee d33e 4aba 0c3f ab75 883f
00000030: 238d 8c3e d446 003f d464 1a3f 4e29 85bf
00000040: dc8a 483f ce81 703f 29b1 5fbc ad07 91bd
00000050: e60f 793f a5d1 293f 1bad 2d3f 102f 063f
00000060: 4c2c 153f 13a1 2d3f 205f 8d3e 3587 333f
0.44076273 0.45311278 -0.39083192 0.009315132 -0.048202533 -0.4666643 1.599625 -0.17572449
0.52608263 0.41392827 0.54971755 1.066091 0.2745143 0.50108075 0.603101 -1.040323
0.7833688 0.93948066 -0.013653078 -0.07081542 0.97289884 0.6633552 0.67842263 0.5241556
0.58270717 0.67823905 0.27611637 0.70128185

weight f4 [1, 7]
00000000: ba5d 6040 1403 5bc0 b2fb 5740 65d6 6940
00000010: 4d7d 5dc0 fd02 7bc0 b4c0 5f40
3.5057206 -3.4220629 3.3747373 3.6537106 -3.4607728 -3.9220574 3.4961367
