Output_test/adam_dynlr_model_pretrain.pt (torch, 4707 bytes, 5 tensors)

weight_ih_l0 f4 [28, 9]
00000000: 2186 9e3f 6ed6 1f3f b2b3 773e 3a1b 3a3f
00000010: fbbc d9bd f223 273f e94e 9ebf 482c f0bf
00000020: 0621 623f 445b 4740 643d 26bf f02e a3be
00000030: e052 e93e 47a4 603f a6f1 193e 3572 c0bd
00000040: 1b97 9c3d 73df 90bf 12d0 973f 59f3 89be
00000050: f850 5f3f ad6d c43f d76b 763f 049d 0fbf
00000060: ee52 08bf d3ec 0ebe b869 05bf d597 1e3f
00000070: a11a c4bf 86a1 653f 71b4 ac3f c9c2 ff3f
00000080: a983 cf3e 95e5 90bd 9806 6fbe 7a18 fc3f
00000090: 1730 7740 3c26 fabc adbc 973f 5d75 8e3e
000000a0: 0f11 193f ef37 de3e b233 bd3d 5c4c 633d
000000b0: 29ea b33e 75b2 18bf a07b a53d 3679 debf
000000c0: d236 17c0 2f2a 68c0 9cd8 d1be 92a6 0f3f
000000d0: b59d fa3e afc5 61bf fc88 5dbf 697b cc3f
000000e0: f720 f43b 81b6 f73c 4cd3 c03e fe67 a8bd
000000f0: e073 10be 2c83 ea3d 14b7 b3bf 82dc 48be
00000100: 040e a73f dc43 8f3f 2e34 0740 2a89 0c40
00000110: 3eed 4b3e ffd1 87be a08e 5c3e 1c57 fbbf
00000120: 72e4 e93c 5fe6 5b3d d539 ec3f 1116 a93f
00000130: 09f3 933f 616c b5be ed41 47be 3d50 583e
00000140: 1001 453f 19e5 76be aeea 9c3c 39f0 a93f
00000150: 0660 803f 578f 0040 534a d03d 7657 45be
00000160: 70f0 423e 5d6b 033f 4066 9bbe f16d 903e
00000170: 0628 843f f39d 183f b3a3 2540 2903 143f
00000180: 77af fabe 7b45 323e 0f06 e9bf a5e7 d0be
00000190: 0c56 2ebf 188a e23f 01eb 863f 8026 773f
000001a0: 94c2 363e 4928 db3d 5701 b83e a946 cebb
000001b0: 4c81 a4be 020c 833c 75a9 06c0 72d5 85c0
000001c0: cba1 42c0 95d2 a63e 5008 da3f 5e17 25bf
000001d0: 42ae 88bc 8fab 3f3d 5b55 e5bf 5fb5 c2be
000001e0: d8f5 a7be 0885 31bf 23b3 67bd 1574 04be
000001f0: 62cd 96bc a0ff bb3e 10da 1ebf fe35 0c3f
00000200: 5e7c 2bc0 9cc2 15c0 1de7 1fc0 652f fcbe
00000210: 7913 6a3f 7d59 8cbf 77b6 f9bd 416b 1dbf
00000220: 69b9 af3e 476e 9ebd 6026 30be 33f1 c4be
00000230: 9c3c 013f c854 35be 7b86 08bf 62d1 a33d
00000240: cf7d ae3d 4838 263e a1e8 28be e1a3 80be
00000250: 72ba acbb 5d46 bb3e 08c0 4cbf cbe6 adbd
00000260: 3afb c33f d6f8 5e3f 5adb b5bf 1f50 e03f
00000270: 289a 953f ce94 0c40 083d 96bf 2a8f 06be
00000280: aa87 ab3b 4785 b6bf 6673 6340 4f6d a33f
00000290: 50d8 ae3f 2072 e43e a674 893f 6851 fa3e
000002a0: acb1 e5be 729d 9e3d 9193 2abf f6eb 7a3e
000002b0: abd2 8ebf 3b8e 1cbe 5e3f dcbf 36c5 b7bf
000002c0: beb5 db3e b256 583f dff3 e1bf 4faa 25bd
000002d0: 3fe6 9bbf fed4 b540 704d 443e 8a70 543e
000002e0: f8c0 183f ca0c 833d 5051 c4bd 0907 e0bc
000002f0: 1b9a 22bf a655 983f 585d 2fc0 d0e3 693d
00000300: 079f b33d 400c e03e f0fa 003e 6319 ae3b
00000310: a26a dd3d 2cec eb3d ed3f 4e3f 23dc f1be
00000320: df03 b23f e6a4 c83f 502d 933f c2e6 c8bf
00000330: eee1 12bd 4782 3cbd d016 0e3f 0b42 ed3f
00000340: bafe c73e 24dd 373f f383 5f3e 3f97 813f
00000350: 8a8c 18be ec08 c33e 3b8d f33d e959 af3d
00000360: 2a8f dd3f 212a 01c0 6d38 fd3e cb0c a93f
00000370: 846d ae3f 774e d7bf 83fc 093f 3cf7 493f
00000380: 6412 97bf 3320 59bd 42fe 99be e6fd 633f
00000390: 470f 9d3f 869e f93f 5549 c6bf 6e08 0a3d
000003a0: b98f 17bd 6d04 70bf 86bd c9bf aa69 8dbe
000003b0: 4fa0 d8bf 9e3d b2be c73d 20bf 8a53 8c3f
000003c0: 60b5 2dbe 7254 9ebd d628 e43e 1b56 863d
000003d0: 6480 b3bf d09a 3d3e 29a6 fa3d 384e 893f
000003e0: 205e a83d 2e57 383e ae60 053d b2c0 e13e
1.2384683 0.6243657 0.24189642 0.72697794 -0.10631748 0.65289223 -1.2367831 -1.8763514
0.8833164 3.1149454 -0.64937425 -0.31871748 0.4557104 0.8775067 0.15033588 -0.09396783
0.076460086 -1.1318191 1.1860373 -0.26943472 0.87232924 1.534597 0.962583 -0.5609896
-0.5325154 -0.13957529 -0.5211444 0.6195043 -1.5320626 0.8969959 1.3492566 1.9981319
0.40530136 -0.07075039 -0.23342359 1.969497 3.8623102 -0.03053581 1.1854454 0.27823916
0.59791654 0.4340205 0.09238376 0.055492744 0.35139588 -0.59647304 0.0808022 -1.7380741
-2.362721 -3.6275747 -0.40985572 0.5611354 0.48948446 -0.88192266 -0.86537147 1.5975162
0.007450219 0.030238392 0.37661207 -0.0822296 -0.14106703 0.114508 -1.4040246 -0.19615367
1.3051152 1.1192584 2.1125598 2.1958718 0.1991472 -0.26527402 0.21538782 -1.9635959
0.028551314 0.053686496 1.8455149 1.3209859 1.1558543 -0.3543425 -0.19458742 0.21124358
0.76954746 -0.24110831 0.019154873 1.3276435 1.0029304 2.0087488 0.10170426 -0.19271645
0.19037032 0.513357 -0.30351448 0.2820888 1.0324714 0.5961601 2.5881164 0.5781732
-0.48961994 0.17409317 -1.8204974 -0.4080173 -0.6810005 1.7698393 1.0540468 0.9654312
0.17847663 0.10701043 0.35938522 -0.0062950444 -0.32129896 0.015996937 -2.1040928 -4.1823053
-3.041125 0.32582536 1.7033787 -0.6448878 -0.016684655 0.04679447 -1.7916673 -0.38029
-0.3280475 -0.69343615 -0.056567322 -0.12934907 -0.018408481 0.36718464 -0.62051487 0.54769886
-2.6794658 -2.340003 -2.498481 -0.4925491 0.9143596 -1.096481 -0.121930055 -0.6149178
0.34321144 -0.077358775 -0.17202139 -0.3846527 0.5048311 -0.17708123 -0.533302 0.07998921
0.0852009 0.16232407 -0.16494991 -0.2512503 -0.0052712495 0.3657712 -0.79980516 -0.08491286
1.5311043 0.87098444 -1.4207566 1.7524451 1.168767 2.1965823 -1.1737375 -0.1314055
0.0052346783 -1.4259423 3.5539184 1.2767733 1.3659763 0.4461832 1.0738723 0.48890233
-0.44862115 0.07744874 -0.6663142 0.24504074 -1.1158041 -0.15288632 -1.7206838 -1.4357059
0.42912096 0.84507287 -1.7652549 -0.040445622 -1.217964 5.68225 0.19170165 0.20746055
0.59669447 0.06398924 -0.09585822 -0.027347105 -0.63516396 1.1901138 -2.7400723 0.057102025
0.087705664 0.43759346 0.12595725 0.005313085 0.10811354 0.115196556 0.80566293 -0.47238263
1.3907431 1.5675323 1.1498203 -1.5695422 -0.035859995 -0.04602268 0.5550356 1.853578
0.39061528 0.7182181 0.21827678 1.0124282 -0.14897361 0.38092744 0.11892172 0.08562071
1.7309315 -2.0181963 0.49457112 1.3207029 1.3627172 -1.682082 0.5390093 0.78892875
-1.1802487 -0.053009223 -0.30076796 0.89059293 1.2270287 1.9501503 -1.5491129 0.033699445
-0.0370023 -0.93756753 -1.5760963 -0.27619678 -1.6923922 -0.34812635 -0.62594265 1.0962994
-0.1696372 -0.077309504 0.44562405 0.06559392 -1.4023557 0.18516088 0.12238724 1.0726995
0.08221078 0.18002006 0.032562904 0.44092327

weight_hh_l0 f4 [28, 7]
00000000: b7f0 ee3e cec9 293f b7ba 59bf b709 993e
00000010: fa52 f33e 90f5 953f dd9f e13e f1e6 f1bf
00000020: f89a 89bf daa3 613f 6089 be3f a05b e53f
00000030: 475d 07c1 8cab 0c3f 159c 053d d6a8 91bf
00000040: f45c 323f 6d26 473f 45cd bb40 38b9 28c0
00000050: 23f7 fcbe e216 eabf b708 1640 a6c6 e13f
00000060: 611d a0bf 481e bb3e 0fd9 12c0 ab4d c93e
00000070: beeb b83e b5e4 2d3f 0d46 da3f df40 9e3f
00000080: 1c14 4c3e c953 e8c0 c0e8 963f b22a 8ebe
00000090: 10ef 08bf 8ed9 fa3f c7d9 c5bf 3fc6 2e3f
000000a0: 4337 2bbf da4a 74bf 3150 c53f a415 c8be
000000b0: 83d7 7b3e c389 cf40 2a8c 2b3f 2467 80c0
000000c0: 0270 8cbf 8ae3 623d 5145 8d3f 455d 5cbf
000000d0: fa69 81bf 3056 473e 0536 a53f 82ef bdbe
000000e0: 48c0 ad3f 05dc d3be b358 e5bf 978e 473f
000000f0: ed77 9b40 b153 22bf 8ddd f13d 1cf3 b53f
00000100: 1ba2 3bc0 3d0b 1cbf aafd 123f b2a0 1640
00000110: 9a1f 4c3f 09d3 d6bf 4a4a 82be c8ae 0a3c
00000120: f2de 03bf 0d2f 4bc0 4dd1 143e c77b 643f
00000130: dc01 0abf 1b52 ca3f 522f dabe 613f b4bf
00000140: 185f a53f c44e f13d ff28 36c0 d762 56bf
00000150: e8af a73e c02e f9bf 0ad2 c53e 0efb 5abf
00000160: 5448 8840 a457 bf3f 1646 6ebf 2ef5 543d
00000170: f04d 5c3f 755e 323f 36cc 7d40 9e59 8dbe
00000180: e4b9 87be fa8c e6be efab 3d3f 1259 1d3e
00000190: 283f c1be 98a1 b33d 4699 363f 3a3a 8740
000001a0: 37ed 9fbf f7b7 ab3e fe5d c43f a691 d73f
000001b0: 74f5 b4be b155 a1bf 25be dc3d 6d00 1c3f
000001c0: ae57 83bc 3b78 633f 552e c63f fd7c dcbd
000001d0: 96e7 c0bf 3836 20be 1773 8dbd a1b0 29bd
000001e0: 5bbb 93be bf56 f4bf c87d ccbe ac2a 403f
000001f0: 66ae d3bd 85c9 07bf 3835 8a3f 9e44 a4bc
00000200: e4b4 cdbf 2c34 5a3f 62bf 45be 88ab 26c0
00000210: 4b23 0d3f b8c5 b43f e569 bebf ceed 0bc0
00000220: 24a6 57bf 26bc 993f 72ff 1e3d eca9 cfbe
00000230: 9ca0 1abf f5a0 88bf 7e38 4fbf e19b e73d
00000240: 61f4 8e3e e5f5 1940 2fe7 94bd 59ae 5b3f
00000250: 25fe 2abe 7491 69be a495 1a3e 3266 063f
00000260: 62f8 f9bf 2a3b 4bc0 f5de f9bd 2485 14c0
00000270: 4813 3fc0 c828 343f 6f96 e33f f6d8 7f3f
00000280: 6fcb c5bf 7549 fbbe 5c23 c3bf e686 11c0
00000290: 2cba fa3e 7439 df3f 9580 47bd ac73 8cbf
000002a0: c838 18c0 530e bebe 563c 8bbf 871f 1e40
000002b0: 76b4 f53f 7c3e 90bf 2c64 74bf 25f5 183f
000002c0: 1da1 abbf 5bc7 eabf 6399 9c3f 9472 4a40
000002d0: a287 3cc0 885c 90bf 702a ce3f 7e5c 15c0
000002e0: 301b afbf 01e7 96bf 2732 693f e847 9e40
000002f0: af03 8fbf 6625 2cbf 4fcd 34c0 7e69 0fbe
00000300: 77c4 f83f bca2 8840 5e39 59c0 2f93 82bf
0.46668026 0.66323555 -0.8505053 0.29890224 0.47524244 1.1715565 0.44067279 -1.8898603
-1.0750418 0.8814064 1.4885674 1.7918587 -8.460273 0.5494926 0.032619555 -1.137965
0.69673085 0.7779301 5.8688073 -2.6363049 -0.494073 -1.8288233 2.344282 1.7638748
-1.2508966 0.3654654 -2.2944982 0.39317068 0.36117357 0.67927104 1.7052628 1.2363547
0.19929546 -7.2602277 1.178978 -0.2776695 -0.5348978 1.9597642 -1.5457085 0.6827125
-0.668812 -0.95426714 1.5415097 -0.3907901 0.2459393 6.4855666 0.6701075 -4.0125904
-1.0971682 0.05539278 1.1036779 -0.8607982 -1.0110466 0.19466472 1.290711 -0.37096792
1.3574305 -0.413788 -1.7917694 0.7795195 4.8583894 -0.6340895 0.118098356 1.4214816
-2.9317691 -0.6095465 0.5741831 2.353558 0.7973572 -1.6783153 -0.25447303 0.008464523
-0.5151206 -3.1747468 0.14532967 0.8925137 -0.5390909 1.5806307 -0.42614228 -1.4081842
1.2919645 0.117826015 -2.8462522 -0.8374457 0.32751393 -1.9467392 0.3863681 -0.8553933
4.258829 1.4948621 -0.9307569 0.051991634 0.86056423 0.6967538 3.965589 -0.27607435
-0.2650901 -0.45029432 0.74090475 0.15366009 -0.37743497 0.08771056 0.71327627 4.2258577
-1.2494267 0.33538792 1.5341184 1.6841323 -0.35343516 -1.2604276 0.10778455 0.6093815
-0.01603302 0.8885533 1.548289 -0.10766027 -1.5070674 -0.15645683 -0.06906717 -0.041428212
-0.28853878 -1.9088973 -0.39939713 0.7506511 -0.10335998 -0.5304187 1.0797491 -0.02005225
-1.6070828 0.8523586 -0.19311288 -2.6042194 0.5513198 1.4122839 -1.4876066 -2.1863894
-0.84237885 1.2010543 0.03881783 -0.40559328 -0.6040132 -1.067412 -0.80945575 0.113090284
0.2792082 2.4056332 -0.07270657 0.8581291 -0.16698511 -0.22809392 0.15096146 0.5249969
-1.9528925 -3.175486 -0.12200729 -2.3206263 -2.9855518 0.7037473 1.7780284 0.9994043
-1.5452708 -0.4907948 -1.5245166 -2.2738585 0.48970163 1.7439408 -0.04870661 -1.09728
-2.3784657 -0.37120304 -1.0877788 2.4706743 1.9195697 -1.1269069 -0.9546535 0.5974906
-1.3408543 -1.8342088 1.223431 3.1632433 -2.9457784 -1.1278238 1.6106701 -2.3337703
-1.3680172 -1.1789247 0.9109215 4.9462776 -1.1172999 -0.67244565 -2.825031 -0.14005086
1.9434956 4.269865 -3.3941264 -1.0201167

bias_ih_l0 f4 [28]
00000000: 9e5f f23f 3e9b e83d 5c60 dc3d 6134 54c0
00000010: 3fc2 723d b03e 36c0 18ea 033f e0e6 c33f
00000020: 5954 c93f 6f98 1b40 434f 133e 0c82 cc3f
00000030: 93da 2f3f 5f2e 8cbf 6f6b 183f 310e e7bf
00000040: 5128 e9bf 96e8 8a3f b667 ba3f 5232 dc3f
00000050: d14f 053f a491 8abf 1761 e33f 6ccb 1540
00000060: d70c 713e b7e3 bf3f 7e52 f43e 7e99 98be
1.893543 0.11357735 0.107605666 -3.315697 0.05926728 -2.8475761 0.51529074 1.5304832
1.5728866 2.4311788 0.14385705 1.5977187 0.6869289 -1.0951651 0.5953893 -1.8051206
-1.8215429 1.085223 1.45629 1.7202857 0.52074915 -1.0825696 1.7764004 2.340541
0.23540054 1.4991368 0.47719187 -0.29804605

bias_hh_l0 f4 [28]
00000000: 6cab f23f 04ff 0fbf 18a2 173e ed4e 53c0
00000010: 5628 edbd 7200 10c0 f25c 9e3c b7e1 b83f
00000020: 37e0 c53f ae67 1c40 51c4 bd3e faf5 d53f
00000030: 2df0 703f c14a 8bbf 6f4b 163f fc90 a9bf
00000040: 87d0 bdbf da54 963f 38b7 a43f 2528 0940
00000050: 99cb 4a3f ad3a 8cbf 8109 b93f 969a 1640
00000060: d4b9 2d3f 73ca df3f c5b7 463f 21f4 0ebf
1.8958564 -0.562485 0.14807928 -3.3016922 -0.11579959 -2.2500272 0.01933143 1.4443883
1.545905 2.443828 0.3706384 1.6715691 0.9411648 -1.0882188 0.5870885 -1.3247371
-1.4829262 1.1744645 1.2868414 2.1430752 0.79216915 -1.0955406 1.4456025 2.3531852
0.67861676 1.7483658 0.7762416 -0.5584126

weight f4 [1, 7]
00000000: a9b2 15c0 adb4 59c0 d687 4bc0 7ca8 d140
00000010: 0518 7f40 5114 a5bf fef7 7bc0
-2.3390296 -3.4016526 -3.1801658 6.551817 3.985841 -1.2896825 -3.9370112
