Output_test/adam_fixlr_model_pretrain.pt (torch, 4707 bytes, 5 tensors)

weight_ih_l0 f4 [28, 9]
00000000: ac8a 4e3f eb8a 0ebf ba7a 643d 046f 483d
00000010: 2d60 2abe d205 893d 176c 31bd 243e 093e
00000020: 94e1 81be b149 b53f 530d d43e 18a9 ddbc
00000030: 068d 813e fc5a 783f 9135 c4be e74a f73d
00000040: 7964 773e 593f bbbd b89c 5f3f d232 7dbe
00000050: 209c 683e c07f 1a3f d9a7 57be dee2 1ebe
00000060: 434a bebd 8f7b 833e 381b 0abd 4985 813f
00000070: 61a1 233e 12e0 433e f4ec 0dbc 0bf0 01be
00000080: 6267 62be 57aa 513d bddc 633e 8a31 b3bd
00000090: 9290 423e dfbd 51bf d786 343e 658a 95bc
000000a0: 8e17 3ebe c2f0 ba3c 28c0 5a3e 46a6 63be
000000b0: b6d1 eb3e 137f 54bf 93dd 81bf 9ddc 5a3e
000000c0: 86a0 dfbc fd4f cd3e b185 303d d3fb 1ebe
000000d0: 8a8d 263e 7e49 91be 2c64 343f bf8a 31bf
000000e0: 9e19 813e 3c95 4c3e b38a 243e 4528 cdbd
000000f0: 560c d0be c483 933e 6e28 b1be 784c 5d3e
00000100: 65d1 f7bf 9205 95bd 9fc6 5ebe 9376 8abe
00000110: 64df 773d a231 8bbd 4a2b 18bd 5b38 163e
00000120: 0b63 903e d00f 8ebe 4266 663e ef78 663e
00000130: 8cc3 2e3e d6e4 ce3e 0e8d 31be a6a9 3ebe
00000140: 36f4 1dbd 02e6 c3be ffe6 db3e e742 9a3e
00000150: b9d1 0d3e 9267 f73e 77f4 c13e 12ce aa3b
00000160: 347e 8abe 86f7 cc3e d291 063f f8fd c7bd
00000170: 1e4e 453d d13f 1f3e 14c9 ef3e b7d2 503e
00000180: 6b24 04be b2d4 8ebd 0c2e 6e3e d525 623d
00000190: 100b 813e 7082 ed3d 5453 ab3d 9e8a d23e
000001a0: f864 8fbd fbcf 17bd bdfe c2bd 246b fbbd
000001b0: 326b 93bd 8f38 57bf c899 18be 294f 883e
000001c0: 88e5 753c bc4f 35be 62ab 86bd 29a9 8b3e
000001d0: c136 2c3e efac 813f 6dcb 4f3e 08df ae3e
000001e0: b53e cdbe cade b83e a82f 3cbc 8e6d 433d
000001f0: a870 96bd 41e4 8d3e c643 5f3e 7a39 a6bf
00000200: 3585 22be 803a 3bbe d6d0 a9bd d741 7dbd
00000210: ac20 423d fb0e e7bb 71a8 f73b b29f 66bc
00000220: 0073 1ebd 046b 17bc 46b3 033e 3d5b 58be
00000230: 17e0 103d b050 003e c14c b4bd 705a 66be
00000240: 04de 25bd 3bb4 a5bc de43 e53e 9664 443f
00000250: c5c6 0f3f a847 16be 7b8e 7dbd 95b4 f33c
00000260: 82df 593e 891a 50be c2fa c93d 9ade aa3e
00000270: bc8f 9e3e 0c01 2f3f 3017 bcbd 76ed 95bd
00000280: 7bce 55bc 267d e13d 514f 9ebe 5ac2 1abe
00000290: 616a 00bf d3bd 06bf 443d 38bf 1fdf 41bd
000002a0: 8a37 363e 64a5 d9bd 6475 553e 80c6 57bf
000002b0: 84df 3a3f 6e04 62bd f64c f1be 04dd 613d
000002c0: 8163 b6bd ccd6 a23d 6ca8 593c f419 02bf
000002d0: b6e4 ae3e 6528 dfbe 0dc8 873e df45 f63d
000002e0: f494 8a3e dc58 21be 458b 23bc b06f c53d
000002f0: 67d4 f13d 6da9 a43f ee87 b0be 59b1 f2bc
00000300: 6e69 203f d8a0 0c3f 6a99 bebe 1056 2cbd
00000310: eede 803e 4ac7 16bd b7fe ca3f 02cf 8bbf
00000320: 6259 88be f388 5abe d946 d73c 7fca de3c
00000330: fc63 5ebe 486d 183e f1e8 dc3d cca5 973f
00000340: 6692 12bf 8732 c23d 1027 853e 87b0 203e
00000350: f310 fdbb 4a4f 753d eaff b0ba 1c7a 97bd
00000360: 7ac5 943f f76c abbf 9e4d 55bd e848 d6bd
00000370: f838 15bf a9c4 b03c 9e42 2d3d c766 47bb
00000380: e49a ccbc b09a 173e a77c 20bf 6b6a 6b3e
00000390: 46d9 653c ae9c 1a3f d697 49bd 2d37 f4bd
000003a0: 8c4d f43d 1ee6 3e3d 480d 6f3f 2139 76bf
000003b0: 46f1 aa3e fea5 793f 9308 363f 09dd 98be
000003c0: 99b7 0abd c44b a13e 0793 32bd dc1c f63e
000003d0: 8476 f2be c4f1 9f3e 8dfc b13e db68 5b3e
000003e0: 7930 e23c 20ff 2abc 9dc9 513d f1c0 4fbc
0.80680346 -0.5568072 0.055781104 0.048933998 -0.1663825 0.06690563 -0.043315973 0.13402611
-0.25367415 1.4163114 0.41416416 -0.02705817 0.25302905 0.9701383 -0.38322118 0.12074833
0.24159421 -0.09142942 0.8734851 -0.24726418 0.22715807 0.6035118 -0.21060123 -0.1551623
-0.09291508 0.25680205 -0.033717364 1.01188 0.1597953 0.19128445 -0.008662451 -0.12689225
-0.2210975 0.05118784 0.22252174 -0.08749683 0.19000462 -0.81930345 0.17629562 -0.018254468
-0.18563673 0.02281988 0.21362364 -0.22231397 0.46058434 -0.830064 -1.0145744 0.2137322
-0.027298223 0.4010009 0.043096248 -0.15525751 0.1626493 -0.28376383 0.7046535 -0.69352335
0.25214857 0.19978803 0.16068535 -0.100174464 -0.40634412 0.28811467 -0.34601158 0.21611202
-1.9360777 -0.07276453 -0.21755455 -0.2704359 0.060515776 -0.06796576 -0.03715066 0.14669935
0.28200564 -0.2774644 0.22499946 0.2250707 0.17066783 0.40408963 -0.17338964 -0.18619403
-0.038562976 -0.3826142 0.42949674 0.30129167 0.13849534 0.48321205 0.37881824 0.005212554
-0.2704941 0.40032595 0.52566254 -0.097652376 0.0481702 0.15551688 0.46833098 0.20392881
-0.12904517 -0.06974162 0.23259753 0.05521186 0.25203753 0.115971446 0.08365503 0.41121382
-0.0700168 -0.03706358 -0.09521244 -0.12276295 -0.0719818 -0.84070677 -0.14902413 0.26622894
0.015008338 -0.17706198 -0.065756574 0.27277496 0.16817762 1.01309 0.20292445 0.34154534
-0.40086904 0.36107475 -0.0114859715 0.0477119 -0.07345706 0.27713206 0.21803197 -1.298629
-0.15871127 -0.18284035 -0.082917854 -0.061830368 0.04739444 -0.0070513464 0.0075579216 -0.01407616
-0.03868389 -0.009241823 0.12861356 -0.21128555 0.03536996 0.1253078 -0.08803702 -0.22495437
-0.040494934 -0.020227542 0.4477834 0.7671598 0.56162673 -0.14675772 -0.061903458 0.029749194
0.21276668 -0.20322622 0.098622814 0.33372957 0.30969036 0.6836097 -0.0918411 -0.07320683
-0.013049717 0.11010198 -0.3091989 -0.15113202 -0.5016232 -0.526334 -0.71968484 -0.047331925
0.17794624 -0.10627249 0.20845562 -0.8428726 0.7299731 -0.055180006 -0.4712903 0.055142418
-0.089056976 0.079511255 0.013284784 -0.5082085 0.34158868 -0.43585506 0.26519814 0.120250456
0.27066767 -0.15756553 -0.009981935 0.09640443 0.11808091 1.2864205 -0.34478706 -0.029625582
0.6266087 0.5493293 -0.3722642 -0.042074263 0.25170082 -0.03681115 1.5858983 -1.0922549
-0.26630694 -0.21341304 0.0262789 0.027196167 -0.21717829 0.14885437 0.107866175 1.1847472
-0.57254636 0.094822936 0.26006365 0.1569234 -0.007722968 0.05989007 -0.0013504003 -0.073963374
1.1622765 -1.3392628 -0.052075975 -0.104631245 -0.5829005 0.02157815 0.04229986 -0.003042625
-0.024976201 0.14805102 -0.62690204 0.22989814 0.014028853 0.60395324 -0.049217068 -0.119245864
0.119288534 0.046606176 0.9337964 -0.9618092 0.33387202 0.9751891 0.71106833 -0.29856136
-0.0338665 0.31503117 -0.043597247 0.48068893 -0.47356045 0.3123914 0.34762993 0.21426718
0.027611004 -0.010436803 0.051217664 -0.012680278

weight_hh_l0 f4 [28, 7]
00000000: 3a61 adbd 629e a63e 89b9 c53d 0bce 9f3e
00000010: 996e 73bf c354 77bf 4ebc 0c3e ff28 43bf
00000020: 5146 523c 2b85 5a3f a826 8c3f 25a4 98be
00000030: 4bb6 c1bd d8d2 a5be 7746 bcbd 4218 d63e
00000040: 4e95 85be b11a bdbf 469e 51bf d2f4 35bf
00000050: 7309 37bf 2339 0fbf 7a1c 2c3f 0bbf 3a3f
00000060: af07 46bf 2a24 f3be 9e29 a5be 2250 5abf
00000070: 7231 af3e ad9a 843f b4df a2bf 8889 3fbe
00000080: 6df2 1abe 7bc0 2fbf a4d3 2dbf d44b 0abf
00000090: c5e3 8f3f a9a5 60bf 8f7d 86be 3040 58bf
000000a0: 38d2 4bbf 2c01 3dbf 1b43 453f 936d 0f3e
000000b0: d012 0dbe ec1a a1be 55bd 8bbe 3d2f 94bf
000000c0: 2c9c be3e 798d 94be 50bd 203f 7f56 d8bd
000000d0: 6686 8b3e a018 82bf ad66 7dbe c4e6 07bf
000000e0: d4d4 b63d a1d2 59bf d1f7 413e b9b5 f73e
000000f0: 9fe8 3fbe 6da4 963e ee80 303e d298 853e
00000100: 69b3 2fbf c956 113e 08d7 f4bd 05cd 8e3f
00000110: 879c 8d3e 2516 393f 1260 953e 961f 41be
00000120: f9b2 883e 172b 52bd 3de8 463e 2eab 0abf
00000130: b5ab 8b3e a777 693f caf9 17be 899b 10be
00000140: fc62 35bd cc4a c73e 114a 263d 50b9 e33e
00000150: e46c 953e 1d67 653e 34ce ce3d 2254 c23e
00000160: 5d3e 983c 00eb 4cbd b259 f93b d7c6 913d
00000170: 55bc 0bbf b746 8b3f 9b8a ba3f e467 50bf
00000180: ae2a 58bf a1d3 c23d b741 d73d ae5c f43e
00000190: db04 3fbf 0a3f 2cbe cf96 aebe 2326 dfbd
000001a0: cf95 91be 32ae 14be 8689 bb3c 9431 e4be
000001b0: 1e2a 3dbf bded 39bd 329e 1b3f 3e95 b7be
000001c0: 5cb4 cebd 12fb b4bd 3129 1a3e 271c 83bc
000001d0: 2ed5 2cbf 1cd9 253f 7089 85be 9533 4a3d
000001e0: aa93 8bbe 8e8f 253f 69df 363f 61c1 18bf
000001f0: 82ca b5be b38c d23e 6481 753e df23 05be
00000200: 45e4 b8be 3fc2 643e 0974 adbe a733 3bbf
00000210: 7c71 a03e 9ee8 3a3e 513b 1bbe 4078 5b3e
00000220: 5c4d 693d 7f58 313f 3e65 a1be 9526 023f
00000230: cb17 873f 3c98 efbe 1b30 5d3e 13ea b2bd
00000240: 10d2 f93e 53a0 9bbe fe25 843e 4a76 463f
00000250: d717 56bf 46a9 233e dc41 fdbe ffd6 dcbe
00000260: 809a 66bf aa28 5c3f bb65 083f 7c91 24bf
00000270: f53e 973f 0573 9c3f b2f1 2abf 93dc fabe
00000280: fa00 063f b180 0e3f bd83 7fbf 7195 a43f
00000290: 0780 a23f bfbc 42bf 080b 3bbf 4603 e63e
000002a0: 5268 963f d123 8e3d 7bdf a2be d757 9a3e
000002b0: e939 1cbf ed7e 1fbf 50a3 1eb9 3028 693f
000002c0: 884d 8dbe 5bcf 883e b4ae 423f a777 37bf
000002d0: d13a 3fbf 91f2 7f3f 8b28 633f f7d7 71bf
000002e0: f379 ad3f 5115 283f 86e8 40bf dbb0 acbe
000002f0: 4233 623f fb99 773f addf 1dbf 0774 923e
00000300: 3fc7 183f e45e 35bf 7be1 f9be 4f00 ed3e
-0.0846581 0.32542711 0.09654529 0.31211886 -0.95090634 -0.9661371 0.13743708 -0.7623443
0.012834148 0.8535945 1.0949297 -0.29812732 -0.09458598 -0.32387424 -0.091931276 0.41815382
-0.26090473 -1.477377 -0.8188213 -0.7107669 -0.71498793 -0.5594656 0.6723095 0.7294776
-0.77355474 -0.47488528 -0.32258314 -0.8527852 0.3421741 1.0359703 -1.2724519 -0.18704808
-0.1513154 -0.68653077 -0.6790106 -0.54021955 1.1241385 -0.8775278 -0.2626767 -0.8447294
-0.79617643 -0.73829913 0.7705552 0.14006643 -0.13776708 -0.31465852 -0.27292886 -1.1576916
0.37228525 -0.29014185 0.6278887 -0.10563373 0.27250975 -1.0163765 -0.24746199 -0.53086495
0.089273125 -0.8508702 0.1894219 0.4838083 -0.18741082 0.29422322 0.17236683 0.26093155
-0.68633133 0.14193262 -0.119550765 1.1156317 0.27658483 0.72299415 0.29174858 -0.18859705
0.26699045 -0.051310625 0.1942453 -0.5416745 0.2727944 0.911982 -0.1484138 -0.14121832
-0.044283852 0.38924253 0.04059798 0.4447732 0.2918464 0.22402616 0.10097924 0.37954813
0.018584425 -0.0500288 0.0076095695 0.07118004 -0.54584247 1.0880955 1.4573549 -0.81408525
-0.84440124 0.09513021 0.10510581 0.4772696 -0.74616784 -0.16820922 -0.34099433 -0.10895946
-0.28434607 -0.14519575 0.022892725 -0.44569075 -0.7389239 -0.04539274 0.6078826 -0.3585605
-0.100929946 -0.0883695 0.15054776 -0.016004635 -0.67512786 0.6478441 -0.2608142 0.0493656
-0.27261096 0.6467217 0.71434647 -0.5967007 -0.35506064 0.4112297 0.2397514 -0.13001965
-0.36111656 0.22339724 -0.3387759 -0.7312569 0.31336582 0.18252799 -0.15159346 0.2143259
0.05695854 0.6927566 -0.31522554 0.5084012 1.0554136 -0.46795833 0.21600382 -0.08736052
0.48793077 -0.30395755 0.25810236 0.77524245 -0.83630127 0.15982541 -0.4946431 -0.4313278
-0.900795 0.8599955 0.5328023 -0.6428449 1.1816088 1.2222601 -0.6677505 -0.4899641
0.5234524 0.5566512 -0.9981039 1.2858106 1.2695321 -0.76069254 -0.7306371 0.44924372
1.1750586 0.06940425 -0.31811127 0.3014514 -0.61025864 -0.6230305 -0.00015128893 0.91076946
-0.27598214 0.267207 0.76047826 -0.7166695 -0.7469912 0.999795 0.8873374 -0.9447016
1.3552841 0.65657526 -0.753548 -0.3372868 0.88359463 0.9671933 -0.6166943 0.28604147
0.59679025 -0.70847917 -0.4880484 0.46289298

bias_ih_l0 f4 [28]
00000000: a094 373e 9541 a73e a25c cfbc 3c2e 46bd
00000010: 730b 123d f1d0 42bf 84ed c03f e935 30bd
00000020: 9520 953e 8ec0 5d3f 04af 1a3d 2772 343f
00000030: 109f 793e 908a ab3d e6cf 903e 0afd 3cbf
00000040: 62ea 343e dba5 173f 294c 983e f772 1a3e
00000050: f480 7b3f a512 0d3f 4506 8c3f 6e38 2a3f
00000060: 618f d9bd 79b9 1a3f 3aa7 433e ba52 953f
0.1792779 0.32667223 -0.025312725 -0.048383936 0.03565545 -0.7610007 1.5072484 -0.043020163
0.2912642 0.8662194 0.037764564 0.7048668 0.24377084 0.08376038 0.28283614 -0.73823607
0.17667535 0.5923745 0.29745606 0.15082918 0.9824364 0.55106574 1.0939413 0.66492355
-0.106230505 0.6043926 0.1910676 1.1665871

bias_hh_l0 f4 [28]
00000000: fdaf da3e 2e3b a43e 5d64 aebe f4d4 d8bc
00000010: a96f 3bbc 6705 f7be e7d0 cc3f 65ac 00be
00000020: 9f62 f33e 932f d73e 13f1 043f 69dc 7d3f
00000030: 0f3e 963e ab3f fd3e 2604 f73e 9b67 66bf
00000040: ccfc 433f 578a 663f 877c 52bd 5246 0ebd
00000050: 6aee 883f 9b33 3a3f 5ff0 2b3f bf3b 033f
00000060: 8a42 033f 1fe6 343f 9f47 933e 8f39 1e3f
0.42712393 0.320764 -0.34060946 -0.026468731 -0.011440196 -0.4824631 1.6001252 -0.12565763
0.4753618 0.42028484 0.5193035 0.99164444 0.29344222 0.49462637 0.48245353 -0.9000184
0.7655761 0.9005484 -0.05138829 -0.03473503 1.0697758 0.72734994 0.6716365 0.5126304
0.51273406 0.70663637 0.2876558 0.6180658

weight f4 [1, 7]
00000000: 55b5 6240 a2bb 56c0 e4e1 5340 46d8 5f40
00000010: 2e3d 60c0 8511 78c0 7cc3 5b40
3.5423176 -3.3552022 3.3106623 3.4975753 -3.503734 -3.8760693 3.4338064
