Output_test/sgd_dynlr_model_finetune.pt (torch, 4707 bytes, 5 tensors)

weight_ih_l0 f4 [28, 9]
0	0x3f976f8a	1.1830914
1	0x3f23e01a	0.64013827
2	0x3e70fada	0.23533192
3	0x3f35bae8	0.7098832
4	0xbe291d13	-0.16514997
5	0x3f232206	0.6372379
6	0xbfa97f6d	-1.3242012
7	0xbfc82ccd	-1.5638672
8	0x3f84c037	1.0371159
9	0x4050a6f8	3.260191
10	0xbf19d7cd	-0.6009491
11	0xbe3b57a2	-0.18295148
12	0x3e95d08d	0.29260674
13	0x3f75a075	0.95947963
14	0xbcb8febf	-0.02258241
15	0xbd763837	-0.060112204
16	0x3bbad1db	0.0057012863
17	0xbf92eda0	-1.1478767
18	0x3f99a539	1.2003547
19	0xbe00823b	-0.12549679
20	0x3f4f4378	0.80962324
21	0x3fa530cf	1.290552
22	0x3f1af88d	0.6053551
23	0xbeeeb830	-0.466249
24	0xbeba1daf	-0.36350772
25	0xbd7f8f0e	-0.062392287
26	0xbe922474	-0.28543437
27	0x3eecf4ab	0.46280417
28	0xbfb6a56c	-1.4269233
29	0x3f65e6fa	0.8980557
30	0x3fa1aa0d	1.263002
31	0x3ffbabc0	1.9661789
32	0x3e636f96	0.22210535
33	0xbe72d7b3	-0.23715095
34	0xbe2aeb16	-0.1669124
35	0x40028524	2.0393763
36	0x40752bc6	3.8307967
37	0x3da61812	0.0811006
38	0x3f870386	1.054795
39	0x3e2e7809	0.17037977
40	0x3f1c43cd	0.61040956
41	0x3ecb78f8	0.3974073
42	0xbc1c8d17	-0.009555123
43	0x3d9edbc0	0.07756758
44	0x3e99d7b2	0.30047375
45	0xbf090d0f	-0.5353555
46	0xbda18d7a	-0.07888313
47	0xbfea45d2	-1.8302557
48	0xbff26e6a	-1.8939946
49	0xc05a7a68	-3.413721
50	0xbebe6b57	-0.3719127
51	0x3f07a114	0.5298016
52	0x3ed8ca21	0.42341712
53	0xbf80be7a	-1.0058129
54	0xbf3e0f12	-0.74241745
55	0x3fb1f45f	1.3902701
56	0xbd960d34	-0.07326737
57	0xbdb3bb5c	-0.0877597
58	0x3eaadd0a	0.33371764
59	0xbd624d41	-0.055249456
60	0xbcb9ba44	-0.022671826
61	0x3da54ab2	0.080708876
62	0xbfadd059	-1.3579208
63	0xbe02ce81	-0.12774087
64	0x3fa73550	1.3063145
65	0x3f7d04d3	0.98835486
66	0x3ff55c14	1.9168725
67	0x3fee995b	1.864055
68	0x3d3981b0	0.045289695
69	0xbe67b50e	-0.2262766
70	0x3d4d08ae	0.050057106
71	0xbfebfdc5	-1.8436819
72	0xbc8f4d3e	-0.017492887
73	0x3e0e50c3	0.13897996
74	0x3ffa2d1c	1.9545016
75	0x3f967c0a	1.1756604
76	0x3f910e19	1.1332427
77	0xbe4f234e	-0.20228311
78	0xbeb835fa	-0.3597868
79	0x3e5ad15e	0.2136893
80	0x3e629feb	0.22131316
81	0xbee3804b	-0.44433817
82	0x3da92e6d	0.08260808
83	0x3fb930be	1.4468
84	0x3f64c5f4	0.8936455
85	0x3ff26926	1.8938339
86	0xbe661975	-0.22470649
87	0xbea2beec	-0.31786287
88	0x3e8c1020	0.27356052
89	0x3ee9f8fb	0.4569777
90	0xbddc0967	-0.10743981
91	0x3ef84f1b	0.48497853
92	0x3f3665d3	0.7124912
93	0x3edb4a40	0.42830086
94	0x401ff8d8	2.4995632
95	0x3ea9412e	0.3305754
96	0xbedf620b	-0.43629488
97	0x3e1978d2	0.14987496
98	0xbfe3b8b5	-1.7790743
99	0xbede6d19	-0.4344261
100	0xbefc8eb4	-0.49327624
101	0x3fd6afab	1.677236
102	0x3f6398a4	0.88904786
103	0x3f6171ac	0.88064075
104	0x3cc8bf91	0.024505408
105	0xbd6a300b	-0.057174724
106	0x3e86fcdc	0.2636479
107	0xbcea3c53	-0.028593218
108	0xbec2ee09	-0.3807223
109	0x3dd46f82	0.10372831
110	0xc011f494	-2.2805529
111	0xc07ed0be	-3.9814906
112	0xc04e27d0	-3.22118
113	0x3f339c6a	0.70160544
114	0x3fa202ab	1.2657064
115	0xbefbf388	-0.49209237
116	0x3caa954b	0.020823142
117	0x3e022a58	0.12711465
118	0xbfd88066	-1.6914184
119	0xbebb7208	-0.36610436
120	0xbefb99ac	-0.4914068
121	0xbf691af4	-0.9105675
122	0x3e45db8e	0.19322035
123	0xbc7c7d26	-0.015410697
124	0xbbbc8852	-0.0057535553
125	0x3e542433	0.20716934
126	0xbf0db170	-0.55348873
127	0x3f00d77e	0.50328815
128	0xc0272ce1	-2.6121142
129	0xc01e907c	-2.4775686
130	0xc02393c6	-2.5558944
131	0xbf002b25	-0.50065833
132	0x3f43f6c0	0.76548386
133	0xbf8d40a5	-1.1035353
134	0xbdcad7fd	-0.09904478
135	0xbf69c691	-0.91318613
136	0xbe358659	-0.17727031
137	0xbebf1107	-0.37317678
138	0x3e0ff3f8	0.1405791
139	0xbf19b7e7	-0.6004624
140	0x3f82217c	1.0166469
141	0xbec24ae8	-0.37947774
142	0xbf3cf465	-0.73810416
143	0xbee322e5	-0.4436256
144	0x3eaad945	0.33368888
145	0x3d8fc951	0.0702082
146	0xbeb30d55	-0.3497111
147	0xbe903102	-0.2816239
148	0xbe8b9797	-0.2726409
149	0x3e8c3a49	0.27388218
150	0xbf8db036	-1.10694
151	0xbee56fc1	-0.44811824
152	0x3f7874f4	0.97053456
153	0x3f8d572d	1.1042229
154	0xbfca01c9	-1.5781795
155	0x3fcc360a	1.5953991
156	0x3fab4d48	1.3382959
157	0x4004bc10	2.0739784
158	0xbf8eaa68	-1.1145754
159	0x3e29f4ac	0.16597241
160	0xbe1ac0a9	-0.15112557
161	0xbfa5ef31	-1.296362
162	0x40692465	3.6428463
163	0x3fa4621a	1.2842438
164	0x3f951a1e	1.1648595
165	0x3e874a3a	0.26423818
166	0x3f77bc34	0.9677155
167	0x3ea7d89d	0.3278245
168	0xbef9795d	-0.48725405
169	0xbb80872b	-0.0039223633
170	0xbf2c75a6	-0.6736702
171	0x3e58b02a	0.21160951
172	0xbf7efc68	-0.9960389
173	0xbe9ec1d8	-0.31007266
174	0xbfc0841e	-1.5040319
175	0xbfc11519	-1.5084563
176	0x3f193a20	0.59854317
177	0x3f815d66	1.0106628
178	0xbfca23e5	-1.5792204
179	0xbe5c11cf	-0.21491168
180	0xbfa43827	-1.2829636
181	0x40b6b578	5.709652
182	0x3e5b8c89	0.21440329
183	0x3de73382	0.11289121
184	0x3f0f14c6	0.5589107
185	0x3e17e82b	0.14834659
186	0xbe0254ff	-0.12727736
187	0xbc8d4a19	-0.017247247
188	0xbf176328	-0.59135675
189	0x3fa4ac99	1.2865173
190	0xc01f150a	-2.4856591
191	0x3dab7cd2	0.08373417
192	0xbc0cb722	-0.008588584
193	0x3ef29a16	0.47383183
194	0x3c90b2f9	0.017663466
195	0xbc267601	-0.01015997
196	0xbb0eb0bc	-0.0021772822
197	0x3ddd4304	0.10803798
198	0x3f63e1b9	0.890163
199	0xbed0ca20	-0.4077921
200	0x3fa64f78	1.2993002
201	0x3fc58cb4	1.5433564
202	0x3f8755b5	1.0573031
203	0xbfc1ca8d	-1.5139939
204	0xbebcc3c7	-0.36868116
205	0xbd9c077f	-0.07618617
206	0x3e8b242c	0.27176034
207	0x40042b18	2.0651302
208	0x3edfa776	0.4368245
209	0x3eeced4d	0.46274796
210	0x3ea4bb6b	0.3217424
211	0x3f708362	0.93950474
212	0xbe6809b0	-0.22659945
213	0x3e9740c7	0.2954161
214	0xbd208834	-0.039192393
215	0x3e48f3b4	0.19624215
216	0x3ff3970a	1.9030468
217	0xc00b5af1	-2.1774256
218	0x3f3e4ac1	0.74332815
219	0x3f95b1c1	1.1694871
220	0x3f960bc3	1.1722339
221	0xbfda5fde	-1.7060506
222	0x3da8348b	0.08213147
223	0x3f0dfcb7	0.5546374
224	0xbf2b7db0	-0.6698866
225	0xbe20c1ba	-0.15698901
226	0xbe29cb69	-0.16581501
227	0x3f5ff0d0	0.87476826
228	0x3fb220c6	1.3916252
229	0x40011941	2.0171664
230	0xbfdf3c4d	-1.7440277
231	0x3e91ebd4	0.28500235
232	0x3d4497aa	0.0479962
233	0xbf533503	-0.82502764
234	0xbfcd367a	-1.603225
235	0xbe2dc2d5	-0.16968854
236	0xbffb8c79	-1.9652244
237	0xbe5a01c6	-0.21289739
238	0xbf02b876	-0.51062715
239	0x3f997ae7	1.1990632
240	0xbe43cc05	-0.19120796
241	0xbd39278a	-0.045203723
242	0x3eedec5c	0.4646939
243	0xbd0987b3	-0.03357668
244	0xbfbb90d2	-1.4653571
245	0x3e235e14	0.15953857
246	0x3d5abd1f	0.053403016
247	0x3f869ee2	1.0517237
248	0x3d2a9acb	0.04165153
249	0x3e1c726d	0.15278025
250	0x3bb9e805	0.005673411
251	0x3eceb7bb	0.4037455

weight_hh_l0 f4 [28, 7]
0	0x3e69cc65	0.22831877
1	0x3f30fd5c	0.69136596
2	0xbf362057	-0.71143097
3	0x3f30b45e	0.6902522
4	0x3ebec0e4	0.3725654
5	0x3fa19f55	1.2626749
6	0x3f0946cd	0.5362366
7	0xbfee6ec3	-1.8627552
8	0xbf97a4b9	-1.1847144
9	0x3f5faa5c	0.8736932
10	0x3fca1527	1.5787705
11	0x3ff8b885	1.9431311
12	0xc104603f	-8.273498
13	0x3efafda1	0.49021628
14	0x3e9c2b99	0.30502012
15	0xbfcf6a96	-1.6204402
16	0x3ecba912	0.39777428
17	0x3f8a0e45	1.0785605
18	0x40c76b07	6.231815
19	0xc0288052	-2.632832
20	0xbe837546	-0.2567541
21	0xbfe68bd1	-1.8011419
22	0x401773ad	2.3664353
23	0x3fe571ca	1.7925351
24	0xbf8a1c90	-1.0789967
25	0x3eaa0694	0.33208144
26	0xc02d5cff	-2.708801
27	0x3eb82587	0.3596613
28	0x3ee575c6	0.44816417
29	0x3f38b1f4	0.72146535
30	0x3fe2daf6	1.7723072
31	0x3ef7cc93	0.48398265
32	0x3e039238	0.12848747
33	0xc0ee9e7d	-7.4568467
34	0x3fa11fba	1.2587807
35	0xbe30edda	-0.17278233
36	0xbf22ec4a	-0.636418
37	0x3ff2692e	1.8938348
38	0xbfe99bad	-1.8250633
39	0x3f514107	0.8173985
40	0xbf10b823	-0.5653097
41	0xbf789eb9	-0.9711719
42	0x3f9fd807	1.2487801
43	0xbeacfd58	-0.33787036
44	0x3ea072f8	0.31337714
45	0x40d24521	6.5709386
46	0x3f21da01	0.6322327
47	0xc078e1cc	-3.8887815
48	0xbf92080a	-1.1408703
49	0xbda76a82	-0.08174612
50	0x3f990700	1.1955261
51	0xbf579de2	-0.84225285
52	0xbf82e8bf	-1.0227278
53	0x3e20fa30	0.15720439
54	0x3fb0ab21	1.3802224
55	0xbe93e658	-0.28886676
56	0x3f9b4091	1.2129079
57	0xbe70ce82	-0.23516276
58	0xbfe0fd77	-1.7577351
59	0x3f913ed7	1.1347302
60	0x409eb032	4.959008
61	0xbf279c32	-0.6547271
62	0xbda00989	-0.07814319
63	0x3f95fa78	1.1717062
64	0xc03b6080	-2.927765
65	0xbec4e3ce	-0.3845505
66	0x3f5b9150	0.85768604
67	0x40165db1	2.3494685
68	0x3f3f7891	0.74793345
69	0xbfe15656	-1.7604473
70	0xbe880d3c	-0.26572597
71	0x3d48e929	0.049050484
72	0xbef30f70	-0.47472715
73	0xc0483dc8	-3.1287708
74	0x3de0f4e3	0.109842084
75	0x3f2f934c	0.6858413
76	0xbf1001ee	-0.56252944
77	0x3fc69e68	1.5517092
78	0xbec6f5f6	-0.38859528
79	0xbfb00cef	-1.3753947
80	0x3f439c74	0.76410604
81	0xbd6f2e25	-0.058393616
82	0xc034236e	-2.8146625
83	0xbf6696f0	-0.9007406
84	0xbc5c87de	-0.013460128
85	0xbfe96c69	-1.8236209
86	0x3f03b294	0.51444364
87	0xbf9077fc	-1.1286616
88	0x40864b2e	4.196677
89	0x3fb97080	1.4487457
90	0xbf5b6c59	-0.857122
91	0x3c39dadb	0.011343683
92	0x3f5074a5	0.81427985
93	0x3f254e8b	0.6457297
94	0x40821f6e	4.0663366
95	0xbe849086	-0.25891513
96	0x3bf5b326	0.007498163
97	0xbed6efb8	-0.41979766
98	0x3f472cb0	0.7780256
99	0x3e873714	0.2640921
100	0xbeb9aeef	-0.36266276
101	0xbd896325	-0.067083634
102	0x3f1eceab	0.620341
103	0x40914023	4.539079
104	0xbf9fdad0	-1.2488651
105	0x3d3fd28d	0.046831656
106	0x3fe7e749	1.8117458
107	0x3fc899f9	1.5671989
108	0xbe4097a1	-0.18807842
109	0xbfd8006b	-1.6875128
110	0x3f032f46	0.5124401
111	0x3f46bb52	0.7762958
112	0xbe6fd93d	-0.23422714
113	0x3fb10df2	1.3832381
114	0x3fe887ec	1.816648
115	0xbeaeca18	-0.3413856
116	0xc000c942	-2.0122838
117	0x3e51c413	0.20484953
118	0x3e892834	0.26788485
119	0xbf795410	-0.97393894
120	0x3e91c185	0.28467956
121	0xbfa20521	-1.2657815
122	0xbef68794	-0.48150313
123	0x3e2aa530	0.16664577
124	0xbf832d7f	-1.0248259
125	0xbf6da90d	-0.92836076
126	0x3fadc4bf	1.3575667
127	0xbdcc2387	-0.09967714
128	0xbfe8fbd0	-1.8201847
129	0x3f24613d	0.64210874
130	0xbe516e49	-0.20452227
131	0xc02bd48a	-2.6848474
132	0x3e923601	0.28556827
133	0x3fb41964	1.4070249
134	0xbfd78249	-1.6836635
135	0xc016f62e	-2.3587756
136	0xbf5f59a9	-0.87246186
137	0x3fb518da	1.4148209
138	0x3cd79c1c	0.026319556
139	0xbf0817ff	-0.53161615
140	0xbf1802b9	-0.59379154
141	0xbf822e36	-1.0170352
142	0xbf462de2	-0.7741376
143	0x3e16531e	0.14680144
144	0x3e5fa0a8	0.21838629
145	0x4011cdfb	2.278197
146	0xbd6dc0d3	-0.05804522
147	0x3f5cb143	0.8620798
148	0xbe56ed8f	-0.20989059
149	0xbe3027be	-0.1720266
150	0x3dffe16c	0.12494168
151	0x3f1692b6	0.58817613
152	0xbfe5af8e	-1.79442
153	0xc05209de	-3.2818522
154	0xbcbd7e28	-0.023131445
155	0xc024a81b	-2.5727603
156	0xc0534d3f	-3.3015897
157	0x3fb0ddf0	1.381773
158	0x3ffc10b0	1.9692593
159	0x3fa5cb8e	1.2952745
160	0xbff33e54	-1.9003396
161	0xbf0bd647	-0.54623836
162	0xbfe3602c	-1.7763724
163	0xc018e840	-2.3891754
164	0x3f33ca6d	0.7023075
165	0x40074114	2.113347
166	0x3cf723a6	0.030168366
167	0xbfb50c69	-1.4144412
168	0xc00cd81c	-2.2006903
169	0xbf0af5ea	-0.54281485
170	0xbf971f70	-1.1806469
171	0x4030afe3	2.7607353
172	0x4010d5bb	2.263045
173	0xbfad05bf	-1.3517379
174	0xbf3990fe	-0.72486866
175	0x3f1589e6	0.5841354
176	0xbfc27116	-1.5190761
177	0xc002f086	-2.0459304
178	0x40000e86	2.0008864
179	0x404e6710	3.2250404
180	0xc0338271	-2.8048365
181	0xbfa0baaa	-1.2556965
182	0x3f84f821	1.0388223
183	0xc021441d	-2.5197823
184	0xbfad5109	-1.3540355
185	0xbfe59bb1	-1.7938138
186	0x3f91b1b4	1.1382356
187	0x40a18d13	5.048471
188	0xbf24ba77	-0.6434702
189	0xbf2c91d7	-0.67410034
190	0xc02d6743	-2.7094276
191	0xbdd6940f	-0.10477459
192	0x3ffd5f53	1.9794716
193	0x40888631	4.266381
194	0xc0519acb	-3.2750728
195	0xbf734a8a	-0.9503561

bias_ih_l0 f4 [28]
0	0x3ff57346	1.9175804
1	0x3e0e55f6	0.13899979
2	0x3e10ccfa	0.14140692
3	0xc0596a6d	-3.3971207
4	0x3d60c437	0.054874625
5	0xc03324ea	-2.799128
6	0x3efbe5ef	0.49198863
7	0x3fc2dd16	1.522372
8	0x3fc47b02	1.5350039
9	0x40187647	2.382219
10	0x3dc6fea5	0.09716538
11	0x3fc85ff2	1.565428
12	0x3f25cdff	0.6476745
13	0xbf85d575	-1.0455767
14	0x3f128e90	0.57248783
15	0xbfb744ca	-1.4317868
16	0xbfd16b3e	-1.6360853
17	0x3f9b9af1	1.2156659
18	0x3fac7387	1.3472756
19	0x3ff23ada	1.892421
20	0x3ef7a08a	0.4836467
21	0xbf87d361	-1.0611383
22	0x3ff493c3	1.9107593
23	0x401eef64	2.4833612
24	0x3dd55f2b	0.104185425
25	0x3fbd37fe	1.4782712
26	0x3ee3707d	0.4442176
27	0xbe9d9791	-0.30779698

bias_hh_l0 f4 [28]
0	0x3ff5bf14	1.9198937
1	0xbf097cf0	-0.53706264
2	0x3e3a3ee3	0.18188052
3	0xc05884f9	-3.383116
4	0xbdf62759	-0.12019224
5	0xc00ce6ac	-2.201579
6	0xbb821c58	-0.003970664
7	0x3fb7d7ed	1.436277
8	0x3fc106e0	1.5080223
9	0x40194586	2.3948684
10	0x3ea5dc5a	0.32394677
11	0x3fd1d3e0	1.6392784
12	0x3f66e399	0.90191036
13	0xbf84f1d7	-1.0386304
14	0x3f106e90	0.56418705
15	0xbf738f35	-0.9514039
16	0xbfa61374	-1.2974687
17	0x3fa70735	1.3049074
18	0x3f96c309	1.177827
19	0x40142c68	2.3152103
20	0x3f414c0f	0.7550668
21	0xbf897c6a	-1.0741093
22	0x3fca3c2d	1.5799614
23	0x401fbe8e	2.4960055
24	0x3f0c2288	0.5474019
25	0x3fdd1eba	1.7275002
26	0x3f3e46c9	0.7432676
27	0xbf117326	-0.5681633

weight f4 [1, 7]
0	0xc01b9c9d	-2.431434
1	0xc05add19	-3.4197447
2	0xc04bf9b3	-3.1871154
3	0x40e057b2	7.010705
4	0x407efbe1	3.9841235
5	0xbfb16f26	-1.3862045
6	0xc0820798	-4.063427
